weights/epoch_1_state_dict.pt (torch, 728187 bytes, 320 tensors)

backbone.stage0.sconv.weight f4 [16, 3, 3, 3]
-0.014280582 0.20078774 -0.0298184 0.09074201 0.04923182 0.073135585 -0.03335289 0.15921885
0.105608925 0.021804616 0.05768636 0.06985264 0.070336096 0.098108836 0.0857806 0.0341475
0.018159011 0.15237789 0.07390665 0.095573574 -0.018367412 -0.039438043 0.057977967 0.058930986
0.022769894 0.027268616 0.050916944 -0.106954336 -0.06457186 -0.16925848 -0.1432571 0.001601487
0.0072035855 0.07675333 -0.019089717 -0.04939457 0.030811476 0.0009255476 0.10750988 0.18636037
0.06707686 0.18065655 -0.13929424 0.063680634 -0.04196191 0.19941609 0.27460548 -0.039294306
-0.10673281 0.14007273 0.31019202 -0.11618669 0.22646326 0.34110627 -0.16838764 -0.22618914
-0.076603375 -0.019279536 -0.22806926 -0.19030593 -0.08514311 0.073444955 0.10863613 0.07342676
0.020397414 -0.18099536 -0.061937746 0.00059911475 -0.04957326 -0.0021409655 0.004198355 -0.13768339
-0.020799097 -0.0061859097 0.030900558 0.014384758 0.00039666495 0.01824991 -0.13409166 -0.008159557
-0.06671018 -0.0072565745 0.23113684 0.10273071 0.06908647 0.35567778 0.070598066 0.10385427
-0.028675046 0.044237915 0.05756885 -0.099294595 0.06462413 0.013611436 -0.07708419 0.20927785
0.18583062 -0.10281522 0.043163277 0.078532934 0.16935092 0.0057131336 -0.121247865 -0.10407029
-0.06917384 -0.19071512 -0.05716375 0.0263036 -0.07857544 -0.43751866 -0.27927226 -0.11515926
-0.28105494 -0.15227592 0.027826581 -0.06548096 -0.12555273 -0.04857427 -0.2172011 -0.0073286705
0.06732944 -0.21528159 -0.2081605 0.11739627 -0.054394625 -0.021033585 0.14747451 0.0012164497
0.22472839 0.17008033 0.027792208 0.04513389 0.07160673 0.29030102 0.11882565 -0.01397469
0.017152682 0.00042342726 -0.0516411 0.21982345 0.31875908 0.20386052 0.13604094 0.20277055
-0.032986358 0.09390425 0.1566908 0.045387775 0.036692165 0.013481444 0.03315593 -0.01008648
-0.16755933 -0.12184018 -0.15190016 -0.014169861 -0.01580979 0.054833192 -0.051033095 -0.04476255
0.0010853538 -0.12602875 -0.14607099 -0.15127967 -0.10162051 -0.16899098 0.019562751 -0.056631893
-0.13205712 -0.014973272 -0.106758066 0.25128263 0.08507666 0.32032168 0.2898345 0.35707217
0.18823136 0.2703706 0.38202956 0.34260303 -0.15134633 -0.025859011 -0.15900949 -0.2869794
-0.11142323 -0.06893008 -0.119148485 -0.21851847 -0.35621867 0.19165912 0.2130487 0.12044485
-0.02513113 0.07355631 0.24063972 0.15036833 0.1760983 -0.029057985 -0.2079579 -0.25257745
-0.20423709 -0.31737742 -0.31038472 -0.111424886 -0.37412885 -0.31687897 -0.16309689 0.110929005
-0.018254524 0.05647445 -0.2671552 -0.017328072 -0.022606438 0.019452006 0.05499281 -0.011850323
0.2588416 0.14547661 0.11182793 -0.10991772 0.021526707 0.11044428 0.17672206 0.38950682
0.060961336 0.20390266 -0.074983194 -0.07381033 0.05843242 0.14169233 -0.006314919 -0.084437095
-0.1497878 -0.20488347 0.05445102 0.06342959 0.06388873 0.012289966 0.117379256 0.15801764
-0.011925287 0.17634505 -0.12161805 -0.08733271 -0.10663154 -0.09047852 -0.095345385 -0.181565
-0.025249856 0.0011877739 0.07634926 0.19947733 -0.18361092 -0.003642341 -0.025927601 0.018345473
00000000: 1af9 69bc 4d9b 4d3e b845 f4bc f2d6 b93d
00000010: 4ea7 493d 1cc8 953d 0a9d 08bd 440a 233e
00000020: 7e49 d83d 989f b23c 8848 6c3d e70e 8f3d
00000030: 5f0c 903d 49ed c83d bdad af3d 40de 0b3d
00000040: 35c2 943c f308 1c3e 5f5c 973d 14bc c33d
00000050: 4177 96bc c989 21bd 4e7a 6d3d 9e61 713d
00000060: ee87 ba3c 6f62 df3c 498e 503d e00a dbbd
00000070: 403e 84bd 1852 2dbe fdb1 12be fde8 d13a
00000080: 0e0c ec3b da30 9d3d 0a62 9cbc f651 4abd
00000090: 5968 fc3c 73a0 723a 242e dc3d 41d5 3e3e
000000a0: 985f 893d 08fe 383e 26a3 0ebe fe6a 823d
000000b0: 40e0 2bbd bb33 4c3e 1799 8c3e 11f3 20bd
000000c0: bb96 dabd 3a6f 0f3e 7dd1 9e3e 4af3 edbd
000000d0: fce5 673e 7ba5 ae3e cf6d 2cbe 209e 67be
000000e0: 3be2 9cbd 1ef0 9dbc fd8a 69be 8fdf 42be
000000f0: 835f aebd 4f6a 963d 9f7c de3d c560 963d
00000100: 7a18 a73c d956 39be 6fb2 7dbd e90d 1d3a
00000110: 550d 4bbd 714f 0cbb 5b92 893b e0fc 0cbe
00000120: de62 aabc 2cb3 cabb 2b23 fd3c 0cae 6b3c
00000130: 78f7 cf39 d680 953c 534f 09be aaaf 05bc
00000140: 599f 88bd 8fc8 edbb 23af 6c3e 7a64 d23d
00000150: 357d 8d3d 661b b63e b895 903d 8cb1 d43d
00000160: eee7 eabc d132 353d 51cd 6b3d f75a cbbd
00000170: a859 843d 8002 5f3c 51de 9dbd ef4c 563e
00000180: 624a 3e3e c990 d2bd facb 303d e0d5 a03d
00000190: 546a 2d3e 3d35 bb3b cd50 f8bd ce22 d5bd
000001a0: 04ab 8dbd d34a 43be 8924 6abd a67a d73c
000001b0: 29ec a0bd 7202 e0be c6fc 8ebe 9ed8 ebbd
000001c0: 6fe6 8fbe 38ee 1bbe 92f4 e33c e21a 86bd
000001d0: e590 00be d0f5 46bd f769 5ebe 5825 f0bb
000001e0: 04e4 893d c772 5cbe 0728 55be 756d f03d
000001f0: e6cc 5ebd a04e acbc 8f03 173e 4771 9f3a
00000200: 331f 663e 8a29 2e3e 7cac e33c 50de 383d
00000210: 8da6 923d 56a2 943e dd5a f33d 19f6 64bc
00000220: c883 8c3c 72ff dd39 9e85 53bd 6619 613e
00000230: 6434 a33e d0c0 503e 514e 0b3e 15a3 4f3e
00000240: b41c 07bd df50 c03d 8e73 203e 88e8 393d
00000250: 864a 163d 46e1 5c3c 83ce 073d c341 25bc
00000260: ac94 2bbe 5887 f9bd b78b 1bbe b428 68bc
00000270: 8883 81bc c598 603d 1408 51bd f058 37bd
00000280: 6e42 8e3a ae0d 01be a293 15be 0fe9 1abe
00000290: 6a1e d0bd f90b 2dbe 1042 a03c d8f6 67bd
000002a0: fb39 07be 7452 75bc f9a3 dabd 1ea8 803e
000002b0: ac3c ae3d 3401 a43e 3065 943e 2ad2 b63e
000002c0: b9bf 403e 046e 8a3e 6199 c33e aa69 af3e
000002d0: 88fa 1abe 47d6 d3bc 62d3 22be f7ee 92be
000002e0: dd31 e4bd 372b 8dbd 1f04 f4bd 4ec3 5fbe
000002f0: 4b62 b6be 4a42 443e 7029 5a3e caab f63d
00000300: cddf cdbc b1a4 963d 426a 763e 28fa 193e
00000310: 1d53 343e 030b eebc eaf2 54be d551 81be
00000320: 8723 51be 4b7f a2be bfea 9ebe bb32 e4bd
00000330: d18d bfbe f63d a2be df02 27be bf2e e33d
00000340: 838a 95bc c151 673d 91c8 88be 9af3 8dbc
00000350: 2331 b9bc d059 9f3c 2440 613d db27 42bc
00000360: e386 843e d2f7 143e 0b06 e53d 8b1c e1bd
00000370: c758 b03c 9c30 e23d a1f6 343e 706d c73e
00000380: 98b2 793d dccb 503e ca90 99bd df29 97bd
00000390: d556 6f3d cb17 113e 61ed cebb 5bed acbd
000003a0: f961 19be f9cc 51be 0808 5f3d 5fe7 813d
000003b0: 18d8 823d db5b 493c 8964 f03d 60cf 213e
000003c0: 4762 43bc cc93 343e e212 f9bd 7edb b2bd
000003d0: a361 dabd cd4c b9bd 7144 c3bd 2dec 39be
000003e0: c9d8 cebc 14af 9b3a 005d 9c3d c943 4c3e
000003f0: 8004 3cbe 57b4 6ebb 1f66 d4bc 3f49 963c

backbone.stage0.sconv.bias f4 [16]
0.019977903 0.019978005 0.019978618 0.01997576 0.019977745 0.019978214 0.019979035 0.019977888
0.019976286 0.019977432 0.019977365 0.019977948 0.019976895 0.019979822 0.019977981 0.019977748
00000000: b3a8 a33c eaa8 a33c 33aa a33c 34a4 a33c
00000010: 5ea8 a33c 5aa9 a33c 13ab a33c aba8 a33c
00000020: 4fa5 a33c b6a7 a33c 92a7 a33c cba8 a33c
00000030: 96a6 a33c b9ac a33c dda8 a33c 60a8 a33c

backbone.stage0.bn.weight f4 [16]
0.8669854 0.9517061 1.0398232 0.9370341 1.0584587 0.926517 1.0305533 1.1612139
0.9894979 1.0483091 0.95195156 0.99887073 0.9246692 1.0962628 1.0416723 0.98617554
00000000: c1f2 5d3f 03a3 733f ed18 853f 77e1 6f3f
00000010: 937b 873f 3830 6d3f 2ce9 833f a8a2 943f
00000020: bc4f 7d3f fe2e 863f 19b3 733f feb5 7f3f
00000030: 1fb7 6c3f 5752 8c3f 8555 853f 0076 7c3f

backbone.stage0.bn.bias f4 [16]
-0.19112673 0.16174586 0.069506995 -0.04251259 -0.09888736 -0.02522809 0.1501833 0.22895862
0.042557143 0.045882925 0.009161529 0.12849595 -0.054761253 0.08015665 -0.0035643748 0.06381867
00000000: bab6 43be b5a0 253e af59 8e3d ae21 2ebd
00000010: 7585 cabd 24ab cebc a7c9 193e 2174 6a3e
00000020: 6650 2e3d bcef 3b3d 3d1a 163c 7194 033e
00000030: 564d 60bd 2b29 a43d 4998 69bb 5db3 823d

backbone.stage0.bn.running_mean f4 [16]
-0.15127894 -0.23477358 0.1345756 -0.011634978 0.025376795 0.047713883 -0.015431472 0.2646709
-0.09982285 0.15498532 -0.21737295 -0.19833735 0.113860026 0.056598745 0.081636444 -0.21646339
00000000: dee8 1abe 7c68 70be 30ce 093e a2a0 3ebc
00000010: ffe2 cf3c a26f 433d 49d4 7cbc f282 873e
00000020: ec6f ccbd 79b4 1e3e 0497 5ebe f218 4bbe
00000030: 722f e93d 16d4 673d 0231 a73d 94a8 5dbe

backbone.stage0.bn.running_var f4 [16]
0.70807797 0.5768673 0.51212233 0.2975605 0.786913 0.19877502 0.18635233 0.60024774
0.6425059 0.28816572 1.0283169 0.39932448 0.38039115 0.16181529 0.26126227 0.74033445
00000000: 9944 353f 93ad 133f 731a 033f da59 983e
00000010: 2173 493f ae8b 4b3e 25d3 3e3e d6a9 193f
00000020: 447b 243f 758a 933e e39f 833f 4274 cc3e
00000030: a1c2 c23e e8b2 253e 2bc4 853e 8f86 3d3f

backbone.stage0.unit.pconv.weight f4 [16, 16, 1, 1]
0.07844667 -0.19774717 -0.046860717 -0.47251716 0.376124 -0.06753493 0.033505194 -0.2168785
0.21189414 0.02038575 0.012770114 0.13862196 -0.10942257 0.1391743 -0.3835499 0.12026997
-0.093205914 0.23295249 0.016357373 -0.1851876 0.02170735 0.0045720637 -0.36961445 -0.4381186
-0.03182292 -0.27368784 0.23392688 0.21028595 0.32087192 -0.03905709 0.11391968 0.34847307
0.44017038 0.13380882 -0.15576509 -0.4100336 -0.32025826 0.12518187 0.31273746 0.54258996
0.35265994 -0.32564297 0.027201315 0.21264464 -0.1610304 0.650527 0.00020799303 0.3681772
-0.10191116 0.28411818 -0.11805553 0.56960243 0.22303756 -0.28256342 0.5657545 -0.32130954
0.24505243 -0.07138777 0.102567986 0.04509553 0.40892127 0.056590904 0.23306818 -0.08978477
-0.016411973 0.5053644 -0.079048865 0.07578444 0.09493291 0.1201638 0.096462324 0.19093718
0.13327672 -0.3539876 -0.056857135 -0.055153217 -0.016614145 -0.6122271 0.09227113 0.41456246
0.38464528 -0.19649683 0.1449412 -0.056970667 -0.41558194 0.17916203 -0.14708753 0.32626098
0.0022789713 0.087023005 0.072270155 0.012155475 0.2594288 0.36193225 0.479191 0.050916787
0.03324158 -0.0004145291 0.3163555 0.2618284 -0.32489258 0.25456563 0.37847722 -0.10542445
-0.099671505 -0.2545137 0.0063764127 0.09108175 -0.0763702 0.15203296 -0.22338727 0.5569896
0.11646987 -0.4418154 -0.33099547 0.17653953 -0.58446026 -0.16611075 -0.33699933 0.39335823
0.18917406 0.015880983 -0.5366937 -0.15037665 -0.049378354 0.0032202571 -0.2654677 -0.39343825
-0.42259106 -0.032569487 -0.019581037 0.18754148 -0.12541772 -0.017267104 0.12213793 0.52981204
-0.221178 -0.020800997 0.5358492 -0.34380525 -0.15666087 -0.23947784 0.23399009 0.49226844
0.19036166 -0.11161161 -0.38888425 -0.18557738 0.17303441 0.10819549 0.30215448 0.30046535
-0.19622158 -0.054456733 0.39313966 -0.088032275 0.059687845 -0.21580698 0.23967779 0.47209442
0.019624077 -0.0043944637 -0.32003307 0.074804366 -0.41169795 0.3545576 -0.15977386 -0.21904927
0.23929599 -0.436533 -0.048263818 -0.07021061 -0.012847184 -0.12646838 0.20033894 0.121321656
0.034474034 0.29903254 0.058895655 0.3224032 0.23606916 -0.021631615 0.051965233 0.6077478
-0.07384298 0.2825555 -0.22590552 0.1569056 -0.30126593 0.018042885 0.48799285 -0.17527932
0.15405022 -0.67544514 -0.015131808 0.18717818 -0.07159163 0.02813535 0.35625944 -0.12554257
-0.2927375 0.16081852 -0.3930677 -0.2820976 -0.021956498 -0.2165034 -0.52289146 0.20362696
0.25464177 -0.007488434 -0.32949156 0.1303611 0.35692388 0.14047766 -0.2970768 -0.3857939
0.5820755 -0.18285598 0.1514213 -0.47785103 -0.72370076 -0.01622943 0.47216633 0.22891088
-0.026140235 0.16888075 0.08268977 -0.1486491 -0.302952 -0.08086573 -0.10683514 -0.28282425
-0.12572517 -0.021426698 0.26005873 0.06746786 0.22084546 -0.30293846 -0.2845567 0.059889864
-0.3322152 0.43367156 -0.36290088 0.14228748 -0.26293197 0.010120019 -0.11447098 0.20431902
-0.23361175 0.25190502 0.28022835 -0.012217161 -0.097665794 -0.3483897 -0.017052215 0.15768765
00000000: a6a8 a03d 3c7e 4abe 06f1 3fbd c5ed f1be
00000010: 5393 c03e c14f 8abd be3c 093d 6615 5ebe
00000020: c7fa 583e 0400 a73c bd39 513c eaf2 0d3e
00000030: f118 e0bd b583 0e3e a760 c4be 1a50 f63d
00000040: bee2 bebd 198b 6e3e e6ff 853c d1a1 3dbe
00000050: 9dd3 b13c 40d1 953b 1b3e bdbe 1551 e0be
00000060: c058 02bd d020 8cbe 878a 6f3e 3355 573e
00000070: 5349 a43e 54fa 1fbd b94e e93d 106b b23e
00000080: 035e e13e 2e05 093e e280 1fbe edef d1be
00000090: e4f8 a3be ad2f 003e 201f a03e 2de7 0a3f
000000a0: d88f b43e adba a6be 4bd5 de3c 84bf 593e
000000b0: 27e5 24be f088 263f b418 5a39 b981 bc3e
000000c0: ccb6 d0bd f077 913e 19c7 f1bd 77d1 113f
000000d0: f563 643e 27ac 90be 49d5 103f af82 a4be
000000e0: 06ef 7a3e c033 92bd 2a0f d23d 17b6 383d
000000f0: 215e d13e ddcb 673d 6da9 6e3e 14e1 b7bd
00000100: 6772 86bc 905f 013f 5fe4 a1bd df34 9b3d
00000110: 2f6c c23d 7018 f63d 0a8e c53d 0985 433e
00000120: b179 083e dd3d b5be 07e3 68bd 57e8 61bd
00000130: 631a 88bc eaba 1cbf a5f8 bc3d 8841 d43e
00000140: 3af0 c43e 7736 49be 776b 143e 135a 69bd
00000150: 28c7 d4be 4076 373e 1d9e 16be ae0b a73e
00000160: cb5a 153b 1e39 b23d 6002 943d c227 473c
00000170: dad3 843e 2f4f b93e 8658 f53e 1f8e 503d
00000180: 5328 083d 2755 d9b9 59f9 a13e 5f0e 863e
00000190: 5258 a6be 6d56 823e c4c7 c13e c6e8 d7bd
000001a0: 9320 ccbd 9f4f 82be 3af1 d03b 1289 ba3d
000001b0: fb67 9cbd 87ae 1b3e a2bf 64be df96 0e3f
000001c0: c187 ee3d a135 e2be 3d78 a9be c7c6 343e
000001d0: 309f 15bf f018 2abe 2d8b acbe 4066 c93e
000001e0: d8b6 413e d618 823c c264 09bf 56fc 19be
000001f0: f540 4abd f30a 533b 62eb 87be bd70 c9be
00000200: db5d d8be 9567 05bd 6968 a0bc e00a 403e
00000210: 816d 00be be73 8dbc 7323 fa3d c3a1 073f
00000220: 7c7c 62be da66 aabc 6a2d 093f 3e07 b0be
00000230: b56b 20be ae39 75be 199b 6f3e 9c0a fc3e
00000240: 2bee 423e a194 e4bd d61b c7be ff07 3ebe
00000250: ef2f 313e 9995 dd3d feb3 9a3e 98d6 993e
00000260: 4fee 48be 060e 5fbd 9a49 c93e 444a b4bd
00000270: 3e7b 743d 81fc 5cbe 186e 753e 5cb6 f13e
00000280: acc2 a03c 6fff 8fbb 60db a3be 0833 993d
00000290: 13ca d2be 9388 b53e c29b 23be 744e 60be
000002a0: 020a 753e 4181 dfbe 48b0 45bd 95ca 8fbd
000002b0: ff7c 52bc ed80 01be a725 4d3e 7d77 f83d
000002c0: a534 0d3d cb1a 993e 923c 713d 0812 a53e
000002d0: 1dbc 713e c934 b1bc 7fd9 543d 5c95 1b3f
000002e0: fd3a 97bd 1dab 903e c753 67be ddab 203e
000002f0: 873f 9abe acce 933c 33da f93e 6c7c 33be
00000300: 57bf 1d3e f9e9 2cbf 67eb 77bc a3ab 3f3e
00000310: a29e 92bd 1b7c e63c a367 b63e 3b8e 00be
00000320: b1e1 95be 9cad 243e 2b40 c9be 196f 90be
00000330: 1dde b3bc 11b3 5dbe 37dc 05bf 9683 503e
00000340: 6860 823e 8a61 f5bb 1eb3 a8be 617d 053e
00000350: babe b63e 60d9 0f3e 731a 98be c786 c5be
00000360: e602 153f 993e 3bbe 2f0e 1b3e e4a8 f4be
00000370: 7444 39bf 95f3 84bc c9bf f13e 9d67 6a3e
00000380: 0c24 d6bc 13ef 2c3e 4159 a93d 7837 18be
00000390: 861c 9bbe ef9c a5bd 62cc dabd 57ce 90be
000003a0: 19be 00be 0b87 afbc 6b26 853e 972c 8a3d
000003b0: 5025 623e c01a 9bbe 6ab1 91be 134f 753d
000003c0: 1c18 aabe 330a de3e 25ce b9be cfb3 113e
000003d0: 059f 86be 70ce 253c c36f eabd 0139 513e
000003e0: eb37 6fbe b2f9 803e 177a 8f3e 7d2a 48bc
000003f0: 0105 c8bd 2260 b2be 16b1 8bbc df78 213e

backbone.stage0.unit.pconv.bias f4 [16]
0.017410329 0.018594509 0.020181643 0.020890761 0.019356463 0.02008059 0.02057325 0.029099533
0.028923888 0.02434063 0.02052598 0.017475635 0.018294867 0.020056369 0.027717156 0.019658057
00000000: 1ba0 8e3c 8353 983c f953 a53c 1a23 ab3c
00000010: 7291 9e3c 0d80 a43c 3b89 a83c 2562 ee3c
00000020: caf1 ec3c 0066 c73c 1a26 a83c 1029 8f3c
00000030: 1edf 953c 414d a43c 170f e33c ef09 a13c

backbone.stage0.unit.dconv.weight f4 [16, 1, 3, 3]
0.083486974 0.01914217 0.024845345 0.12343086 0.033129815 0.14437473 0.070690155 0.2060469
0.052949373 0.18808177 0.23375714 0.2455556 0.044494763 -0.062165067 -0.15476948 0.20457081
0.14161702 -0.016810432 -0.035197683 0.14873858 -0.02000243 0.0752113 0.249888 0.041534357
0.12454185 0.16120732 0.11889624 -0.087824196 -0.14543417 -0.11947238 -0.07776983 -0.123919085
-0.027940795 -0.11444705 -0.034315802 0.023643784 0.029537166 -0.02979884 -0.06780053 0.042729918
0.058056355 0.010178874 0.08940203 0.1226746 0.26674104 0.22950087 -0.075535946 0.21536487
-0.006084643 -0.1269101 -0.09574761 0.080764905 -0.2970513 -0.17134212 -0.11905459 0.24811704
0.0037410646 0.2449243 0.015726985 0.1703099 -0.030865964 0.10316372 0.072798185 0.023906704
0.16374326 -0.17778389 0.19005322 0.13983338 -0.0046745143 0.30632836 0.26261315 -0.044350807
-0.32928327 -0.19898883 0.08736741 -0.16856463 -0.24670482 0.2300943 -0.010802714 0.084433146
-0.030404309 -0.1034129 0.016811222 -0.04487237 -0.04217188 -0.108466186 -0.21328846 -0.047221523
0.001434168 0.011790818 -0.30487135 -0.44149446 -0.506908 -0.19365439 0.10559888 0.16905399
0.22209445 0.46236938 0.38917205 0.13504666 0.06527836 -0.13681953 0.18964161 -0.0063593015
0.013669192 0.2246049 0.14149679 -0.20025298 0.02861503 0.07137481 0.015958726 -0.026030561
0.22623992 -0.017848454 0.21820907 0.11446712 0.14464009 -0.027266867 0.09808257 0.080366716
0.25440535 0.25364628 0.21058175 0.045919664 0.015690545 -0.12285216 0.28307533 0.12864012
0.2859162 -0.012582143 0.09457748 0.029827608 -0.23896956 -0.011244435 -0.080830485 0.15589784
-0.3365239 -0.0633428 -0.105546616 -0.00029490603 -0.18024205 0.058314193 -0.12523037 -0.060953528
00000000: 38fb aa3d 0ad0 9c3c 7788 cb3c 52c9 fc3d
00000010: 21b3 073d f8d6 133e 00c6 903d f5fd 523e
00000020: 71e1 583d 8298 403e 085e 6f3e ed72 7b3e
00000030: 2440 363d cca0 7ebd e47b 1ebe 037b 513e
00000040: 0d04 113e 08b6 89bc 722b 10bd ed4e 183e
00000050: 23dc a3bc 6208 9a3d a4e2 7f3e ee1f 2a3d
00000060: cc0f ff3d 8813 253e df7f f33d 2cdd b3bd
00000070: b2ec 14be efad f4bd ca45 9fbd 4ac9 fdbd
00000080: 18e4 e4bc 3763 eabd ba8e 0cbd 9cb0 c13c
00000090: edf7 f13c b21c f4bc 01db 8abd 9105 2f3d
000000a0: 80cc 6d3d 4bc5 263c 6918 b73d d23c fb3d
000000b0: 4892 883e 4702 6b3e 97b2 9abd 9c88 5c3e
000000c0: af61 c7bb b9f4 01be 5317 c4bd 1268 a53d
000000d0: 1c17 98be 4f74 2fbe e5d2 f3bd 6512 7e3e
000000e0: a62c 753b 70cd 7a3e e1d5 803c b865 2e3e
000000f0: 9eda fcbc 8047 d33d 3717 953d fed7 c33c
00000100: 50ac 273e fb0c 36be 509d 423e 7b30 0f3e
00000110: ab2c 99bb 12d7 9c3e 3b75 863e 31a9 35bd
00000120: d197 a8be bac3 4bbe afed b23d 359c 2cbe
00000130: 30a0 7cbe d79d 6b3e defd 30bc 49eb ac3d
00000140: 7512 f9bc 24ca d3bd b0b7 893c 17cc 37bd
00000150: 6cbc 2cbd 8523 debd 4a68 5abe 5b6b 41bd
00000160: b1fa bb3a 462e 413c 1918 9cbe 900b e2be
00000170: b9c4 01bf 564d 46be 3a44 d83d 7d1c 2d3e
00000180: ba6c 633e aebb ec3e 8f41 c73e ac49 0a3e
00000190: a9b0 853d 6b1a 0cbe 6931 423e b061 d0bb
000001a0: bff4 5f3c d4fe 653e 89e4 103e 1e0f 4dbe
000001b0: 116a ea3c f52c 923d e0bb 823c 0b3e d5bc
000001c0: 70ab 673e ec36 92bc 3372 5f3e bd6d ea3d
000001d0: 881c 143e c45e dfbc 84df c83d 4e97 a43d
000001e0: 6b41 823e eddd 813e bea2 573e 4216 3c3d
000001f0: 7589 803c ea99 fbbd 40ef 903e 3cba 033e
00000200: 9c63 923e 5525 4ebc d6b1 c13d 0759 f43c
00000210: 70b4 74be 943a 38bc 748a a5bd afa3 1f3e
00000220: dc4c acbe dfb9 81bd d328 d8bd 9e9d 9ab9
00000230: 5f91 38be ddda 6e3d 643c 00be 68aa 79bd

backbone.stage0.unit.dconv.bias f4 [16]
0.019977696 0.019977711 0.019977469 0.019978503 0.01997783 0.019977933 0.01997787 0.01997827
0.019976882 0.01997822 0.019978313 0.01997699 0.019977745 0.01997818 0.019977668 0.019977903
00000000: 44a8 a33c 4ca8 a33c caa7 a33c f5a9 a33c
00000010: 8ca8 a33c c3a8 a33c a1a8 a33c 78a9 a33c
00000020: 8fa6 a33c 5da9 a33c 8fa9 a33c c9a6 a33c
00000030: 5ea8 a33c 48a9 a33c 35a8 a33c b3a8 a33c

backbone.stage0.unit.bn.weight f4 [16]
1.0141671 0.94949293 0.9727509 0.9302984 0.957523 0.97132164 0.96873343 1.1226312
0.9936039 0.948841 1.0522699 0.9803983 1.0414408 1.1326656 1.0143076 0.929799
00000000: 3ad0 813f f811 733f 3406 793f 0928 6e3f
00000010: 3a20 753f 89a8 783f eafe 773f 61b2 8f3f
00000020: d35c 7e3f 3ee7 723f c8b0 863f 62fb 7a3f
00000030: ef4d 853f 30fb 903f d5d4 813f 4f07 6e3f

backbone.stage0.unit.bn.bias f4 [16]
0.029724423 -0.042137843 -0.04803333 -0.020829849 0.07122374 0.099724814 0.033181407 0.18721657
0.10482733 -0.07953528 0.23275581 -0.049546644 0.017995166 0.0053427806 0.09557055 -0.03802335
00000000: a280 f33c bb98 2cbd 99be 44bd 5ca3 aabc
00000010: c1dd 913d 863c cc3d 3ae9 073d b3b5 3f3e
00000020: b6af d63d 65e3 a2bd 8a57 6e3e 6cf1 4abd
00000030: 996a 933c 7e12 af3b 7eba c33d 5fbe 1bbd

backbone.stage0.unit.bn.running_mean f4 [16]
-0.07059237 0.023078898 0.7980454 -0.4713595 0.14942376 -0.2331891 0.3302285 -0.81770545
-0.10604393 -0.20626451 0.06343925 0.37722704 -0.541261 -0.10510323 -0.14710781 0.045708746
00000000: bc92 90bd f50f bd3c b44c 4c3f 0856 f1be
00000010: 8b02 193e 20c9 6ebe b613 a93e 2555 51bf
00000020: 8f2d d9bd 0137 53be 70ec 813d e723 c13e
00000030: 1590 0abf 5d40 d7bd 6ea3 16be 1839 3b3d

backbone.stage0.unit.bn.running_var f4 [16]
0.15043497 0.33702374 0.50778997 0.26403877 0.26270533 0.066750325 0.26887032 0.53578544
0.044564135 0.09142743 0.18204343 0.083714455 0.3905213 0.7710258 0.10143715 0.14830269
00000000: a00b 1a3e 608e ac3e 86fe 013f 1730 873e
00000010: 5081 863e 65b4 883d 5fa9 893e 3c29 093f
00000020: e288 363d 4e3e bb3d 9869 3a3e 7c72 ab3d
00000030: 68f2 c73e f261 453f 48be cf3d a9dc 173e

backbone.stage1.1.unit1.pconv.weight f4 [16, 16, 1, 1]
0.37820548 -0.06081554 -0.11441065 -0.11878817 -0.30418697 -0.014258092 0.26377136 -0.69592106
0.2414138 0.026687764 0.048171252 0.14473306 -0.013281473 0.2553118 0.16534379 -0.20872705
-0.13807088 0.07878651 -0.30375353 0.028248716 -0.10845736 -0.22627965 -0.44317946 0.21763904
-0.16830502 0.05408044 0.18583764 -0.21112424 0.20359102 -0.09530605 -0.073679596 -0.1147758
-0.3538043 0.19230564 -0.17854592 0.08292757 0.19113338 0.0042263125 -0.10354346 -0.30220476
0.15713997 0.060967218 0.4724483 -0.32400855 -0.13526417 -0.36520278 -0.3130777 -0.06288745
-0.03431264 -0.051828068 -0.106406756 0.18917334 -0.6170081 -0.26696324 0.1360794 -0.1700122
0.3657558 -0.19121 -0.26266143 0.61231565 -0.30771345 0.19647819 -0.5195504 0.057907544
-0.09194291 0.103168614 0.08653066 0.05963533 0.2058559 0.07585729 -0.2170415 0.06635579
0.010342802 -0.2684409 -0.044990104 0.41657853 -0.24926263 0.26674885 -0.14508097 -0.03568889
-0.4692767 -0.07351753 0.18795268 -0.24359593 0.20056415 -0.13444273 0.28207102 0.04306577
-0.16472869 -0.20498939 -0.0102251 -0.13727482 -0.10618337 0.039680183 0.2548689 0.35663143
-0.19215986 -0.34664536 -0.28872588 0.036549218 -0.3770727 0.15295379 -0.5689078 -0.33782685
0.16459833 -0.2878836 -0.27898833 0.14012699 -0.027520254 0.5240294 -0.11605835 -0.22805099
0.25340205 0.049844306 0.37373346 -0.26898304 0.033245884 0.27162623 0.070449635 -0.48226416
0.3050465 -0.06295705 -0.06900112 0.31360593 0.14943402 -0.4298322 0.31019598 0.3216937
0.036842696 0.19602303 -0.1610185 -0.13751125 -0.11330799 0.18212877 -0.021196773 -0.07195892
0.33604634 -0.1361241 0.4169639 0.21494056 0.27824286 -0.59170294 0.14722852 -0.24634156
-0.12316735 -0.41014856 -0.088035 -0.1400391 0.20278102 0.13697991 -0.07907253 0.08397643
-0.30363408 0.12354821 -0.5614107 0.111823454 -0.27015334 -0.14037685 -0.39770722 -0.23998652
0.2650752 -0.3277662 -0.25192618 0.04838727 0.56214154 -0.41490915 -0.05745651 -0.23246454
-0.28992227 0.05957174 0.6629335 0.12232764 -0.22950254 -0.08721922 0.4183724 -0.26679033
-0.24851479 -0.13757034 0.020971559 -0.13941742 -0.09058172 0.24210155 0.17310573 -0.0285885
-0.0072276304 -0.09228602 -0.57909614 -0.140656 0.050961826 0.10228068 0.26827574 -0.10031605
-0.062495288 -0.15103911 -0.22816214 -0.46992236 -0.14735103 0.123078175 0.07336969 -0.00088555826
0.098749004 -0.10384687 -0.18756114 0.08857726 0.5922852 -0.19333622 -0.06227879 -0.5620252
-0.13215594 0.07395849 0.023135448 -0.26151985 -0.3059626 0.14074047 -0.1873209 -0.12619114
0.09909054 0.0605371 0.33046257 -0.10271073 -0.16697615 -0.4821716 0.17080592 -0.20203306
0.028120734 0.096017025 -0.16180064 -0.14965151 -0.3324962 0.33996 -0.035290845 -0.37209928
-0.1569861 0.03813894 0.14766802 -0.4607335 0.29334393 -0.22851583 0.062746674 0.47143963
0.00546762 -0.17137803 0.6315605 0.0639311 0.36298475 0.3799067 0.38611192 -0.43293566
0.26667693 -0.27884752 0.4673968 0.43938947 -0.198295 -0.12003219 0.2484882 0.068858325
00000000: 26a4 c13e b719 79bd 2250 eabd 3647 f3bd
00000010: 65be 9bbe c69a 69bc 0a0d 873e e227 32bf
00000020: 2e35 773e 4ca0 da3c 384f 453d e734 143e
00000030: 899a 59bc 3ab8 823e e24f 293e 8bbc 55be
00000040: 7462 0dbe d25a a13d 9585 9bbe da69 e73c
00000050: e41e debd dab5 67be 6be8 e2be c5dc 5e3e
00000060: 2758 2cbe 7483 5d3d 394c 3e3e f430 58be
00000070: 2a7a 503e d12f c3bd 54e5 96bd 930f ebbd
00000080: d625 b5be c5eb 443e bed4 36be eed5 a93d
00000090: 78b8 433e e17c 8a3b 980e d4bd 95ba 9abe
000000a0: 4de9 203e c3b8 793d bee4 f13e 73e4 a5be
000000b0: b182 0abe dcfb babe b84b a0be 23cb 80bd
000000c0: 698b 0cbd ab49 54bd c9eb d9bd a8b6 413e
000000d0: 3ef4 1dbf 68af 88be 6658 0b3e ae17 2ebe
000000e0: 5844 bb3e 8ecc 43be 8f7b 86be b8c0 1c3f
000000f0: 9e8c 9dbe 9431 493e 4101 05bf 7630 6d3d
00000100: 904c bcbd 114a d33d fd36 b13d 2d44 743d
00000110: e4cb 523e 115b 9b3d 2140 5ebe 8be5 873d
00000120: db74 293c 1671 89be 8b47 38bd c849 d53e
00000130: b43e 7fbe 4e93 883e 1b90 14be 832e 12bd
00000140: 0945 f0be 5c90 96bd ab76 403e 3671 79be
00000150: b060 4d3e 5bab 09be 9d6b 903e bc65 303d
00000160: a3ae 28be bde8 51be 2e87 27bc c591 0cbe
00000170: ab76 d9bd b087 223d 2d7e 823e 6598 b63e
00000180: 8ec5 44be 807b b1be e1d3 93be a2b4 153d
00000190: ac0f c1be eb9f 1c3e f1a3 11bf a4f7 acbe
000001a0: 778c 283e 7b65 93be 8fd7 8ebe 737d 0f3e
000001b0: 2872 e1bc ca26 063f 00b0 edbd 3386 69be
000001c0: eabd 813e 8b29 4c3d fe59 bf3e 25b8 89be
000001d0: d62c 083d 9812 8b3e e647 903d 54eb f6be
000001e0: 0e2f 9c3e a0ef 80bd 7650 8dbd f590 a03e
000001f0: 3b05 193e f712 dcbe 02d2 9e3e 09b5 a43e
00000200: 5ee8 163d 43ba 483e 09e2 24be c0cf 0cbe
00000210: 050e e8bd f77f 3a3e dba4 adbc 335f 93bd
00000220: 440e ac3e 1e64 0bbe 4b7c d53e 6119 5c3e
00000230: d975 8e3e d879 17bf 13c3 163e f640 7cbe
00000240: 2a3f fcbd fefe d1be b24b b4bd 6966 0fbe
00000250: d4a5 4f3e 7644 0c3e c7f0 a1bd d6fb ab3d
00000260: ed75 9bbe d806 fd3d 9db8 0fbf b203 e53d
00000270: 8a51 8abe f3be 0fbe 48a0 cbbe 07bf 75be
00000280: f0b7 873e f9d0 a7be 78fc 80be bb31 463d
00000290: 82e8 0f3f f96e d4be 8457 6bbd 2f0b 6ebe
000002a0: b170 94be 7f01 743d 03b6 293f ea86 fa3d
000002b0: b702 6bbe fe9f b2bd e834 d63e be98 88be
000002c0: a97a 7ebe 3ddf 0cbe 8ccc ab3c 71c3 0ebe
000002d0: e982 b9bd 78e9 773e a142 313e 6e32 eabc
000002e0: c2d5 ecbb 7400 bdbd a53f 14bf 2008 10be
000002f0: 59bd 503d 8878 d13d 705b 893e 8072 cdbd
00000300: 0ffb 7fbd ffa9 1abe 56a3 69be aa99 f0be
00000310: 30e3 16be 6910 fc3d d942 963d cf24 68ba
00000320: eb3c ca3d abad d4bd 0710 40be ff67 b53d
00000330: 01a0 173f eef9 45be 0b18 7fbd e2e0 0fbf
00000340: e353 07be 8c77 973d 8d86 bd3c eee5 85be
00000350: 21a7 9cbe 451e 103e 0dd1 3fbe 4038 01be
00000360: fbef ca3d c0f5 773d 6432 a93e 015a d2bd
00000370: ccfb 2abe 32df f6be bfe7 2e3e c1e1 4ebe
00000380: 745d e63c 93a4 c43d 11af 25be 3f3e 19be
00000390: f13c aabe 3d0f ae3e 228d 10bd cc83 bebe
000003a0: f7c0 20be 9437 1c3d 4936 173e 43e5 ebbe
000003b0: 2d31 963e 0e00 6abe 5481 803d 8960 f13e
000003c0: b929 b33b b97d 2fbe f3ad 213f 4fee 823d
000003d0: 23d9 b93e 2283 c23e 76b0 c53e bea9 ddbe
000003e0: e189 883e 1ac5 8ebe a24e ef3e a8f7 e03e
000003f0: d80d 4bbe 70d3 f5bd b173 7e3e 9805 8d3d

backbone.stage1.1.unit1.pconv.bias f4 [16]
0.035081547 0.022716599 0.01913198 0.018946743 0.025019584 0.01863681 0.020824885 0.0032018388
0.016577464 0.028984139 0.026528439 0.01932496 0.03115206 0.017864933 0.017143017 0.017682193
00000000: abb1 0f3d 2918 ba3c acba 9c3c 3336 9b3c
00000010: dff5 cc3c 39ac 983c f398 aa3c f1d5 513b
00000020: 76cd 873c 2570 ed3c 2b52 d93c 614f 9e3c
00000030: 9b32 ff3c 7b59 923c 836f 8c3c 3fda 903c

backbone.stage1.1.unit1.dconv.weight f4 [16, 1, 3, 3]
-0.34978467 -0.22784667 0.0070996783 -0.12968113 -0.18140863 0.08781058 0.08450575 -0.038606808
0.45708284 0.27717358 0.31903034 -0.0048743775 0.025664037 0.06490609 -0.13846192 0.06327309
0.06292249 0.0015731148 0.14960504 -0.076770715 -0.030934874 -0.12751237 -0.009006669 -0.26042512
0.31120378 0.30426782 -0.09688565 -0.17384736 -0.18740992 0.032970127 -0.04230745 -0.34600335
-0.041074865 0.017845424 0.22546096 0.07936346 0.09309458 0.1280616 0.1737367 0.027333649
0.18572576 -0.017400706 -0.10080549 -0.19236058 -0.11041296 0.15506066 0.11297325 0.0062366244
0.021298876 0.19913477 0.044472028 0.09322707 -0.040422715 0.064411946 -0.3332285 -0.051911503
0.19400537 -0.07802333 -0.24670488 -0.14486988 -0.15759681 0.034436546 -0.06143849 0.16318445
0.09923086 -0.12301289 0.10746869 -0.21523313 -0.3910734 0.12565172 -0.013223563 -0.38738328
0.115151204 0.377623 0.057771027 0.2606852 -0.05778048 -0.2696749 -0.3235262 -0.2563553
-0.3070215 -0.03981782 0.47162592 0.027720395 -0.07337505 0.2022928 0.01750815 0.045084856
-0.21323301 -0.03920973 0.3052374 0.26498282 0.14992738 -0.10824619 -0.10860898 -0.1949933
0.037853204 -0.0866953 -0.15107784 0.02588816 -0.20522852 -0.42469984 0.09406004 -0.0760069
-0.09987893 0.015186037 -0.2015156 0.037994545 0.04957316 0.07479477 0.2585228 -0.0070366035
0.1197965 0.025426177 -0.196489 -0.0663178 0.17158595 -0.039859008 -0.080184035 -0.25416666
0.09783695 0.038798492 -0.10541154 0.124554336 -0.055113696 -0.147316 -0.1431398 0.019237425
-0.4400058 0.14597856 -0.057574585 -0.22237949 0.28291586 0.022158302 -0.022265323 -0.13141237
-0.21154767 0.20247847 -0.11020533 0.205743 0.27258345 -0.018899484 0.11214889 0.13372734
00000000: fa16 b3be a350 69be 6ba4 e83b 21cb 04be
00000010: 2fc3 39be 09d6 b33d 5a11 ad3d 2c22 1ebd
00000020: c306 ea3e b2e9 8d3e f257 a33e 3eb9 9fbb
00000030: 633d d23c 7ced 843d f6c8 0dbe 5295 813d
00000040: 82dd 803d f930 ce3a 1032 193e f739 9dbd
00000050: 226b fdbc 9a92 02be b590 13bc 7156 85be
00000060: 1a56 9f3e fec8 9b3e fc6b c6bd 0b05 32be
00000070: 63e8 3fbe af0b 073d 944a 2dbd 5a27 b1be
00000080: 1e3e 28bd 9130 923c 3ddf 663e 4f89 a23d
00000090: 5fa8 be3d 9422 033e 09e8 313e d1ea df3c
000000a0: e52e 3e3e ed8b 8ebc 1c73 cebd 2cfa 44be
000000b0: 3120 e2bd 39c8 1e3e 855e e73d 995c cc3b
000000c0: fb7a ae3c fce9 4b3e 4d28 363d d6ed be3d
000000d0: 4a92 25bd 69ea 833d ed9c aabe 28a1 54bd
000000e0: 58a9 463e b2ca 9fbd 34a0 7cbe c558 14be
000000f0: 0f61 21be 560d 0d3d eda6 7bbd d319 273e
00000100: 8d39 cb3d 2fee fbbd 8b18 dc3d 1366 5cbe
00000110: c63a c8be d8aa 003e a5a7 58bc 1a57 c6be
00000120: 65d4 eb3d cd57 c13e 50a1 6c3d 8878 853e
00000130: 39ab 6cbd d412 8abe 3aa5 a5be 0041 83be
00000140: ec31 9dbe 0318 23bd f478 f13e e215 e33c
00000150: a945 96bd d825 4f3e 406d 8f3c e6aa 383d
00000160: c159 5abe 629a 20bd 1448 9c3e d4ab 873e
00000170: 9086 193e 2eb0 ddbd 636e debd 53ac 47be
00000180: f60b 1b3d 4e8d b1bd 26b4 1abe 6813 d43c
00000190: 6d27 52be 4272 d9be 8da2 c03d 81a9 9bbd
000001a0: 538d ccbd dbce 783c 1b5a 4ebe 2ba0 1b3d
000001b0: 3a0d 4b3d 002e 993d 1a5d 843e 4f93 e6bb
000001c0: de57 f53d 8f4a d03c 6a34 49be a0d1 87bd
000001d0: 3ab4 2f3e 3343 23bd 8737 a4bd 2222 82be
000001e0: bd5e c83d 2beb 1e3d 01e2 d7bd 5816 ff3d
000001f0: e6be 61bd 01da 16be 3d93 12be ce97 9d3c
00000200: 7148 e1be 677b 153e 54d3 6bbd 73b7 63be
00000210: 59da 903e 5485 b53c c465 b6bc f790 06be
00000220: f49f 58be 8456 4f3e 55b3 e1bd 4bae 523e
00000230: 0f90 8b3e 17d3 9abc 51ae e53d d2ef 083e

backbone.stage1.1.unit1.dconv.bias f4 [16]
0.019977605 0.019977953 0.019977791 0.01997781 0.019977828 0.019977784 0.01997779 0.019978028
0.019977866 0.019977525 0.019978065 0.019978162 0.019977815 0.019977603 0.019977648 0.01997773
00000000: 13a8 a33c cea8 a33c 77a8 a33c 81a8 a33c
00000010: 8ba8 a33c 73a8 a33c 76a8 a33c f6a8 a33c
00000020: 9fa8 a33c e8a7 a33c 0aa9 a33c 3ea9 a33c
00000030: 84a8 a33c 12a8 a33c 2aa8 a33c 56a8 a33c

backbone.stage1.1.unit1.bn.weight f4 [16]
0.97313154 1.0142919 0.9006054 0.98043066 0.8880242 0.940952 0.96522 1.1197907
1.0584847 1.0735838 1.0391972 0.9182152 1.073107 0.9532895 0.9758892 1.0401193
00000000: 261f 793f 51d4 813f 138e 663f 81fd 7a3f
00000010: 8e55 633f 3be2 703f a818 773f 4d55 8f3f
00000020: 6d7c 873f 326b 893f 6a04 853f 2710 6b3f
00000030: 925b 893f c80a 743f e0d3 793f a122 853f

backbone.stage1.1.unit1.bn.bias f4 [16]
0.10422712 0.013509328 0.042339556 0.019672073 -0.06040028 0.039090734 -0.023170829 0.3118011
0.099215515 0.1638319 0.098881185 0.064756885 -0.027410807 -0.037365556 0.034559604 0.07370039
00000000: 0775 d53d 3a56 5d3c 3e6c 2d3d 5427 a13c
00000010: 4966 77bd 9b1d 203d c0d0 bdbc 65a4 9f3e
00000020: 8131 cb3d 8dc3 273e 3882 ca3d 429f 843d
00000030: a18c e0bc a00c 19bd 5f8e 0d3d 3bf0 963d

backbone.stage1.1.unit1.bn.running_mean f4 [16]
0.031175235 -0.24644633 -0.008118018 0.2217528 0.027574055 0.004873976 0.8139038 -0.21912748
-0.06292192 -0.48136604 0.024280801 0.32946277 -0.19490711 0.21092968 0.11976164 0.5630589
00000000: 3563 ff3c 6d5c 7cbe 6f01 05bc 2a13 633e
00000010: fce2 e13c e0b5 9f3b 005c 503f f462 60be
00000020: 35dd 80bd 9c75 f6be 88e8 c63c 58af a83e
00000030: bb95 47be f3fd 573e 9745 f53d a124 103f

backbone.stage1.1.unit1.bn.running_var f4 [16]
0.05744038 0.17944291 0.07794514 0.14273733 0.018943297 0.1984441 0.27598575 0.29026794
0.27460042 0.12975882 0.15762071 0.36777836 0.068677105 0.06467132 0.20635727 0.38463506
00000000: 9b46 6b3d e2bf 373e b4a1 9f3d bc29 123e
00000010: f92e 9b3c ee34 4b3e 014e 8d3e 009e 943e
00000020: 6d98 8c3e 7fdf 043e 5367 213e 724d bc3e
00000030: 95a6 8c3d 6672 843d 524f 533e e3ee c43e

backbone.stage1.1.unit2.pconv.weight f4 [64, 16, 1, 1]
0.28498515 -0.11524445 -0.01655524 -0.15495694 -0.058728505 -0.15690064 0.019622425 -0.3013972
-0.08917349 -0.27013725 0.028365111 0.10872728 -0.3116008 0.07689871 -0.02203061 0.07560874
0.2951686 -0.13014287 -0.17503406 -0.24922642 -0.016438777 0.048201863 0.26423642 0.09593199
-0.27410036 0.20861521 0.22429498 -0.0007993469 0.1445761 0.05336759 -0.003135871 -0.3189295
0.14373693 0.64395666 -0.24321523 -0.047311284 0.1325825 0.13551483 0.030098002 -0.003848974
-0.21984908 0.22193891 0.09797756 0.058591418 0.14804618 -0.20219415 -0.07260977 -0.16750734
0.040973328 0.08286367 -0.08784047 0.20968491 0.13930193 0.072423115 -0.04711087 -0.19873999
-0.33832884 0.10053702 -0.005330302 -0.031373248 -0.05271623 0.19783935 -0.11871599 0.033606447
0.12843062 -0.12618405 0.027458621 0.016091306 -0.07245543 0.08159918 -0.17117454 -0.33137068
-0.13761151 -0.053055845 0.08917919 -0.17188664 0.23461364 -0.034520004 0.12595816 0.18852027
-0.27222127 -0.21849719 -0.009124443 0.23195657 -0.25365758 0.08880129 0.224454 0.12505047
0.044856086 0.15583554 -0.08151376 0.1345156 -0.03006281 0.08251667 0.101196505 0.0036755246
-0.16421722 -0.07587019 0.19419427 -0.1846525 0.1816958 -0.11390013 0.1504189 0.25825766
-0.18260017 0.2017358 -0.03913136 0.08879287 0.21308367 -0.006471239 -0.19072117 -0.027520118
-0.10235831 -0.040363107 0.14125468 -0.011083486 -0.08257631 -0.027025014 0.21012004 -0.03476201
-0.17208779 -0.4379064 0.024778185 -0.0029021872 -0.13156457 -0.071239784 -0.22258265 -0.037716534
0.052546613 0.04393393 -0.07627946 -0.047786847 0.047554784 -0.109130114 0.048756205 -0.27965286
-0.07273401 -0.002895642 -0.008356373 0.02468087 0.14980313 0.09819608 0.2367855 0.16311486
0.11738228 -0.02252593 0.20684807 0.26538733 0.11684028 0.07270971 -0.12093779 -0.16032259
-0.03504835 -0.073006816 0.27264383 0.016959539 -0.12907468 -0.50147796 0.13800852 -0.17275923
0.0729693 -0.15644073 -0.07378806 -0.033238806 -0.011194189 -0.16623862 -0.10453666 -0.22693239
-0.31236815 0.08289049 -0.12606783 -0.1147202 -0.16952911 0.1607703 -0.04315519 0.28680822
-0.07736189 0.002942029 -0.10488097 0.3513159 -0.06488255 0.18686265 0.04850281 0.2246616
-0.11625286 -0.078719154 -0.029514015 -0.17727827 0.3049074 -0.0045308373 0.004966099 -0.24213587
-0.043344814 -0.12992147 0.046932578 -0.19289973 0.2670776 -0.17390522 -0.26028493 0.18600562
0.014647031 -0.0048538977 -0.050181337 0.30301094 0.06753419 -0.31410694 0.011855397 -0.0907429
-0.38213357 0.008183087 -0.085187644 -0.296429 0.03935227 0.15788464 -0.1238171 0.06828648
0.07894602 -0.4623864 0.1587417 -0.3951898 -0.044608545 0.0831718 -0.22664589 0.08430648
-0.25824165 0.15918788 -0.057022937 -0.15263338 -0.2530739 -0.063086614 0.13642919 -0.038370125
-0.34011534 -0.35428652 -0.06839545 -0.16256543 -0.07021662 0.026513703 -0.10888677 -0.19459651
-0.1370173 0.20350908 -0.3462313 0.06553335 0.26167107 0.0020188643 0.04021919 0.19600724
0.09836416 -0.15756696 -0.17895073 0.15381722 -0.14350237 -0.15039796 -0.06906086 -0.33330244
00000000: 93e9 913e 4805 ecbd db9e 87bc 08ad 1ebe
00000010: 4d8d 70bd 90aa 20be 35bf a03c bc50 9abe
00000020: 97a0 b6bd 6e4f 8abe f35d e83c 68ac de3d
00000030: 248a 9fbe 127d 9d3d 8a79 b4bc c1d8 9a3d
00000040: 5720 973e 2c44 05be 213c 33be 3635 7fbe
00000050: 9daa 86bc 516f 453d ff49 873e fe77 c43d
00000060: e256 8cbe 3a9f 553e 95ad 653e 438b 51ba
00000070: c20b 143e f997 5a3d 2f83 4dbb ba4a a3be
00000080: c62f 133e 58da 243f 6a0d 79be 7ac9 41bd
00000090: b5c3 073e 66c4 0a3e 1690 f63c 113f 7cbb
000000a0: 1e20 61be f443 633e 75a8 c83d 8efd 6f3d
000000b0: 6b99 173e fc0b 4fbe 6eb4 94bd 0b87 2bbe
000000c0: a6d3 273d 6eb4 a93d b4e5 b3bd a4b7 563e
000000d0: 2aa5 0e3e 9252 943d 54f7 40bd 7f82 4bbe
000000e0: 7039 adbe 5ae6 cd3d d0a9 aebb 3c81 00bd
000000f0: f9ec 57bd 6696 4a3e 5e21 f3bd eaa6 093d
00000100: 5183 033e 6436 01be e7f0 e03c ead1 833c
00000110: 8363 94bd 791d a73d 6148 2fbe 6ba9 a9be
00000120: 08ea 0cbe 1651 59bd 94a3 b63d 0d03 30be
00000130: 8f3e 703e d964 0dbd 2dfb 003e 750b 413e
00000140: 9660 8bbe babd 5fbe b07e 15bc 0686 6d3e
00000150: 68df 81be 73dd b53d 45d7 653e 3b0d 003e
00000160: 04bb 373d 5a93 1f3e b0f0 a6bd 75be 093e
00000170: 4846 f6bc 80fe a83d 1d40 cf3d 12e1 703b
00000180: 8f28 28be d561 9bbd ddda 463e 8c15 3dbe
00000190: 770e 3a3e 7944 e9bd 6a07 1a3e 593a 843e
000001a0: 8afb 3abe d493 4e3e 3448 20bd 09d9 b53d
000001b0: 9b32 5a3e b00c d4bb 694c 43be df71 e1bc
000001c0: 3ca1 d1bd c953 25bd 11a5 103e 8297 35bc
000001d0: c51d a9bd 9063 ddbc b529 573e 9c62 0ebd
000001e0: c837 30be 4535 e0be 9ffb ca3c 9f32 3ebb
000001f0: ddb8 06be 2ae6 91bd b5ec 63be a77c 1abd
00000200: 1e3b 573d 11f4 333d 6838 9cbd 24bc 43bd
00000210: cec8 423d 9c7f dfbd 96b4 473d a92e 8fbe
00000220: 92f5 94bd d0c4 3dbb 2be9 08bc 892f ca3c
00000230: fe65 193e 071b c93d e677 723e 9507 273e
00000240: 1f66 f03d 4d88 b8bc fbcf 533e d9e0 873e
00000250: f549 ef3d d4e8 943d 3bae f7bd 9b2b 24be
00000260: dc8e 0fbd 9984 95bd f997 8b3e bbee 8a3c
00000270: 272c 04be dc60 00bf 1b52 0d3e cce7 30be
00000280: ee70 953d 0032 20be 321e 97bd 6a25 08bd
00000290: d567 37bc 753a 2abe 5117 d6bd f760 68be
000002a0: b8ee 9fbe 7dc2 a93d ed17 01be 6df2 eabd
000002b0: 0a99 2dbe f8a0 243e 7fc3 30bd 87d8 923e
000002c0: e96f 9ebd 0ecf 403b d6cb d6bd addf b33e
000002d0: 24e1 84bd ec58 3f3e e2aa 463d b10d 663e
000002e0: fb15 eebd 8237 a1bd 60c7 f1bc 6f88 35be
000002f0: d31c 9c3e 6b77 94bb a8ba a23b 77f2 77be
00000300: 558a 31bd 220a 05be 603c 403d 8287 45be
00000310: 65be 883e 3614 32be 1144 85be 4278 3e3e
00000320: 1afa 6f3c 720d 9fbb f28a 4dbd 4024 9b3e
00000330: 5e4f 8a3d a0d2 a0be 243d 423c 6ad7 b9bd
00000340: 03a7 c3be 5b12 063c dc76 aebd 8bc5 97be
00000350: d92f 213d 83ac 213e d293 fdbd c8d9 8b3d
00000360: 73ae a13d e9bd ecbe 2f8d 223e 5156 cabe
00000370: 73b7 36bd fa55 aa3d dc15 68be e0a8 ac3d
00000380: 4038 84be 2602 233e e290 69bd ed4b 1cbe
00000390: e792 81be 8e33 81bd 18b4 0b3e fe29 1dbd
000003a0: 9923 aebe 0b65 b5be ea12 8cbd 8d77 26be
000003b0: bbcd 8fbd 4433 d93c 0700 dfbd 4f44 47be
000003c0: 434e 0cbe af64 503e 3b45 b1be 5936 863d
000003d0: c0f9 853e ec4e 043b e1bc 243d 1fb6 483e
000003e0: 2673 c93d 3c59 21be dc3e 37be 4382 1d3e
000003f0: 49f2 12be ec01 1abe c86f 8dbd 9ea6 aabe

backbone.stage1.1.unit2.pconv.bias f4 [64]
0.022882445 0.018847324 0.021771993 0.022094334 0.019057961 0.019863222 0.019172432 0.019389402
0.020314053 0.021704415 0.019779412 0.015556895 0.020815605 0.02075603 0.019720204 0.019188328
0.021596525 0.017829482 0.015422292 0.022487018 0.02062089 0.020069823 0.019796848 0.021661606
0.027184121 0.019028334 0.019700782 0.016948698 0.019007146 0.0151800895 0.021582022 0.024497956
0.017266834 0.023807887 0.021305278 0.016769942 0.0207457 0.020247515 0.021754997 0.017763643
0.016914992 0.020089561 0.0181749 0.025843335 0.014098905 0.020315746 0.017451467 0.018407412
0.023432529 0.0235046 0.019589609 0.021373522 0.021590084 0.019247822 0.02087485 0.020243442
0.025419064 0.01992096 0.019803602 0.019484987 0.020074647 0.018965168 0.01647629 0.023184644
00000000: f773 bb3c b465 9a3c 2e5b b23c 2dff b43c
00000010: 711f 9c3c 32b8 a23c 810f 9d3c 86d6 9e3c
00000020: a869 a63c 75cd b13c 6f08 a23c 59e2 7e3c
00000030: 7d85 aa3c 8d08 aa3c 448c a13c d730 9d3c
00000040: 32eb b03c 220f 923c c8ad 7c3c b236 b83c
00000050: 24ed a83c 7869 a43c 002d a23c ae73 b13c
00000060: 3cb1 de3c 4fe1 9b3c 8963 a13c ffd7 8a3c
00000070: e0b4 9b3c e9b5 783c c8cc b03c f0af c83c
00000080: 2d73 8d3c c208 c33c 6888 ae3c 1e61 893c
00000090: e3f2 a93c 1ede a53c 8937 b23c 0f85 913c
000000a0: 4f91 8a3c dd92 a43c 87e3 943c 67b5 d33c
000000b0: 18ff 663c 356d a63c 61f6 8e3c 24cb 963c
000000c0: 93f5 bf3c b88c c03c 637a a03c 8617 af3c
000000d0: b0dd b03c 9cad 9d3c bc01 ab3c 93d5 a53c
000000e0: a43b d03c 4831 a33c 2a3b a23c fb9e 9f3c
000000f0: 9673 a43c d75c 9b3c 49f9 863c b9ed bd3c

backbone.stage1.1.unit2.dconv.weight f4 [64, 1, 3, 3]
0.08708746 -0.08483936 -0.20758116 0.08481039 -0.0065583503 -0.19316801 -0.04079697 0.053995248
-0.016000351 -0.038749237 -0.056384433 -0.061141394 -0.0844795 -0.05681541 -0.024016023 -0.08034552
-0.061495088 -0.09608372 0.09533994 0.07185696 0.011016311 0.06889399 0.03159484 -0.080863275
0.07781797 0.116897486 0.0429504 0.110480554 -0.11228824 -0.1734177 -0.015262174 -0.097987756
-0.051886275 0.16545318 0.051582865 -0.030660143 -0.08205199 -0.1999854 0.050654646 -0.0002089287
-0.07533815 0.013414743 0.011424876 -0.17253858 0.036530014 0.05211251 0.05378383 0.1348143
0.086366646 0.021974266 0.028429516 -0.075954035 0.10548032 -0.058139935 0.006171035 0.07792401
-0.032956444 -0.09566522 -0.036007736 0.13465372 0.046102453 -0.05180847 0.15378462 -0.07701061
0.15658729 0.0014341141 0.034195065 0.09790591 0.011192009 -0.0042926576 0.11955719 0.100436166
-0.019925606 0.0044222777 0.028824957 -0.056420714 -0.14644738 -0.07092952 -0.046846036 -0.07220619
-0.14878768 0.15133624 0.089744374 0.036660615 -0.10528697 -0.11763352 -0.116807655 -0.01288901
0.027388379 0.037880268 0.23654951 0.05722093 -0.024370145 -0.070863865 -0.07188724 -0.14931458
-0.108359635 -0.019298801 -0.031453032 0.010284998 -0.02365335 -0.08068406 -0.13583457 -0.03038706
-0.10566377 -0.08673781 0.058280475 -0.14645608 -0.0021160538 0.0817208 0.025575867 0.042035293
0.032920558 0.045545883 -0.09833019 0.08130365 0.18330523 0.08933591 0.17326652 0.024157695
0.13242082 0.025322491 0.0760023 0.04564423 -0.14261362 -0.030743457 -0.026167793 -0.055165436
0.06401487 -0.08401711 -0.006974046 -0.08504013 -0.2072537 -0.004395439 -0.026242131 0.06705515
-0.13770168 0.10940699 -0.17488419 -0.12360707 -0.052623212 -0.08337256 -0.036223885 0.009891196
0.12819192 -0.03591625 0.0062815226 0.09591411 0.0360271 -0.09774529 0.036948152 0.021961851
-0.23439722 0.09321492 0.05379698 0.0533169 -0.0033059025 0.075737014 0.06314798 0.040234406
-0.020361083 -0.028144823 0.09854901 -0.064628355 -0.10221711 0.13650024 0.1421579 -0.070619464
0.05316381 0.12956679 -0.069880694 -0.042026367 -0.04047087 0.08908446 -0.124343775 -0.10235997
0.0007650707 -0.023643289 -0.037571594 -0.11876324 0.032337945 0.18701445 0.11471239 0.066451274
-0.0057903766 -0.13061514 0.022185953 -0.03274502 -0.14525068 0.044597488 -0.06546594 -0.021394383
0.028661745 0.0641151 -0.008063442 0.082847826 0.07490584 0.19136627 -0.019937318 -0.050600555
0.056547865 -0.024267351 -0.13784152 0.021609 0.06848784 -0.07133835 -0.06795518 0.05274548
-0.08469306 -0.033769194 -0.048750643 -0.026637316 -0.083214425 -0.065949894 -0.019226594 -0.1490086
0.03466919 0.16203661 -0.036137007 0.12365315 0.021867633 -0.15878797 0.1970164 0.07849719
-0.19872032 -0.008116205 -0.05975215 -0.09208245 -0.02707444 -0.14746962 -0.03768536 -0.043515246
-0.10370529 -0.0214635 0.021381643 -0.021895025 -0.045387458 -0.12015895 -0.14766727 0.019095447
-0.023353282 -0.012448235 0.10329146 -0.09612427 -0.13328041 0.02561378 -0.03501125 -0.1388305
-0.057359435 0.0011883596 -0.031935822 0.077017754 -0.03135008 -0.09588624 -0.040154908 -0.048363913
00000000: e95a b23d 42c0 adbd 2890 54be 12b1 ad3d
00000010: 6ee7 d6bb d6cd 45be b91a 27bd 1f2a 5d3d
00000020: 2b13 83bc 85b7 1ebd 5df3 66bd 666f 7abd
00000030: 9703 adbd 46b7 68bd 40bd c4bc 318c a4bd
00000040: 46e2 7bbd 8bc7 c4bd 9641 c33d be29 933d
00000050: c27d 343c 4b18 8d3d 9769 013d a59b a5bd
00000060: 075f 9f3d f367 ef3d c2ec 2f3d a143 e23d
00000070: 60f7 e5bd 6994 31be 330e 7abc cead c8bd
00000080: b486 54bd 8f6c 293e 8e48 533d fb2a fbbc
00000090: e00a a8bd f9c8 4cbe 3f7b 4f3d df13 5bb9
000000a0: e34a 9abd 83c9 5b3c 672f 3b3c f4ad 30be
000000b0: 7fa0 153d ed73 553d 6f4c 5c3d c30c 0a3e
000000c0: ffe0 b03d 6003 b43c 04e5 e83c ca8d 9bbd
000000d0: 1106 d83d 2424 6ebd 6536 ca3b a096 9f3d
000000e0: 56fd 06bd 20ec c3bd d97c 13bd aae2 093e
000000f0: edd5 3c3d 1e35 54bd b779 1d3e bdb7 9dbd
00000100: 6b58 203e e2f8 bb3a 2010 0c3d e582 c83d
00000110: b05e 373c 6ca9 8cbb 66da f43d 7ab1 cd3d
00000120: 063b a3bc c1e8 903b 5122 ec3c 6819 67bd
00000130: 4df6 15be 7f43 91bd a1e1 3fbd d7e0 93bd
00000140: cc5b 18be e3f7 1a3e e6cb b73d 7129 163d
00000150: b2a0 d7bd d8e9 f0bd da38 efbd 6d2c 53bc
00000160: 985d e03c 5728 1b3d 093a 723e 7e60 6a3d
00000170: e6a3 c7bc 1321 91bd 9e39 93bd ece5 18be
00000180: a8eb ddbd 8518 9ebc e5d4 00bd 6982 283c
00000190: acc4 c1bc af3d a5bd 3818 0bbe 49ee f8bc
000001a0: 3f66 d8bd 98a3 b1bd 82b7 6e3d 95f8 15be
000001b0: 7ead 0abb 3c5d a73d 7b84 d13c 332d 2c3d
000001c0: b5d7 063d 528e 3a3d 5761 c9bd 8782 a63d
000001d0: 5eb4 3b3e bff5 b63d c76c 313e 5ce6 c53c
000001e0: 5399 073e 1d71 cf3c 18a7 9b3d 72f5 3a3d
000001f0: 4e09 12be b4d9 fbbc d75d d6bc 27f5 61bd
00000200: 3a1a 833d 2a11 acbd 8a86 e4bb 8529 aebd
00000210: 503a 54be 9d07 90bb bdf9 d6bc 3654 893d
00000220: ab01 0dbe c610 e03d d714 33be b425 fdbd
00000230: 708b 57bd 3cbf aabd 7f5f 14bd af0e 223c
00000240: be44 033e eb1c 13bd 3bd5 cd3b 9e6e c43d
00000250: 2791 133d af2e c8bd f256 173d 57e9 b33c
00000260: d305 70be 77e7 be3d 395a 5c3d d262 5a3d
00000270: d7a7 58bb 021c 9b3d ba53 813d d5cc 243d
00000280: 49cc a6bc f98f e6bc 10d4 c93d df5b 84bd
00000290: 3457 d1bd b8c6 0b3e d791 113e f0a0 90bd
000002a0: 4cc2 593d 28ad 043e 9c1d 8fbd d723 2cbd
000002b0: c8c4 25bd ea71 b63d f3a7 febd 1ba2 d1bd
000002c0: 078f 483a 92af c1bc ace4 19bd 243a f3bd
000002d0: cb74 043d b780 3f3e 54ee ea3d 9b17 883d
000002e0: 33bd bdbb fabf 05be 51bf b53c a41f 06bd
000002f0: 98bc 14be dbab 363d 0213 86bd 4643 afbc
00000300: 09cc ea3c c74e 833d 871c 04bc 1fac a93d
00000310: 3c68 993d 85f5 433e 9653 a3bc 8742 4fbd
00000320: bc9e 673d 53cc c6bc 5426 0dbe 5c05 b13c
00000330: 5a43 8c3d d719 92bd 162c 8bbd a50b 583d
00000340: 8e73 adbd 9151 0abd c1ae 47bd 8036 dabc
00000350: 536c aabd bd10 87bd 1781 9dbc b695 18be
00000360: 4801 0e3d edec 253e 6604 14bd dd3d fd3d
00000370: c023 b33c 5099 22be abbe 493e 22c3 a03d
00000380: 577d 4bbe d5f9 04bc acbe 74bd b995 bcbd
00000390: 37cb ddbc 4702 17be f75b 1abd 0b3d 32bd
000003a0: 7063 d4bd 39d4 afbc 8e28 af3c 325d b3bc
000003b0: 33e8 39bd e515 f6bd 1736 17be 0e6e 9c3c
000003c0: 624f bfbc aff3 4bbc 798a d33d cddc c4bd
000003d0: a97a 08be fdd3 d13c f567 0fbd 9529 0ebe
000003e0: baf1 6abd bbc2 9b3a 23cf 02bd 7cbb 9d3d
000003f0: f168 00bd 0160 c4bd 7979 24bd 3d19 46bd

backbone.stage1.1.unit2.dconv.bias f4 [64]
0.01997776 0.019978214 0.019977905 0.019977544 0.019977674 0.01997794 0.019977735 0.0199778
0.019977707 0.01997805 0.019977964 0.019977916 0.019977922 0.019978315 0.019977555 0.019977551
0.019977769 0.019978007 0.019977959 0.019977825 0.019977842 0.019977834 0.019977817 0.019977447
0.01997756 0.019977778 0.019977544 0.019977463 0.019977532 0.019977622 0.019978013 0.019977583
0.019977625 0.019977946 0.019978236 0.019977823 0.019977922 0.01997772 0.019977793 0.019977706
0.019977948 0.019977868 0.019977633 0.0199774 0.019977845 0.019977631 0.01997772 0.01997775
0.019977927 0.019978119 0.019978052 0.019977612 0.019977774 0.019977728 0.019977294 0.019977883
0.01997743 0.019977685 0.019977331 0.01997828 0.01997826 0.019978175 0.01997785 0.019976867
00000000: 66a8 a33c 5aa9 a33c b4a8 a33c f2a7 a33c
00000010: 38a8 a33c c7a8 a33c 59a8 a33c 7ca8 a33c
00000020: 4aa8 a33c 02a9 a33c d4a8 a33c baa8 a33c
00000030: bda8 a33c 90a9 a33c f8a7 a33c f6a7 a33c
00000040: 6ba8 a33c eba8 a33c d1a8 a33c 89a8 a33c
00000050: 92a8 a33c 8ea8 a33c 85a8 a33c bea7 a33c
00000060: fba7 a33c 70a8 a33c f2a7 a33c c7a7 a33c
00000070: eca7 a33c 1ca8 a33c eea8 a33c 07a8 a33c
00000080: 1ea8 a33c caa8 a33c 66a9 a33c 88a8 a33c
00000090: bda8 a33c 51a8 a33c 78a8 a33c 49a8 a33c
000000a0: cba8 a33c a0a8 a33c 22a8 a33c a5a7 a33c
000000b0: 94a8 a33c 21a8 a33c 51a8 a33c 61a8 a33c
000000c0: c0a8 a33c 27a9 a33c 03a9 a33c 17a8 a33c
000000d0: 6ea8 a33c 55a8 a33c 6ca7 a33c a8a8 a33c
000000e0: b5a7 a33c 3ea8 a33c 80a7 a33c 7da9 a33c
000000f0: 73a9 a33c 45a9 a33c 97a8 a33c 87a6 a33c

backbone.stage1.1.unit2.bn.weight f4 [64]
1.006717 0.9651243 1.0067695 1.0445703 1.0225362 0.9533019 0.9589207 0.9838533
0.9738884 0.9900079 0.99742126 1.0315914 0.98458153 0.97318697 0.9273914 0.98180073
0.9511299 0.9460611 0.9707469 0.996481 1.0310847 0.97504187 0.99548393 1.0149398
1.0228746 0.976683 1.0206454 1.0139598 0.99452645 0.93843514 0.99503374 1.011121
1.0174947 1.0708026 1.0079142 0.994005 0.9818253 0.99330133 1.0000644 0.9993768
1.0095782 0.9644441 0.9709178 1.0674918 1.0250129 0.9747661 1.0218192 0.9732414
0.98744065 0.98184216 1.044355 1.0973594 1.0302775 0.9741866 1.0123986 0.9757473
1.039013 1.0458137 0.95918936 0.99697113 0.970842 1.013334 1.0307274 1.020532
00000000: 1adc 803f 6312 773f d3dd 803f 7bb4 853f
00000010: 77e2 823f 980b 743f d47b 753f cfdd 7b3f
00000020: c050 793f 2871 7d3f 0057 7f3f 300b 843f
00000030: 890d 7c3f c822 793f 8669 6d3f 4b57 7b3f
00000040: 407d 733f 0f31 723f de82 783f 6119 7f3f
00000050: 95fa 833f 589c 793f 09d8 7e3f 8ce9 813f
00000060: 8eed 823f e607 7a3f 82a4 823f 6fc9 813f
00000070: 4999 7e3f 493d 703f 88ba 7e3f 6a6c 813f
00000080: 443d 823f 0f10 893f 5503 813f 1d77 7e3f
00000090: e758 7b3f ff48 7e3f 1c02 803f 28d7 7f3f
000000a0: dc39 813f cfe5 763f 128e 783f 92a3 883f
000000b0: 9f33 833f 458a 793f f9ca 823f 5926 793f
000000c0: e9c8 7c3f 025a 7b3f 6dad 853f 4676 8c3f
000000d0: 22e0 833f 4b64 793f 4796 813f 93ca 793f
000000e0: 61fe 843f 39dd 853f 6f8d 753f 8039 7f3f
000000f0: 1a89 783f eeb4 813f e0ee 833f cba0 823f
