weights/epoch_0_state_dict.pt (torch, 728187 bytes, 320 tensors)

backbone.stage0.sconv.weight f4 [16, 3, 3, 3]
-0.01636807 0.17774275 -0.06610042 0.08627984 0.040107645 0.05126017 -0.04789362 0.14736332
0.08958073 0.026535401 0.045678314 0.04682846 0.07645364 0.105501436 0.08335984 0.032856658
0.025169866 0.15978035 0.085416995 0.09030932 -0.03368252 -0.027502997 0.071462326 0.063268326
0.02575737 0.038910966 0.06355748 -0.09952311 -0.037789315 -0.116510354 -0.14922301 -0.008100429
0.0065885372 0.06021115 -0.035053518 -0.060228463 0.07436811 0.04581692 0.16878027 0.22458951
0.082501546 0.19412887 -0.10166076 0.08472699 -0.027750243 0.10153542 0.17670803 -0.11877476
-0.21323727 0.010437445 0.18149847 -0.22534825 0.10124577 0.21327494 -0.19242124 -0.1894732
-0.046038363 -0.030073758 -0.19011714 -0.14930205 -0.11421708 0.08582878 0.1320848 0.036129802
0.030009251 -0.18752944 -0.081558645 0.017610723 -0.040055692 -0.030492352 0.004678832 -0.13566545
-0.016056355 0.0368869 0.05080088 0.03190191 0.0430996 0.046948075 -0.13379705 0.009264986
-0.054838683 -0.026718946 0.20525001 0.06467921 0.06066317 0.34521875 0.043758936 0.10382593
-0.030622363 0.02854435 0.05808408 -0.10993014 0.03657836 0.01375302 -0.08262344 0.18363559
0.18450166 -0.10753824 0.023017488 0.14922382 0.23033644 0.048617918 -0.048388723 -0.033980563
-0.019562505 -0.116941884 0.01683351 0.08483663 -0.007894362 -0.2922286 -0.17819154 -0.042023472
-0.14248972 -0.041394196 0.04780734 0.010625825 -0.04530304 -0.07541644 -0.19947532 -0.030697012
0.03701104 -0.20908336 -0.22722273 0.044425312 -0.099619426 -0.059798554 0.16067211 0.043859396
0.22240742 0.17367433 0.04907855 0.03841064 0.030395234 0.25724944 0.0894861 -0.0019732902
-0.0038352518 -0.0019848158 -0.08199995 0.18349695 0.28760284 0.15847573 0.094324306 0.15706451
-0.015005118 0.08706933 0.16844878 0.032868367 0.025644224 0.006290178 0.008643107 -0.025419682
-0.18799695 -0.09176882 -0.15009703 0.004433611 -0.0057256864 0.06449253 -0.038738005 -0.03777417
0.016179528 -0.115885064 -0.17088568 -0.1415586 -0.13950537 -0.15066613 0.03864817 -0.050785907
-0.099737614 0.0027615298 -0.09467613 0.03221519 -0.10942516 0.10364533 0.10220443 0.15994179
0.0006275179 0.102683306 0.18916093 0.16444407 -0.12802094 0.033337813 -0.12969354 -0.22425246
-0.04872745 -0.0036036083 -0.044812024 -0.16018575 -0.29270965 0.2147797 0.19526294 0.0837066
-0.030811604 0.011532194 0.19808866 0.12695414 0.092263274 -0.0803531 -0.026138734 -0.063896015
-0.06784888 -0.13160759 -0.12895799 0.053224858 -0.20526676 -0.15564108 -0.005125064 0.061811775
-0.048474763 -0.030672621 -0.31134278 -0.053007543 -0.081079006 -0.04002367 -0.0005570714 -0.07883926
0.26434258 0.12113024 0.07219596 -0.11822104 0.0051782373 0.062746264 0.16690129 0.37380946
0.02072385 0.19385844 -0.1156944 -0.1169818 0.040369775 0.11653569 -0.048978757 -0.09657437
-0.16695009 -0.23153362 0.033403613 0.013042548 0.015676357 -0.013306716 0.08565334 0.11313896
-0.027263997 0.15820628 -0.14462903 -0.102695316 -0.08964267 -0.098163046 -0.083562076 -0.16405463
-0.0378327 -0.004816121 0.060411375 0.17312126 -0.25739312 -0.048158918 -0.09935317 -0.032562718
00000000: 5516 86bc 3202 363e a85f 87bd 7cb3 b03d
00000010: ea47 243d 2ff6 513d 1a2c 44bd 69e6 163e
00000020: 1a76 b73d c560 d93c 2f19 3b3d 33cf 3f3d
00000030: ba93 9c3d 2311 d83d 90b8 aa3d b494 063d
00000040: 0931 ce3c 769d 233e 1bef ae3d 18f4 b83d
00000050: aff6 09bd f74d e1bc d75a 923d d392 813d
00000060: 1f01 d33c 1b61 1f3d 6d2a 823d c6d2 cbbd
00000070: f8c8 1abd fb9c eebd ebcd 18be a9b7 04bc
00000080: a8e4 d73b f89f 763d 4794 0fbd 1fb2 76bd
00000090: 4f4e 983d 86aa 3b3d bcd4 2c3e cbfa 653e
000000a0: 92f6 a83d b8c9 463e 8433 d0bd 5885 ad3d
000000b0: 7a54 e3bc cdf1 cf3d f3f2 343e 2e40 f3bd
000000c0: df5a 5abe d101 2b3c bcda 393e b1c1 66be
000000d0: f159 cf3d bf64 5a3e 130a 45be 4305 42be
000000e0: b992 3cbd 3e5d f6bc 11ae 42be a3e2 18be
000000f0: a5ea e9bd 00c7 af3d 3d41 073e d8fc 133d
00000100: f6d5 f53c b807 40be 3808 a7bd 5d44 903c
00000110: 7011 24bd 19cb f9bc e350 993b e2eb 0abe
00000120: 9e88 83bc b816 173d 9514 503d 94ab 023d
00000130: 3589 303d a04c 403d 1802 09be 2bcc 173c
00000140: 879e 60bd b1e1 dabc 0f2d 523e 8976 843d
00000150: f279 783d 83c0 b03e 923c 333d b0a2 d43d
00000160: c0db fabc d7d5 e93c 93e9 6d3d 0e23 e1bd
00000170: 31d3 153d 5954 613c 7a36 a9bd f80a 3c3e
00000180: 01ee 3c3e 023d dcbd 2c8f bc3c 21ce 183e
00000190: 51dd 6b3e 9523 473d 4133 46bd 342f 0bbd
000001a0: 8c41 a0bc 3a7f efbd 6ee6 893c d4be ad3d
000001b0: 5b57 01bc fd9e 95be d877 36be ce20 2cbd
000001c0: d3e8 11be f68c 29bd a1d1 433d f117 2e3c
000001d0: ae8f 39bd ef73 9abd 4243 4cbe 4d78 fbbc
000001e0: e398 173d f319 56be 13ad 68be 51f7 353d
000001f0: 4505 ccbd 54ef 74bd 3b87 243e e9a5 333d
00000200: c5be 633e afd7 313e 9706 493d 7a54 1d3d
00000210: 6dff f83c 33b6 833e 7d44 b73d 5152 01bb
00000220: d958 7bbb af13 02bb 97ef a7bd a0e6 3b3e
00000230: ae40 933e 7647 223e 1a2d c13d 85d5 203e
00000240: 07d8 75bc 6851 b23d d67d 2c3e fba0 063d
00000250: d613 d23c d61d ce3b d19b 0d3c f03c d0bc
00000260: 4682 40be 4bf1 bbbd 09b3 19be d347 913b
00000270: 8a9e bbbb a914 843d beab 1ebd 17b9 1abd
00000280: ee8a 843c 2655 edbd a8fc 2ebe bdf4 10be
00000290: 7fda 0ebe 3948 1abe 8b4d 1e3d e204 50bd
000002a0: 3c43 ccbd c8fa 343b 8fe5 c1bd 13f4 033d
000002b0: 4c1a e0bd 0144 d43d 8e50 d13d c8c7 233e
000002c0: 0380 243a a04b d23d 67b3 413e 0764 283e
000002d0: ec17 03be 3b8d 083d 62ce 04be 70a2 65be
000002e0: 6f96 47bd 842a 6cbb d08c 37bd bc07 24be
000002f0: 0ade 95be 36ef 5b3e 02f3 473e 5e6e ab3d
00000300: 9e68 fcbc 87f1 3c3c c1d7 4a3e 4400 023e
00000310: 87f4 bc3d 2b90 a4bd e620 d6bc eadb 82bd
00000320: 5bf4 8abd 24c4 06be 900d 04be 4f02 5a3d
00000330: 7331 52be 6060 1fbe 27f0 a7bb 582e 7d3d
00000340: 798d 46bd 2645 fbbc 5268 9fbe 701e 59bd
00000350: c00c a6bd dcef 23bd 6e08 12ba 7a76 a1bd
00000360: e957 873e 2213 f83d 7adb 933d df1d f2bd
00000370: 34ae a93b 1d81 803d 2ce8 2a3e f463 bf3e
00000380: 10c5 a93c d482 463e 30f1 ecbd 2794 efbd
00000390: c75a 253d 44aa ee3d f39d 48bd c9c8 c5bd
000003a0: f7f4 2abe 2617 6dbe 3ad2 083d 69b0 553c
000003b0: b46b 803c 6a04 5abc 056b af3d 66b5 e73d
000003c0: bf58 dfbc d400 223e a219 14be ec51 d2bd
000003d0: 9396 b7bd b509 c9bd 9822 abbd f0fd 27be
000003e0: 76f6 1abd 8dd0 9dbb eb71 773d b346 313e
000003f0: 08c9 83be 4942 45bd ad79 cbbd 7c60 05bd

backbone.stage0.sconv.bias f4 [16]
0.019994408 0.019994318 0.019994961 0.019992141 0.019994488 0.01999482 0.019995358 0.019994557
0.019992748 0.019993974 0.019993974 0.019994557 0.019993367 0.019996164 0.019994248 0.019994332
00000000: 50cb a33c 20cb a33c 79cc a33c 8fc6 a33c
00000010: 7bcb a33c 2dcc a33c 4ecd a33c a0cb a33c
00000020: d5c7 a33c 67ca a33c 67ca a33c a0cb a33c
00000030: 21c9 a33c ffce a33c faca a33c 27cb a33c

backbone.stage0.bn.weight f4 [16]
0.9395681 0.95211667 1.0275279 0.93987805 1.085057 0.976694 0.9983461 0.9859352
0.9591986 1.0125644 1.0299344 0.9826443 1.0153737 1.0209099 1.0156995 1.0668149
00000000: 8987 703f ebbd 733f 0986 833f d99b 703f
00000010: 26e3 8a3f 9e08 7a3f 9c93 7f3f 4066 7c3f
00000020: 0a8e 753f b69b 813f e4d4 833f 948e 7b3f
00000030: c4f7 813f 2dad 823f 7102 823f 648d 883f

backbone.stage0.bn.bias f4 [16]
-0.08716174 0.035500735 0.04076945 -0.035558775 1.3049301e-05 0.032596726 0.081255145 0.06948016
0.028359419 0.002749604 0.04839624 -0.0049556 0.03882488 0.0489022 -0.0094153695 0.081975594
00000000: db81 b2bd 3869 113d defd 263d 14a6 11bd
00000010: 52ee 5a37 2584 053d 1969 a63d 9d4b 8e3d
00000020: 0352 e83c b332 343b 233b 463d 9662 a2bb
00000030: d606 1f3d ac4d 483d ec42 1abc d2e2 a73d

backbone.stage0.bn.running_mean f4 [16]
-0.14326598 -0.09475589 0.089344464 -0.09141964 -0.015669875 0.012355963 0.08224924 0.18556483
-0.03213074 0.15342219 -0.15876368 -0.0807548 -0.056775734 0.17616072 0.004907621 -0.17514448
00000000: 51b4 12be 600f c2bd 3bfa b63d 383a bbbd
00000010: 1c5e 80bc aa70 4a3c 4a72 a83d b504 3e3e
00000020: 869b 03bd b51a 1d3e f292 22be c662 a5bd
00000030: ac8d 68bd 7a63 343e 1cd0 a03b 1359 33be

backbone.stage0.bn.running_var f4 [16]
0.6389311 0.13475695 0.32982948 0.5094888 0.2097941 0.18207651 0.17454155 0.20695734
0.2648119 0.40784663 0.7711605 0.088792026 0.08625194 0.54353803 0.3587008 0.72225976
00000000: fd90 233f bafd 093e 69df a83e dc6d 023f
00000010: 44d4 563e 4472 3a3e 05bb 323e a0ec 533e
00000020: 6d95 873e 46d1 d03e c66a 453f 98d8 b53d
00000030: dba4 b03d 4f25 0b3f a2a7 b73e 04e6 383f

backbone.stage0.unit.pconv.weight f4 [16, 16, 1, 1]
0.064153165 -0.32447484 -0.06482418 -0.44088256 0.28439444 -0.020406768 0.07414903 -0.03309426
0.23656213 0.071452804 -0.008719359 0.13369693 0.0226526 0.09425656 -0.30883515 0.07709738
-0.06429229 0.18666793 -0.002833577 -0.12045708 0.015887473 0.07271631 -0.39899457 -0.44183928
0.036706887 -0.28610972 0.25947562 0.15718342 0.28045985 -0.070069835 0.16244549 0.36812237
0.41935802 0.0019041927 -0.15740785 -0.47040552 -0.43072194 0.11764033 0.3623409 0.52308774
0.22782661 -0.25917876 -0.036753178 0.09167605 -0.16380587 0.5299203 0.01995768 0.28225216
-0.16831048 0.10209668 -0.13501081 0.5149231 0.08575744 -0.3510864 0.56481063 -0.16388589
0.12093774 0.0020601123 -0.008429381 -0.06114873 0.34488377 0.019784305 0.4049317 -0.21717428
-0.033309318 0.5277032 -0.056018032 0.04205937 0.11825458 0.07937183 0.09519299 0.22128688
0.080591895 -0.32838193 -0.07713248 -0.030689852 0.039931107 -0.607522 0.13028465 0.39004755
0.44867465 -0.1383434 0.0691727 -0.05049205 -0.52116334 0.17713094 -0.11060838 0.19066006
0.05437667 0.0122056 0.1690946 0.07389666 0.18773133 0.33526418 0.35730338 0.1652761
0.050615046 -0.024805412 0.30862725 0.2962058 -0.3337822 0.29755554 0.32232606 -0.09485871
-0.045766365 -0.26366848 0.023266772 0.073721826 -0.08992865 0.14885512 -0.13804546 0.57699966
0.09840282 -0.37178722 -0.31473616 0.2035181 -0.45117423 -0.104561254 -0.288188 0.39424232
0.2923645 -0.028985184 -0.5670116 -0.13462885 -0.061442796 0.15913251 -0.16036123 -0.40944546
-0.42031494 -0.023418002 0.07262718 0.14244151 -0.0040108054 -0.10087073 0.04783029 0.3449836
-0.25512114 -0.009146351 0.56222177 -0.39851257 -0.21658936 -0.19472007 0.1357873 0.5139444
0.18191117 -0.11286634 -0.38775468 -0.1924845 0.17793517 0.092083514 0.3062923 0.28274816
-0.21509422 -0.056095194 0.3881162 -0.086481296 0.078459986 -0.2159183 0.24294148 0.46705338
-0.10216109 -0.24656995 -0.15933046 -0.056934483 -0.35562372 0.3001373 -0.18036546 -0.22820571
0.1998087 -0.27852142 -0.20334797 -0.10408934 0.20507902 -0.082003444 0.14575349 -0.017043857
0.0021535472 0.22765802 0.04910919 0.28238237 0.22858413 -0.09367698 -0.033852186 0.519234
-0.19659176 0.27558413 -0.2610231 0.13924043 -0.3862588 -0.108242616 0.45533213 -0.22036108
0.20471233 -0.65052545 0.010193561 0.25293773 -0.05559942 0.057879988 0.23146942 -0.0668953
-0.21057256 0.17372966 -0.34472874 -0.23517935 -0.1876969 -0.15159687 -0.5713872 0.2860236
0.24491835 0.1413699 -0.25500244 0.07152647 0.49020007 0.017026342 -0.13376927 -0.35126203
0.5206334 -0.1378909 0.15707025 -0.40628397 -0.7433776 0.12048466 0.41580012 0.24586484
-0.0766528 0.18733573 0.17948306 -0.13490169 -0.2542262 -0.07378218 -0.071397655 -0.074760474
-0.17180279 0.069040194 0.21563064 0.027221726 0.25043783 -0.23093632 -0.25569648 -0.04842569
-0.3315295 0.41800383 -0.33528644 0.1591153 -0.27910796 0.048117857 -0.14710972 0.2518622
-0.20580539 0.25738162 0.27722803 -0.034572177 -0.15627192 -0.25237703 0.04270695 0.14798374
00000000: bc62 833d 9121 a6be 8ac2 84bd 5cbb e1be
00000010: 269c 913e 182c a7bc 72db 973d d98d 07bd
00000020: 583d 723e d955 923d a4db 0ebc d9e7 083e
00000030: f291 b93c 9509 c13d a41f 9ebe 3be5 9d3d
00000040: adab 83bd e125 3f3e 89b3 39bb 34b2 f6bd
00000050: 7226 823c 4aec 943d 0449 ccbe c238 e2be
00000060: f659 163d f97c 92be fdd9 843e b1f4 203e
00000070: 6f98 8f3e c680 8fbd 1c58 263e 897a bc3e
00000080: 18b6 d63e 1b96 f93a 862f 21be fed8 f0be
00000090: 9687 dcbe 6aed f03d bf84 b93e 14e9 053f
000000a0: 614b 693e 14b3 84be 808a 16bd a7c0 bb3d
000000b0: babc 27be dba8 073f 4a7e a33c 5b83 903e
000000c0: 9559 2cbe 1018 d13d 4640 0abe 00d2 033f
000000d0: 99a1 af3d 99c1 b3be 6e97 103f b4d1 27be
000000e0: 35ae f73d f302 073b 631b 0abc 1777 7abd
000000f0: 9b94 b03e b212 a23c 3553 cf3e ef62 5ebe
00000100: 5a6f 08bd 8f17 073f 2a73 65bd 7246 2c3d
00000110: 752f f23d b38d a23d 8bf4 c23d 0799 623e
00000120: 5d0d a53d ad21 a8be a2f7 9dbd 4969 fbbc
00000130: cd8e 233d 9086 1bbf 5769 053e 50b4 c73e
00000140: afb8 e53e e4a9 0dbe 6baa 8d3d c0d0 4ebd
00000150: f66a 05bf d061 353e a586 e2bd 643c 433e
00000160: 12ba 5e3d fff9 473c 2327 2d3e 2257 973d
00000170: a43c 403e bfa7 ab3e 78f0 b63e 233e 293e
00000180: b951 4f3d b834 cbbc 6404 9e3e 49a8 973e
00000190: 80e5 aabe 3359 983e ec07 a53e 4945 c2bd
000001a0: 8375 3bbd 8eff 86be f599 be3c 78fb 963d
000001b0: 832c b8bd 7a6d 183e ca5b 0dbe 40b6 133f
000001c0: 6b87 c93d e55a bebe 1925 a1be 0c67 503e
000001d0: 4f00 e7be 3624 d6bd 618d 93be 21da c93e
000001e0: cdb0 953e 5672 edbc ac27 11bf 25dc 09be
000001f0: 71ab 7bbd a2f3 223e bc35 24be d6a2 d1be
00000200: 8533 d7be 1cd7 bfbc 8fbd 943d 30dc 113e
00000210: 136d 83bb 5095 cebd b2e9 433d b1a1 b03e
00000220: 3d9f 82be 94da 15bc c4ed 0f3f d709 ccbe
00000230: 9ac9 5dbe b364 47be d30b 0b3e dc91 033f
00000240: ec46 3a3e 7826 e7bd c887 c6be a81a 45be
00000250: a334 363e 4896 bc3d 58d2 9c3e 5ec4 903e
00000260: a941 5cbe 13c4 65bd 2bb7 c63e 1b1d b1bd
00000270: a1af a03d b019 5dbe a7c5 783e 9f21 ef3e
00000280: d539 d1bd d57c 7cbe 8627 23be 2234 69bd
00000290: 5014 b6be 99ab 993e b9b1 38be c2ae 69be
000002a0: a79a 4c3e 5c9a 8ebe 733a 50be cb2c d5bd
000002b0: 3c00 523e 6cf1 a7bd 6740 153e 8f9f 8bbc
000002c0: 8722 0d3b 2f1f 693e b826 493d 6c94 903e
000002d0: f511 6a3e b7d9 bfbd 97a8 0abd 85ec 043f
000002e0: 5a4f 49be 5d19 8d3e d2a4 85be 0b95 0e3e
000002f0: b7c3 c5be 4eae ddbd 4b21 e93e 56a6 61be
00000300: 1ca0 513e d688 26bf e502 273c 0e81 813e
00000310: 38bc 63bd 9113 6d3d 5206 6d3e 6700 89bd
00000320: 55a0 57be 30e6 313e 4980 b0be dbd2 70be
00000330: 9e33 40be 363c 1bbe 6e46 12bf af71 923e
00000340: e0cb 7a3e 45c3 103e ae8f 82be 787c 923d
00000350: 81fb fa3e d47a 8b3c d0fa 08be 9ed8 b3be
00000360: 3b48 053f 4633 0dbe 06d7 203e 7404 d0be
00000370: ff4d 3ebf a9c0 f63d c1e3 d43e fec3 7b3e
00000380: 25fc 9cbd f0d4 3f3e 68ca 373e ab23 0abe
00000390: f029 82be 1d1b 97bd ef38 92bd 051c 99bd
000003a0: 12ed 2fbe f264 8d3d 47ce 5c3e 1900 df3c
000003b0: 6339 803e 927a 6cbe a6ea 82be 045a 46bd
000003c0: 3cbe a9be 9904 d63e aaaa abbe 1fef 223e
000003d0: 3de7 8ebe 3b17 453d eea3 16be 15f4 803e
000003e0: a6be 52be 86c7 833e d5f0 8d3e 8e9b 0dbd
000003f0: bf05 20be 9037 81be 7ced 2e3d 0d89 173e

backbone.stage0.unit.pconv.bias f4 [16]
0.018128555 0.02018008 0.02013539 0.020738706 0.019975817 0.020364488 0.02016194 0.023488522
0.02017889 0.023091996 0.0274046 0.021154227 0.017989496 0.019818341 0.020361392 0.01965841
00000000: 5682 943c b250 a53c f9f2 a43c 38e4 a93c
00000010: 53a4 a33c 6dd3 a63c a72a a53c 006b c03c
00000020: 334e a53c 6d2b bd3c 9d7f e03c a14b ad3c
00000030: b55e 933c 135a a23c efcc a63c ad0a a13c

backbone.stage0.unit.dconv.weight f4 [16, 1, 3, 3]
0.14580339 0.011134454 0.025122713 0.1357375 -0.04932277 0.121827215 0.14821707 0.057975646
-0.03383734 0.15735702 0.19722348 0.2144011 0.015122499 -0.11126716 -0.19856806 0.18289943
0.113558136 -0.08115137 -0.046175424 0.1148489 -0.04884979 0.08146253 0.20818539 0.08503469
0.11946309 0.13857917 0.16399798 -0.054926325 -0.12761633 -0.09251257 -0.039439403 -0.15368569
-0.03377701 -0.0865479 -0.037043005 -0.034443796 0.011324892 0.014425409 -0.011697089 -0.018805943
0.01525996 0.016601596 0.026711384 0.06069362 0.21340664 0.12916802 -0.16843373 0.11218591
-0.0246955 -0.11051065 -0.12745237 0.054019175 -0.19931515 -0.13067068 -0.18847035 0.22698039
-0.04390938 0.17709288 0.015783118 0.16251709 -0.09294684 0.11347527 0.06692474 0.12721273
0.15004335 -0.1142183 0.20840965 0.019246781 -0.07233261 0.30566055 0.17386052 -0.05063096
-0.19649747 -0.05981829 0.015740925 -0.0739465 -0.18528134 0.19729291 0.038647387 0.090931244
-0.14731167 -0.120258085 0.010866946 -0.03424521 -0.058149014 -0.13360089 -0.18014367 -0.042246863
-0.016953746 0.022729062 -0.23413719 -0.21740767 -0.31703293 -0.11104727 0.014045088 0.12745163
0.086871445 0.25414404 0.18728122 0.06020126 0.048024688 -0.0011135108 0.038209956 -0.010472412
0.18630235 0.21738273 0.19966163 -0.09875 0.016562387 0.059480906 0.004175009 -0.07339118
0.15991375 -0.07100389 0.23001635 0.110048994 0.16625491 -0.019130392 0.13851674 0.031843558
0.23753054 0.22700574 0.10579289 0.11978773 0.08085863 -0.14986172 0.20506868 0.022311993
0.36232713 -0.01855783 0.016164813 0.05951794 -0.11382006 0.1309923 0.05507281 0.04781109
-0.3119702 -0.12990275 -0.20481771 0.06130826 -0.16943277 -0.022871565 -0.084026106 -0.04629256
00000000: 7c4d 153e 496d 363c 26ce cd3c c5fe 0a3e
00000010: ac06 4abd 8c80 f93d 37c6 173e df77 6d3d
00000020: 0699 0abd 3322 213e f4f4 493e f68b 5b3e
00000030: 5cc4 773c 09e0 e3bd 6d55 4bbe fd49 3b3e
00000040: 2b91 e83d b132 a6bd 7122 3dbd e635 eb3d
00000050: b816 48bd d4d5 a63d 8d2e 553e ab26 ae3d
00000060: 11a9 f43d b3e7 0d3e 16ef 273e 6dfa 60bd
00000070: dbad 02be 3b77 bdbd 368b 21bd c85f 1dbe
00000080: c359 0abd 0740 b1bd 68ba 17bd f014 0dbd
00000090: 0a8c 393c 8d58 6c3c 26a5 3fbc ec0e 9abc
000000a0: e904 7a3c 1200 883c d5d1 da3c e099 783d
000000b0: 4587 5a3e 9f44 043e e479 2cbe bac1 e53d
000000c0: 384e cabc 6853 e2bd e082 02be 3643 5d3d
000000d0: 4519 4cbe 89ce 05be 5ffe 40be 8c6d 683e
000000e0: 52da 33bd d657 353e 994b 813c e16a 263e
000000f0: ea5a bebd b965 e83d d70f 893d 0e44 023e
00000100: f7a4 193e 49eb e9bd 5769 553e 6dab 9d3c
00000110: 1f23 94bd 8a7f 9c3e 7e08 323e 6962 4fbd
00000120: a236 49be 0604 75bd 1df3 803c 4371 97bd
00000130: 64ba 3dbe 2707 4a3e b94c 1e3d 293a ba3d
00000140: dfd8 16be df49 f6bd 460b 323c b544 0cbd
00000150: a92d 6ebd acce 08be 9577 38be 0c0b 2dbd
00000160: 95e2 8abc 4c32 ba3c a9c1 6fbe 1ea0 5ebe
00000170: 2452 a2be c06c e3bd 5e1d 663c ae82 023e
00000180: a8e9 b13d 2b1f 823e a6c6 3f3e 9995 763d
00000190: 89b5 443d 39f3 91ba 0b82 1c3d 7b94 2bbc
000001a0: 0bc6 3e3e 9499 5e3e 1974 4c3e 713d cabd
000001b0: d8ad 873c 40a2 733d 84ce 883b 1d4e 96bd
000001c0: 6ec0 233e 7d6a 91bd 6889 6b3e 5e61 e13d
000001d0: ba3e 2a3e 57b7 9cbc 55d7 0d3e 646e 023d
000001e0: 353b 733e 3174 683e f1a9 d83d 4553 f53d
000001f0: 3699 a53d 5a75 19be 86fd 513e a4c7 b63c
00000200: f182 b93e 9706 98bc 126c 843c 15c9 733d
00000210: 7e1a e9bd d822 063e 0794 613d 90d5 433d
00000220: 8fba 9fbe 3a05 05be bcbb 51be 5f1e 7b3d
00000230: c97f 2dbe 265d bbbc e115 acbd 449d 3dbd

backbone.stage0.unit.dconv.bias f4 [16]
0.019994246 0.019994197 0.019993974 0.01999468 0.01999425 0.019994203 0.01999441 0.019994631
0.01999328 0.019994598 0.019994823 0.019993281 0.019994156 0.019994413 0.019993871 0.019994345
00000000: f9ca a33c dfca a33c 67ca a33c e2cb a33c
00000010: fbca a33c e2ca a33c 51cb a33c c8cb a33c
00000020: f2c8 a33c b6cb a33c 2fcc a33c f3c8 a33c
00000030: c9ca a33c 53cb a33c 30ca a33c 2ecb a33c

backbone.stage0.unit.bn.weight f4 [16]
1.0088248 0.97824824 0.97335386 0.9718788 0.9918799 1.0080458 0.96088535 1.0280399
1.0048728 0.993838 1.0764204 0.9882128 1.015985 1.0320584 0.9603632 1.0003376
00000000: 2c21 813f 7a6e 7a3f b82d 793f 0dcd 783f
00000010: d7eb 7d3f a507 813f 95fc 753f d096 833f
00000020: ac9f 803f 2b6c 7e3f 25c8 893f 84fb 7c3f
00000030: cc0b 823f 7d1a 843f 5dda 753f 100b 803f

backbone.stage0.unit.bn.bias f4 [16]
-0.02131588 -0.0061976765 -0.018776098 -0.05392628 0.07045173 -0.015538542 0.00053154095 0.11315281
0.04357492 -0.03598701 0.014005263 0.0072404244 0.011807265 0.039129157 -0.018189734 -0.015328401
00000000: a49e aebc e115 cbbb 55d0 99bc cee1 5cbd
00000010: ff48 903d 5e95 7ebc 1c57 0b3a a9bc e73d
00000020: 9e7b 323d 1d67 13bd 5576 653c 1541 ed3b
00000030: 4273 413c e545 203d a302 95bc f923 7bbc

backbone.stage0.unit.bn.running_mean f4 [16]
0.0026097153 0.07280888 0.40320808 -0.27461815 0.10007347 -0.29038978 0.25716096 -0.5777909
-0.040885165 -0.23572285 0.08335858 0.2544185 -0.30784103 0.17585893 -0.117069006 0.06492328
00000000: c207 2b3b d21c 953d 4a71 ce3e c09a 8cbe
00000010: 52f3 cc3d f8ad 94be 9aaa 833e 1bea 13bf
00000020: 3477 27bd 5561 71be e7b7 aa3d 2443 823e
00000030: 579d 9dbe 5d14 343e e0c1 efbd 7ff6 843d

backbone.stage0.unit.bn.running_var f4 [16]
0.07722251 0.30733705 0.12081967 0.06098206 0.07261918 0.17712136 0.07151251 0.37079382
0.007774473 0.103536434 0.033050947 0.106433325 0.19101068 0.26137552 0.036962274 0.19299796
00000000: d626 9e3d 485b 9d3e 4e70 f73d 53c8 793d
00000010: 5db9 943d 4d5f 353e 2775 923d b0d8 bd3e
00000020: 02c1 fe3b e90a d43d 6e60 073d b7f9 d93d
00000030: 4e98 433e 03d3 853e c165 173d 42a1 453e

backbone.stage1.1.unit1.pconv.weight f4 [16, 16, 1, 1]
0.27581468 -0.15450414 -0.06289624 -0.06394172 -0.3563591 -0.223058 0.2812089 -0.5455506
0.23412758 -0.04554405 0.017318055 0.24002059 -0.15968157 0.26200292 0.07830949 -0.3102222
-0.069309086 0.03539189 -0.30195513 0.1390474 -0.08506997 -0.1496133 -0.4508824 0.21745527
-0.03842774 0.080874875 0.24455127 -0.14398381 0.18702649 -0.083028205 -0.07994526 -0.07117238
-0.3535519 0.17451006 -0.16440727 0.053265814 0.15675794 0.0011868592 -0.14008853 -0.22210008
0.3046241 0.06397126 0.43812782 -0.31955877 -0.11401124 -0.34998196 -0.33917093 -0.07122118
-0.019790404 -0.086180024 -0.13879299 0.15503505 -0.6237029 -0.22548617 0.14750642 -0.19202492
0.36026323 -0.16382629 -0.3596495 0.5779104 -0.2579475 0.17141525 -0.5234633 0.08025005
-0.09196175 0.111127205 0.023764202 -0.004090129 0.17315333 0.11949778 -0.23847751 0.021386545
0.045620434 -0.26614612 -0.2259587 0.35393688 -0.2121102 0.28019422 -0.074038856 -0.004210483
-0.44616085 -0.0456081 0.19458924 -0.24024817 0.19994858 -0.08952835 0.23931505 0.053856857
-0.14437875 -0.17338017 0.0050228434 -0.12743913 -0.13099496 -0.06593234 0.2974712 0.3864667
-0.22323833 -0.3264315 -0.24628572 -0.015014451 -0.33927172 0.12866403 -0.5357463 -0.36363238
0.15015958 -0.31472552 -0.32962623 0.20186111 -0.055889543 0.52227783 -0.11082812 -0.21969038
0.32280463 0.1057195 0.35656387 -0.37087995 0.078894995 0.14782628 0.07211821 -0.35000908
0.088426635 -0.19595793 -0.08162202 0.23359779 0.07946952 -0.2252868 0.13317654 0.21948381
-0.087291904 0.22190256 -0.18887192 -0.20850794 -0.09991364 0.024256857 -0.009839043 -0.004799053
0.2525934 -0.23461768 0.2922122 0.17681253 0.2329295 -0.4825935 0.15788117 -0.38821
-0.08806972 -0.35658962 -0.13742366 -0.21132383 0.22921701 0.23684351 -0.03368893 0.028808476
-0.2798757 0.123750925 -0.5516672 0.14794198 -0.2573724 -0.12596479 -0.3693818 -0.20477691
0.26472855 -0.32851702 -0.24501127 0.039398693 0.5497041 -0.43851912 -0.04966021 -0.20653391
-0.28727117 0.058409672 0.6489824 0.2068626 -0.2326471 -0.07513046 0.42035607 -0.24910088
-0.2346486 -0.1879634 -0.02601574 -0.12206507 -0.15087707 0.25963044 0.08871098 0.038835026
0.026100874 -0.06543071 -0.59024346 -0.11245053 0.056312706 0.042953674 0.23557258 -0.06783403
-0.010862936 -0.13637713 -0.2917694 -0.4016431 -0.17677657 0.19110069 0.032112103 -0.049913954
0.12200653 -0.009634216 -0.055493593 0.06815361 0.5712139 -0.25221914 -0.03226468 -0.5578207
-0.10794695 0.072302595 0.0046273516 -0.27936855 -0.3268189 0.13804786 -0.19721273 -0.14634554
0.11393966 0.07453544 0.2645268 -0.120922625 -0.14802496 -0.4847986 0.1660172 -0.1821581
0.010038334 0.053334765 -0.16447881 -0.11345329 -0.36804903 0.29843563 -0.04317167 -0.3259531
-0.21265231 0.042839136 0.24286671 -0.4571052 0.31664273 -0.18259995 -0.029839985 0.45962918
0.0972154 -0.24063683 0.57654417 0.05238847 0.31908077 0.43324807 0.3639025 -0.5100848
0.3140846 -0.25263005 0.29268053 0.42520037 -0.1909842 -0.015496451 0.17063844 0.16938423
00000000: 9537 8d3e 5536 1ebe becf 80bd e0f3 82bd
00000010: b374 b6be 5169 64be 9dfa 8f3e 34a9 0bbf
00000020: 24bf 6f3e 668c 3abd 98de 8d3c f5c7 753e
00000030: 9183 23be 3f25 863e ba60 a03d 72d5 9ebe
00000040: ecf1 8dbd 16f7 103d dd99 9abe 7162 0e3e
00000050: 2a39 aebd 3b34 19be 0fda e6be 98ac 5e3e
00000060: 6866 1dbd baa1 a53d a66b 7a3e 7e70 13be
00000070: df83 3f3e b10a aabd 57ba a3bd d3c2 91bd
00000080: c104 b5be c4b2 323e 615a 28be 412d 5a3d
00000090: 2785 203e 6390 9b3a 5e73 0fbe 346e 63be
000000a0: b1f7 9b3e 5d03 833d 4a52 e03e 359d a3be
000000b0: ba7e e9bd d630 b3be d0a7 adbe 69dc 91bd
000000c0: 7c1f a2bc 277f b0bd c01f 0ebe 82c1 1e3e
000000d0: feaa 1fbf d9e5 66be ec0b 173e 2ea2 44be
000000e0: 6c74 b83e 14c2 27be fb23 b8be f0f1 133f
000000f0: b211 84be 7b87 2f3e b101 06bf 235a a43d
00000100: 7156 bcbd a996 e33d 25ad c23c 7d06 86bb
00000110: 1b4f 313e 41bb f43d 7333 74be d632 af3c
00000120: 7edc 3a3d 4e44 88be b861 67be 3737 b53e
00000130: 6b33 59be 9e75 8f3e afa1 97bd 17f8 89bb
00000140: 326f e4be 8fcf 3abd 6742 473e 9e03 76be
00000150: 52bf 4c3e a45a b7bd 010f 753e 0299 5c3d
00000160: 06d8 13be 928a 31be aa96 a43b 677f 02be
00000170: 8b23 06be 8907 87bd 254e 983e f7de c53e
00000180: 9798 64be 0822 a7be 5332 7cbe 2cff 75bc
00000190: 06b5 adbe 81c0 033e ab26 09bf 062e babe
000001a0: 6fc3 193e b423 a1be c5c4 a8be aeb4 4e3e
000001b0: 6fec 64bd 00b4 053f daf9 e2bd 84f6 60be
000001c0: a646 a53e 7783 d83d 8a8f b63e fae3 bdbe
000001d0: b393 a13d c65f 173e b6b2 933d 6434 b3be
000001e0: 0619 b53d 32a9 48be 7229 a7bd 4234 6f3e
000001f0: eac0 a23d 95b1 66be 6e5f 083e 5dc0 603e
00000200: 19c6 b2bd 6d3a 633e a467 41be 1b83 55be
00000210: 869f ccbd 51b6 c63c f033 21bc 6041 9dbb
00000220: ec53 813e 9e3f 70be d69c 953e 580e 353e
00000230: 1285 6e3e 7f16 f7be 9aab 213e 76c3 c6be
00000240: e65d b4bd ea92 b6be cab8 0cbe 4665 58be
00000250: ddb7 6a3e 1b87 723e 67fd 09bd c1ff eb3c
00000260: de4b 8fbe 2071 fd3d 103a 0dbf 1a7e 173e
00000270: 51c6 83be eafc 00be 9c1f bdbe 0ab1 51be
00000280: 808a 873e 6233 a8be 3ce4 7abe 8660 213d
00000290: 68b9 0c3f 9485 e0be 8168 4bbd a07d 53be
000002a0: 3515 93be fb3e 6f3d b623 263f cad3 533e
000002b0: 0b3b 6ebe 00de 99bd e938 d73e 4d14 7fbe
000002c0: b947 70be 7a79 40be f61e d5bc 40fd f9bd
000002d0: 857f 1abe 48ee 843e 1aae b53d 7a11 1f3d
000002e0: 80d1 d53c 8900 86bd 321a 17bf 774c e6bd
000002f0: 27a8 663d 31f0 2f3d f039 713e 91ec 8abd
00000300: 75fa 31bc 72a6 0bbe cc62 95be 2aa4 cdbe
00000310: eb04 35be e6af 433e fb87 033d 9372 4cbd
00000320: 8fde f93d d5d8 1dbc 404d 63bd 1f94 8b3d
00000330: 133b 123f de22 81be f827 04bd 56cd 0ebf
00000340: 4a13 ddbd 6213 943d 0aa1 973b 6509 8fbe
00000350: cf54 a7be 6b5c 0d3e 22f2 49be 9bdb 15be
00000360: 3259 e93d 09a6 983d 0f70 873e 48a6 f7bd
00000370: db93 17be 8637 f8be 6a00 2a3e a787 3abe
00000380: d377 243c 8e75 5a3d 226d 28be 335a e8bd
00000390: ec70 bcbe 8ecc 983e c7d4 30bd 53e3 a6be
000003a0: 87c1 59be 1778 2f3d 0db2 783e b109 eabe
000003b0: ff1e a23e 7bfb 3abe fc72 f4bc 8454 eb3e
000003c0: de18 c73d 8069 76be 6698 133f 4b95 563d
000003d0: 8e5e a33e b1d2 dd3e 6e51 ba3e eb94 02bf
000003e0: b2cf a03e ba58 81be 39da 953e ddb3 d93e
000003f0: 5d91 43be d4e4 7dbc d8bb 2e3e 0f73 2d3e

backbone.stage1.1.unit1.pconv.bias f4 [16]
0.027116068 0.023756428 0.024639456 0.02094056 0.023433466 0.020128163 0.020297404 0.01870416
0.015599747 0.023363646 0.026463501 0.019080872 0.022698158 0.01952193 0.019420588 0.019179404
00000000: 8422 de3c d79c c23c afd8 c93c 8a8b ab3c
00000010: 8af7 bf3c d1e3 a43c be46 a63c 7739 993c
00000020: 1596 7f3c 1e65 bf3c fcc9 d83c 7d4f 9c3c
00000030: 7df1 b93c 74ec 9f3c ed17 9f3c 201e 9d3c

backbone.stage1.1.unit1.dconv.weight f4 [16, 1, 3, 3]
-0.24006844 -0.06682837 0.15874356 -0.06750376 -0.15735199 0.058773234 0.085736156 -0.1335121
0.36741596 0.2201844 0.22632606 0.07762607 -0.01675366 -0.025906747 -0.095944636 0.0702741
0.0051786224 -0.0034008485 0.25196946 -0.023940008 -0.030216187 -0.026047222 0.08619586 -0.13939221
0.34301168 0.25849587 0.004703692 -0.11225019 -0.11928279 0.10925578 -0.07267998 -0.30592594
-0.017724076 -0.13339809 0.099371225 0.025333215 -0.023023225 -0.0064771627 0.079609044 -0.04339032
0.10978411 -0.045575235 -0.14915313 -0.16903022 -0.077229545 0.19099712 0.10685307 0.0020282327
0.018370565 0.1491593 0.020236248 0.09759935 -0.05370648 0.08038463 -0.3291005 -0.06692882
0.20047013 -0.069279514 -0.23992687 -0.14387293 -0.1500248 0.06713544 -0.040228304 0.014950947
0.02619278 -0.18632546 0.2136059 -0.08117931 -0.19180676 0.19661237 -0.04415285 -0.22569336
0.062910005 0.24005823 0.049129467 0.29396942 0.052609377 -0.11284704 -0.27028298 -0.10255023
-0.10393048 -0.05060403 0.3883915 0.026100101 -0.039306264 0.11866193 -0.044402618 0.092033096
-0.1794368 -0.026045278 0.3188805 0.20551328 0.1522298 -0.05264669 -0.0038061165 -0.11555985
0.09800822 -0.0219123 -0.10936836 -0.019462813 -0.13413641 -0.28026652 0.07050266 -0.03466354
-0.011001784 0.043856468 -0.14644435 0.10829224 0.124280974 0.042349327 0.23915546 0.03543095
0.057336714 -0.05944203 -0.1460042 -0.05547115 0.11928348 -0.014833748 -0.039713155 -0.22688493
0.07758985 0.036433253 -0.038981825 0.10947006 -0.05874775 -0.14412099 -0.072293736 0.17033619
-0.26007327 0.13972315 0.057514064 -0.098127574 0.22733976 -0.011898329 -0.07236315 -0.08426161
-0.15016931 0.26104012 -0.087419994 0.10071831 0.19805226 -0.024666697 0.049206786 0.18439119
00000000: 80d4 75be 50dd 88bd ac8d 223e 693f 8abd
00000010: e120 21be 34bc 703d 7096 af3d 65b7 08be
00000020: f21d bc3e 0578 613e 05c2 673e 6bfa 9e3d
00000030: f93e 89bc 633a d4bc 9f7e c4bd deeb 8f3d
00000040: 6fb1 a93b c5e0 5ebb 2402 813e d61d c4bc
00000050: f087 f7bc fc60 d5bc 7487 b03d d5bc 0ebe
00000060: 3a9f af3e 9259 843e 6e21 9a3b 6de3 e5bd
00000070: 894a f4bd 7fc1 df3d 3ed9 94bd 53a2 9cbe
00000080: 1532 91bc 8299 08be 2483 cb3d 9a87 cf3c
00000090: 349b bcbc 613e d4bb 110a a33d 0cba 31bd
000000a0: 7ed6 e03d 19ad 3abd 99bb 18be 4216 2dbe
000000b0: 862a 9ebd c094 433e c8d5 da3d 19ec 043b
000000c0: de7d 963c 37bd 183e 7dc6 a53c 2be2 c73d
000000d0: 53fb 5bbd b2a0 a43d dc7f a8be fa11 89bd
000000e0: 0b48 4d3e 6be2 8dbd 64af 75be 6d53 13be
000000f0: 1aa0 19be 4e7e 893d 6fc6 24bd d1f4 743c
00000100: 3e92 d63c 1acc 3ebe 81bb 5a3e 5741 a6bd
00000110: fe68 44be c154 493e 9ed9 34bd 291c 67be
00000120: f6d6 803d d3d1 753e fb3b 493d 2983 963e
00000130: ee7c 573d 591c e7bd 8862 8abe db05 d2bd
00000140: 81d9 d4bd 2c46 4fbd 40db c63e e1cf d53c
00000150: 9bff 20bd 0705 f33d 85df 35bd d97b bc3d
00000160: 48be 37be e85c d5bc 4e44 a33e 1372 523e
00000170: 21e2 1b3e 0ea4 57bd 0a70 79bb a5aa ecbd
00000180: 89b8 c83d 6c81 b3bc 85fc dfbd 7a70 9fbc
00000190: 0e5b 09be 187f 8fbe b363 903d 5bfb 0dbd
000001a0: d440 34bc d7a2 333d 82f5 15be 52c8 dd3d
000001b0: 0687 fe3d 7d76 2d3d 2be5 743e 0b20 113d
000001c0: e7d9 6a3d 7c79 73bd 2082 15be b735 63bd
000001d0: e64a f43d 4009 73bc 43aa 22bd 8654 68be
000001e0: 6de7 9e3d 093b 153d 68ab 1fbd d731 e03d
000001f0: 7ba1 70bd 7494 13be bd0e 94bd 9c6c 2e3e
00000200: 5328 85be 9613 0f3e de93 6b3d 1cf7 c8bd
00000210: c1cb 683e 35f1 42bc 2233 94bd 5a91 acbd
00000220: fcc5 19be 0da7 853e 4109 b3bd 6745 ce3d
00000230: 36ce 4a3e d011 cabc 0e8d 493d 0bd1 3c3e

backbone.stage1.1.unit1.dconv.bias f4 [16]
0.019994264 0.019994294 0.01999424 0.019994283 0.019994175 0.019994227 0.019994276 0.019994408
0.01999437 0.019994056 0.01999453 0.01999454 0.019994289 0.019993972 0.019994065 0.019994285
00000000: 03cb a33c 13cb a33c f6ca a33c 0dcb a33c
00000010: d3ca a33c efca a33c 09cb a33c 50cb a33c
00000020: 3ccb a33c 93ca a33c 92cb a33c 97cb a33c
00000030: 10cb a33c 66ca a33c 98ca a33c 0ecb a33c

backbone.stage1.1.unit1.bn.weight f4 [16]
1.0027083 1.0094765 0.9841666 0.97210056 0.95735025 0.99072105 0.9847993 1.0820937
1.0368009 1.0151784 1.0068452 0.9654024 1.01004 0.9750444 1.0143025 0.99037415
00000000: bf58 803f 8736 813f 58f2 7b3f 95db 783f
00000010: e814 753f e59f 7d3f cf1b 7c3f 0c82 8a3f
00000020: e4b5 843f 5ef1 813f 4ee0 803f 9d24 773f
00000030: fe48 813f 839c 793f aad4 813f 2989 7d3f

backbone.stage1.1.unit1.bn.bias f4 [16]
0.019739693 0.0045909765 0.021447103 -0.018757664 -0.0010410958 0.029920578 -0.0064611607 0.010971151
0.018380458 0.031086655 0.025339643 -0.0037136767 -0.024886753 -0.016905233 0.023979317 0.017389575
00000000: 23b5 a13c e76f 963b d6b1 af3c aca9 99bc
00000010: 6175 88ba 001c f53c 25b8 d3bb 58c0 333c
00000020: 9d92 963c 71a9 fe3c 1595 cf3c 2861 73bb
00000030: 4edf cbbc d87c 8abc 4670 c43c 9574 8e3c

backbone.stage1.1.unit1.bn.running_mean f4 [16]
0.033650074 -0.06981788 -0.21357213 0.28913265 0.002364494 0.01391297 0.7452477 -0.085700795
0.028183246 -0.26317453 0.067126654 0.1793664 -0.14045751 0.18079764 -0.023526346 0.41439036
00000000: a9d4 093d adfc 8ebd a7b2 5abe 3209 943e
00000010: a0f5 1a3b 3af3 633c 8ec8 3e3f e683 afbd
00000020: 8de0 e63c d0be 86be b379 893d d3ab 373e
00000030: 18d4 0fbe 0423 393e 53ba c0bc f92a d43e

backbone.stage1.1.unit1.bn.running_var f4 [16]
0.016102577 0.070947886 0.13565974 0.08775054 0.019547563 0.10357057 0.1482714 0.051186457
0.030386973 0.051448956 0.13721748 0.05807486 0.029859686 0.038771644 0.05498624 0.114288606
00000000: 8de9 833c 204d 913d 63ea 0a3e 8eb6 b33d
00000010: 3622 a03c cf1c d43d 75d4 173e e4a8 513d
00000020: 1aee f83c 24bc 523d bd82 0c3e e8df 6d3d
00000030: 4d9c f43c 04cf 1e3d 4039 613d 2510 ea3d

backbone.stage1.1.unit2.pconv.weight f4 [64, 16, 1, 1]
0.23793282 -0.14807753 -0.027717348 -0.18836786 -0.08452451 -0.15110026 0.028581928 -0.34433472
-0.054886397 -0.26090568 0.04499187 0.08138735 -0.25609225 0.12228513 -0.00728103 0.084402174
0.26720247 -0.18923205 -0.2624122 -0.24711041 -0.079971984 0.08081539 0.27544367 0.028671231
-0.23231927 0.21597315 0.19330673 -0.105623655 0.09721655 0.08354667 0.0010813092 -0.22071157
0.1819604 0.6489526 -0.2254477 -0.051468246 0.12243707 0.14464584 0.062491972 0.046390194
-0.19358104 0.2427827 0.10233817 0.099278584 0.062295802 -0.18562412 -0.029805655 -0.14091913
-0.024785608 0.05249697 -0.057255942 0.17747372 0.1558858 0.06164993 -0.06844982 -0.19429265
-0.30342942 0.06180576 -0.024045065 -0.05665559 -0.048612352 0.21695717 -0.11468267 0.015317326
0.15877809 -0.08837411 0.08340271 -0.039021153 -0.080556266 0.08089009 -0.18637224 -0.28620338
-0.18166704 -0.13072528 0.0861317 -0.11202531 0.1356246 -0.009613533 0.14862454 0.14051282
-0.2868335 -0.21692881 -0.008450512 0.22790897 -0.2568138 0.07973715 0.23023373 0.07177349
0.013384219 0.15156129 -0.08228142 0.1415728 -0.05187111 0.045730438 0.08839081 0.04049988
-0.1037704 -0.041785594 0.18666072 -0.1627263 0.21715514 -0.11700316 0.1793242 0.20891838
-0.148036 0.09826706 0.042816218 0.18572934 0.21463595 -0.053216476 -0.24439755 0.00059894606
-0.045292374 -0.01959094 0.16237104 -0.0052124974 -0.047710534 -0.032178674 0.19429 -0.055312615
-0.21366738 -0.4275691 0.025742592 -0.009378039 -0.058656186 -0.058611825 -0.21780308 -0.07222418
0.06422363 0.07572755 -0.09551909 -0.063494444 0.05719726 -0.12080483 0.02203342 -0.281863
-0.07590532 -0.097402684 -0.03206526 0.055732414 0.10627097 0.050016105 0.18646501 0.099988
0.13235745 -0.025944674 0.21165682 0.29155815 0.117563084 0.053778034 -0.12892863 -0.1666711
-0.051438816 -0.06252997 0.2235219 -0.021516042 -0.08547793 -0.50064236 0.15433602 -0.18047473
0.055248406 -0.14934886 -0.119940884 -0.033344083 -0.021550337 -0.18142104 -0.15793532 -0.26405656
-0.24532002 -0.008206798 -0.16900869 -0.15042786 -0.1466274 0.12407882 -0.047898494 0.24446854
-0.12488782 -0.0820872 -0.16784775 0.35379034 -0.10752835 0.17955327 0.10052746 0.118495665
-0.087681994 -0.11180426 0.00598504 -0.13008067 0.25586507 -0.07543241 -0.0637254 -0.15097052
-0.022425497 -0.13998845 0.039682448 -0.20036481 0.26001814 -0.16392186 -0.2507055 0.2076876
0.012501327 0.019469405 -0.056761254 0.3059651 0.07767625 -0.29831463 0.040379424 -0.08322584
-0.35717413 -0.016673997 -0.102495566 -0.2721436 0.037160918 0.18196721 -0.11246867 0.06985624
0.12120767 -0.46047133 0.16614866 -0.37126863 -0.06625577 0.10127884 -0.21468458 0.16935305
-0.18527259 0.20883855 0.021625286 -0.07994976 -0.18135986 0.024272546 0.18933988 0.0011229095
-0.3657762 -0.30753547 0.007817603 -0.13145162 -0.04338475 0.08424141 -0.022824138 -0.21969445
-0.10846093 0.17111947 -0.3286473 0.09050803 0.28608155 0.01860527 0.09902714 0.1344278
0.1049703 -0.19530079 -0.1648122 0.20041412 -0.17573443 -0.2074733 -0.064946614 -0.26277256
00000000: a9a4 733e a3a1 17be 7e0f e3bc 81e3 40be
00000010: 301b adbd 07ba 1abe a624 ea3c a44c b0be
00000020: 8fd0 60bd 6e95 85be 6549 383d 69ae a63d
00000030: 861e 83be a070 fa3d b595 eebb 0cdb ac3d
00000040: c3ce 883e 0cc6 41be e45a 86be 830a 7dbe
00000050: 5ac8 a3bd 8a82 a53d f406 8d3e eedf ea3c
00000060: 1ae5 6dbe 1128 5d3e 33f2 453e 3751 d8bd
00000070: 7819 c73d 841a ab3d b7ba 8d3a 3702 62be
00000080: d453 3a3e c221 263f c3db 66be 5ed0 52bd
00000090: 49c0 fa3d 0a1e 143e 95f7 7f3d a503 3e3d
000000a0: 1c3a 46be 079c 783e ad96 d13d 9252 cb3d
000000b0: e229 7f3d 4014 3ebe fd2a f4bc 1b4d 10be
000000c0: 300b cbbc 1007 573d 3585 6abd acbb 353e
000000d0: 87a0 1f3e a384 7c3d 6b2f 8cbd a7f4 46be
000000e0: 1a5b 9bbe 0928 7d3d 28fa c4bc b10f 68bd
000000f0: bf1d 47bd 052a 5e3e bfde eabd 86f5 7a3c
00000100: b996 223e 7cfd b4bd 0acf aa3d a5d4 1fbd
00000110: affa a4bd b4a9 a53d 5dd8 3ebe 4089 92be
00000120: ed06 3abe d9dc 05be d165 b03d 876d e5bd
00000130: 2de1 0a3e 1482 1dbc 0831 183e 98e2 0f3e
00000140: d7db 92be 9622 5ebe 0474 0abc f860 693e
00000150: 197d 83be 3b4d a33d 64c2 6b3e fbfd 923d
00000160: 7c49 5b3c e232 1b3e 2983 a8bd 76f8 103e
00000170: cd76 54bd d74f 3b3d 3e06 b53d 34e3 253d
00000180: 9385 d4bd 5f27 2bbd fd23 3f3e b9a1 26be
00000190: eb5d 5e3e 5a9f efbd c3a0 373e b3ee 553e
000001a0: c096 17be 3e40 c93d 0f60 2f3d d52f 3e3e
000001b0: 87c9 5b3e 85f9 59bd 5a43 7abe 9702 1d3a
000001c0: 7f84 39bd 2e7d a0bc 9844 263e 99cd aabb
000001d0: 1f6c 43bd c9cd 03bd f5f3 463e 7b8f 62bd
000001e0: 9fcb 5abe 56ea dabe 21e2 d23c 59a6 19bc
000001f0: 7841 70bd f412 70bd c507 5fbe 45ea 93bd
00000200: ae87 833d 0c17 9b3d 839f c3bd 6009 82bd
00000210: ad47 6a3d 8668 f7bd 6e7f b43c 5950 90be
00000220: 4074 9bbd 0f7b c7bd dd56 03bd ac47 643d
00000230: 98a4 d93d b0dd 4c3d aff0 3e3e 82c6 cc3d
00000240: b688 073e ed89 d4bc 91bc 583e 1c47 953e
00000250: eac4 f03d 5b46 5c3d de05 04be d4ab 2abe
00000260: 82b1 52bd b70f 80bd ede2 643e 6942 b0bc
00000270: 0e0f afbd 192a 00bf 430a 1e3e 5ece 38be
00000280: 274c 623d e8ee 18be 91a3 f5bd ce93 08bd
00000290: 558a b0bc 70c6 39be ccb9 21be 6c32 87be
000002a0: 2c35 7bbe ce75 06bc 9d10 2dbe c309 1abe
000002b0: 7e25 16be 091d fe3d 3631 44bd f655 7a3e
000002c0: 2fc5 ffbd 551d a8bd 48e0 2bbe 0224 b53e
000002d0: d337 dcbd d0dc 373e 57e1 cd3d dbad f23d
000002e0: 9e92 b3bd a2f9 e4bd 281e c43b de33 05be
000002f0: bf00 833e 4f7c 9abd 7682 82bd 0498 1abe
00000300: adb5 b7bc 2259 0fbe 108a 223d 6f2c 4dbe
00000310: 1921 853e 22db 27be 795c 80be 0fac 543e
00000320: 5ed2 4c3c 4d7e 9f3c 7d7e 68bd 75a7 9c3e
00000330: ba14 9f3d b2bc 98be e564 253d 4f72 aabd
00000340: 87df b6be e897 88bc 32e9 d1bd 6856 8bbe
00000350: 0c36 183d 9d55 3a3e f955 e6bd ca10 8f3d
00000360: ba3b f83d e6c2 ebbe e022 2a3e ec16 bebe
00000370: 1bb1 87bd 486b cf3d 46d6 5bbe e36a 2d3e
00000380: 19b8 3dbe c6d9 553e 8327 b13c b3bc a3bd
00000390: 66b6 39be 38d7 c63c 50e2 413e 972e 933a
000003a0: 0547 bbbe 4a75 9dbe 6715 003c 419b 06be
000003b0: 35b4 31bd c386 ac3d b0f9 babc 95f7 60be
000003c0: c420 debd f139 2f3e 7544 a8be 465c b93d
000003d0: 4879 923e 146a 983c bece ca3d 71a7 093e
000003e0: abfa d63d eefc 47be 88c4 28be 5c39 4d3e
000003f0: baf3 33be e173 54be bb02 85bd 208a 86be

backbone.stage1.1.unit2.pconv.bias f4 [64]
0.021679549 0.01969468 0.021294018 0.019415118 0.017914912 0.020020764 0.019737191 0.019334782
0.020392891 0.021141801 0.019139826 0.019911358 0.020030124 0.018400542 0.018541925 0.018574627
0.019845247 0.018189631 0.016164167 0.021233227 0.01956228 0.020081319 0.019665875 0.021337455
0.019639337 0.01933976 0.019993361 0.018782118 0.021214891 0.018715274 0.022490812 0.022100192
0.019132815 0.021618357 0.020736238 0.018874168 0.019564247 0.020338465 0.020794459 0.018500322
0.018535811 0.020011239 0.018797722 0.02094652 0.018894356 0.019903237 0.019613536 0.018724022
0.021794513 0.022255177 0.01902306 0.020851191 0.020867849 0.01930839 0.021016613 0.02005157
0.024060978 0.020144174 0.019640066 0.020091487 0.019495003 0.0212401 0.01620927 0.02208932
00000000: 4f99 b13c bd56 a13c cb70 ae3c 740c 9f3c
00000010: 4bc2 923c 9602 a43c e4af a13c fa63 9e3c
00000020: fe0e a73c 9231 ad3c 20cb 9c3c 251d a33c
00000030: 3716 a43c bcbc 963c 3ce5 973c d129 983c
00000040: 8092 a23c 6c02 953c b76a 843c 4ef1 ad3c
00000050: 1341 a03c 9481 a43c 541a a13c e3cb ae3c
00000060: ade2 a03c 6b6e 9e3c 1ec9 a33c f5dc 993c
00000070: daca ad3c c650 993c a73e b83c 760b b53c
00000080: 6cbc 9c3c fb18 b13c 0bdf a93c 009e 9a3c
00000090: 3345 a03c da9c a63c 2459 aa3c fd8d 973c
000000a0: 6ad8 973c 9cee a33c aefd 993c 0998 ab3c
000000b0: 56c8 9a3c 1d0c a33c 91ac a03c 1f63 993c
000000c0: 688a b23c 7d50 b63c 40d6 9b3c 1ed0 aa3c
000000d0: 0df3 aa3c a12c 9e3c 082b ac3c 3143 a43c
000000e0: 871b c53c 6505 a53c 34e4 a03c e796 a43c
000000f0: fcb3 9f3c b8ff ad3c 4ec9 843c a9f4 b43c

backbone.stage1.1.unit2.dconv.weight f4 [64, 1, 3, 3]
0.14286661 0.020592054 -0.087138094 0.121424295 0.035969846 -0.06981126 -0.03329739 0.025374915
0.040409997 -0.046963025 -0.039145567 -0.05743484 -0.06854083 -0.019872414 -0.017080188 -0.06502631
-0.05408148 -0.11101709 0.039262276 0.063797 0.0023991824 0.011990315 0.037188493 -0.047767263
0.043958172 0.14846954 0.0935924 0.031908024 -0.06178256 -0.13544759 -0.07091762 -0.08571611
-0.069997415 0.093365334 0.018257003 -0.07169988 -0.08987774 -0.16487053 -0.014577338 0.0024753187
-0.037807323 -0.050086923 0.029753543 -0.11438684 0.01554052 0.042737007 0.0248635 0.124267355
0.08567952 0.028413074 0.040906724 -0.05839193 0.12127064 -0.055997215 0.06199927 0.085252054
-0.037905436 -0.04905867 -0.04012071 0.039279923 0.10909965 0.046684794 0.13239591 -0.08386474
0.13353829 -0.027199123 0.0050992793 0.09130345 -0.011131243 -0.019603046 0.13383228 0.09193783
-0.055197313 0.00088786834 0.070076466 -0.051864702 -0.12301275 -0.04087993 0.04810328 0.028938372
-0.125556 0.16128294 0.07415733 0.071050145 -0.06798767 -0.051738013 -0.010546663 -0.02415983
0.0509972 0.043746132 0.15389685 0.030761316 -0.03193026 -0.13178399 -0.033089213 -0.15825114
-0.11953263 0.0065299864 -0.07241726 0.04258013 -0.0075728195 -0.10377121 -0.11418252 -0.0155402245
-0.09777892 -0.06616419 0.05103069 -0.15592638 -0.0009453255 0.08946007 0.04876254 0.02969752
0.0070242737 0.049315482 -0.12584116 0.043262713 0.16443847 0.06744454 0.14072202 0.028468495
0.10162784 0.056280922 0.07132041 0.045436334 -0.11325982 -0.050880067 -0.017229829 -0.041145846
0.07314491 -0.04705325 0.033130903 -0.06657 -0.2003801 -0.004585987 -0.035911094 0.10091446
-0.10916509 0.12691599 -0.13910228 -0.08609698 -0.034674708 -0.09823569 -0.05449975 0.017541494
0.056289677 -0.06385765 0.0396821 0.01775709 0.03537155 -0.09432963 -0.018422412 0.062142983
-0.19894756 0.095174305 0.022965124 0.05288701 -0.0061767036 0.06152048 0.069173954 0.048793063
-0.0067761075 0.011203397 0.10757633 -0.022128165 -0.05117612 0.104444474 0.068591855 -0.048774675
0.04760427 0.07224832 -0.098345205 -0.0227131 -0.02870117 0.07197844 -0.13143383 -0.109308265
-0.0076665757 -0.009176086 -0.03106029 -0.091763325 -0.031313043 0.07610284 -0.044234347 0.026724564
-0.025232468 -0.19342229 -0.036339093 -0.027885823 -0.08934426 0.039387573 -0.07765383 -0.029919403
0.0094852345 0.048249815 -0.029274696 0.07062178 0.059852038 0.19280681 -0.01570539 -0.06435543
-0.0045476807 -0.07304765 -0.108105205 0.01180808 -0.014090653 -0.04860881 -0.0921528 0.0030543222
-0.11418905 -0.00305871 -0.094029106 -0.016067032 -0.043028187 -0.079261646 0.0045210784 -0.124781296
-0.050033763 0.042202897 -0.09442623 0.07396932 0.0057707923 -0.08997687 0.13640985 0.118255846
-0.10850322 -0.060356427 -0.03804543 -0.0894655 -0.042951133 -0.112030216 -0.034280967 -0.08022229
-0.09475188 -0.043430645 0.07035565 -0.04658699 -0.09233309 -0.07036054 -0.13377887 -0.028391602
-0.041160494 -0.03219137 0.012831229 -0.10688842 -0.09247911 -0.014246637 -0.013137391 -0.08146466
-0.09490466 0.05637808 -0.015978228 -0.015534063 0.02523915 -0.039313495 -0.03919198 0.02902352
00000000: a04b 123e abb0 a83c 7575 b2bd 4dad f83d
00000010: 1e55 133d 35f9 8ebd d862 08bd 0edf cf3c
00000020: f484 253d 4d5c 40bd 1a57 20bd cb40 6bbd
00000030: 225f 8cbd 79cb a2bc c0eb 8bbc 842c 85bd
00000040: 8b84 5dbd ee5c e3bd 7bd1 203d 00a8 823d
00000050: 9a3b 1d3b 0773 443c f652 183d 9ba7 43bd
00000060: 7c0d 343d 6608 183e 5fad bf3d fdb1 023d
00000070: b60f 7dbd c6b2 0abe 423d 91bd ee8b afbd
00000080: ce5a 8fbd 5336 bf3d b68f 953c 63d7 92bd
00000090: d211 b8bd d2d3 28be c9d5 6ebc f538 223b
000000a0: dadb 1abd f227 4dbd b4bd f33c a643 eabd
000000b0: aa9d 7e3c 000d 2f3d 8aae cb3c e27f fe3d
000000c0: bf78 af3d 89c2 e83c cf8d 273d 602c 6fbd
000000d0: be5c f83d 565d 65bd f2f2 7d3d a198 ae3d
000000e0: bb42 1bbd bef1 48bd 9d55 24bd fce3 203d
000000f0: a36f df3d 8e38 3f3d cb92 073e 47c1 abbd
00000100: 43be 083e b2d0 debc db17 a73b 4efd ba3d
00000110: d15f 36bc 9196 a0bc 540b 093e e749 bc3d
00000120: 9416 62bd d6bf 683a 4084 8f3d 1570 54bd
00000130: 1cee fbbd b771 27bd f207 453d 2a10 ed3c
00000140: c191 00be 5b27 253e ccdf 973d bd82 913d
00000150: 1f3d 8bbd 3deb 53bd e9cb 2cbc d6ea c5bc
00000160: 71e2 503d 252f 333d 2397 1d3e 28ff fb3c
00000170: 4ec9 02bd 62f2 06be 8e88 07bd 960c 22be
00000180: 86cd f4bd 7ff9 d53b 804f 94bd 8168 2e3d
00000190: 6a25 f8bb 0086 d4bd 86d8 e9bd 6d9c 7ebc
000001a0: 5040 c8bd 1781 87bd 8f05 513d 2aab 1fbe
000001b0: b8cf 77ba d736 b73d 3bbb 473d 3748 f33c
000001c0: e12b e63b 08ff 493d 81dc 00be 3e34 313d
000001d0: 8f62 283e 5d20 8a3d 6f19 103e c336 e93c
000001e0: 4222 d03d d386 663d 6f10 923d 731b 3a3d
000001f0: c4f4 e7bd 9e67 50bd 9225 8dbc 8c88 28bd
00000200: 00cd 953d e9ba 40bd 45b4 073d da55 88bd
00000210: 7130 4dbe 0c46 96bb 8317 13bd 3eac ce3d
00000220: f291 dfbd 44f6 013e d470 0ebe 9d53 b0bd
00000230: 1107 0ebd cb2f c9bd 213b 5fbd 2eb3 8f3c
00000240: 0190 663d cdc7 82bd b389 223d 5177 913c
00000250: c2e1 103d e52f c1bd 99ea 96bc a489 7e3d
00000260: e9b8 4bbe bfea c23d 5b21 bc3c 0da0 583d
00000270: f265 cabb e6fc 7b3d 13ab 8d3d 3cdb 473d
00000280: 1c0a debb 748e 373c fb50 dc3d 2046 b5bc
00000290: 0d9e 51bd fce6 d53d e379 8c3d f4c7 47bd
000002a0: b2fc 423d edf6 933d 3669 c9bd d310 babc
000002b0: b71e ebbc 6f69 933d 9796 06be 03dd dfbd
000002c0: e637 fbbb 4b57 16bc 2672 febc 69ee bbbd
000002d0: 1b42 00bd cedb 9b3d 132f 35bd 79ed da3c
000002e0: 52b4 cebc 7e10 46be 4dd8 14bd cf70 e4bc
000002f0: 20fa b6bd dd54 213d f908 9fbd 8919 f5bc
00000300: f567 1b3c 99a1 453d 7dd1 efbc 27a2 903d
00000310: 6927 753d 266f 453e 97a8 80bc c8cc 83bd
00000320: b604 95bb 029a 95bd 4366 ddbd ad76 413c
00000330: 7bdc 66bc 081a 47bd 9bba bcbd 062b 483b
00000340: f3db e9bd a374 48bb 5592 c0bd 029f 83bc
00000350: 533e 30bd ee53 a2bd 8e25 943b 568d ffbd
00000360: 34f0 4cbd f2dc 2c3d 8a62 c1bd 3a7d 973d
00000370: ea18 bd3b cb45 b8bd 06af 0b3e 1f30 f23d
00000380: f036 debd 4d38 77bd 86d5 1bbd b039 b7bd
00000390: 87ed 2fbd 1970 e5bd 336a 0cbd 954b a4bd
000003a0: 460d c2bd 55e4 31bd 9f16 903d 00d2 3ebd
000003b0: 2219 bdbd 3019 90bd 54fd 08be 8195 e8bc
000003c0: e897 28bd 19db 03bd 133a 523c 51e8 dabd
000003d0: b065 bdbd ba6a 69bc 363e 57bc f2d6 a6bd
000003e0: 605d c2bd b4ec 663d c6e4 82bc 9582 7ebc
000003f0: 55c2 ce3c 3007 21bd c587 20bd bcc2 ed3c

backbone.stage1.1.unit2.dconv.bias f4 [64]
0.01999439 0.019994698 0.019994441 0.019993966 0.019994244 0.01999432 0.01999421 0.019994253
0.019994179 0.019994438 0.019994447 0.019994339 0.019994391 0.019994749 0.01999391 0.01999402
0.0199943 0.019994369 0.01999446 0.019994367 0.019994432 0.019994268 0.019994238 0.019993939
0.01999416 0.019994186 0.019993966 0.019993922 0.019993842 0.019994047 0.019994412 0.019993998
0.019994061 0.019994443 0.019994777 0.019994244 0.019994317 0.019994225 0.0199942 0.019994197
0.01999435 0.019994296 0.019994114 0.019993922 0.01999429 0.019994276 0.019994073 0.01999404
0.019994419 0.019994415 0.019994462 0.019994289 0.019994278 0.019994136 0.019993864 0.019994475
0.019993927 0.019994063 0.019993754 0.019994706 0.019994626 0.019994492 0.019994218 0.019993193
00000000: 46cb a33c eccb a33c 62cb a33c 63ca a33c
00000010: f8ca a33c 21cb a33c e6ca a33c fdca a33c
00000020: d5ca a33c 60cb a33c 65cb a33c 2bcb a33c
00000030: 47cb a33c 07cc a33c 45ca a33c 80ca a33c
00000040: 16cb a33c 3bcb a33c 6ccb a33c 3acb a33c
00000050: 5dcb a33c 05cb a33c f5ca a33c 54ca a33c
00000060: cbca a33c d9ca a33c 63ca a33c 4bca a33c
00000070: 20ca a33c 8eca a33c 52cb a33c 74ca a33c
00000080: 96ca a33c 63cb a33c 16cc a33c f8ca a33c
00000090: 1fcb a33c eeca a33c e0ca a33c dfca a33c
000000a0: 31cb a33c 14cb a33c b2ca a33c 4bca a33c
000000b0: 11cb a33c 09cb a33c 9cca a33c 8aca a33c
000000c0: 56cb a33c 54cb a33c 6dcb a33c 10cb a33c
000000d0: 0acb a33c beca a33c 2cca a33c 74cb a33c
000000e0: 4eca a33c 97ca a33c f1c9 a33c f0cb a33c
000000f0: c5cb a33c 7dcb a33c eaca a33c c4c8 a33c

backbone.stage1.1.unit2.bn.weight f4 [64]
1.0110794 0.97765654 0.99058914 1.0332867 1.0239911 0.9775894 1.004869 1.0058835
0.98122424 0.9861171 1.0023811 1.0084147 0.99543345 0.9974786 0.9807312 1.0071849
0.9804672 0.9946488 0.9873374 0.9819917 0.9996542 0.98298067 0.990253 1.0008241
0.9930923 0.99470294 0.99764144 1.0140666 0.9936008 1.0006819 1.001497 0.9990873
1.0091888 1.0397667 1.010934 0.99510354 0.97850037 0.99203455 1.0166733 0.9847828
0.99058056 0.9982024 0.98778635 1.0051618 1.0098879 0.99605936 0.995212 0.9886521
1.0101904 0.98328817 1.0039366 1.0227375 1.0075927 0.9890157 1.005059 1.0001311
1.0259737 1.0139534 1.0063665 0.99329805 1.018076 0.9923078 1.013796 1.000126
00000000: 0d6b 813f b347 7a3f 4097 7d3f bd42 843f
00000010: 2412 833f 4d43 7a3f 8c9f 803f cac0 803f
00000020: 8331 7b3f 2c72 7c3f 064e 803f bc13 813f
00000030: bad4 7e3f c25a 7f3f 3311 7b3f 6feb 803f
00000040: e6ff 7a3f 4ea1 7e3f 25c2 7c3f cf63 7b3f
00000050: 56e9 7f3f 9fa4 7b3f 3881 7d3f 011b 803f
00000060: 4c3b 7e3f daa4 7e3f 6e65 7f3f efcc 813f
00000070: 9f5c 7e3f 5816 803f 0e31 803f 2fc4 7f3f
00000080: 192d 813f 1317 853f 4966 813f 1bbf 7e3f
00000090: 007f 7a3f faf5 7d3f 5a22 823f ba1a 7c3f
000000a0: b096 7d3f 318a 7f3f 91df 7c3f 24a9 803f
000000b0: 0244 813f bffd 7e3f 37c6 7e3f 4e18 7d3f
000000c0: eb4d 813f c6b8 7b3f ff80 803f 10e9 823f
000000d0: ccf8 803f 2230 7d3f c6a5 803f 4c04 803f
000000e0: 1b53 833f 3ac9 813f 9ed0 803f c848 7e3f
000000f0: 5050 823f e207 7e3f 11c4 813f 2104 803f
