weights/epoch_3_state_dict.pt (torch, 728187 bytes, 320 tensors)

backbone.stage0.sconv.weight f4 [16, 3, 3, 3]
0	0x3dfe211b	0.12408658
1	0x3b291a79	0.0025803132
2	0x3c472c1f	0.012156515
3	0x3ddafa7d	0.10692308
4	0xbe81e9f1	-0.25373796
5	0xbc9cfd2d	-0.019163692
6	0xbd76603e	-0.060150377
7	0xbdec45d3	-0.115367554
8	0xbdaf5328	-0.08560783
9	0x3e2fe8c1	0.17178632
10	0x3e63c448	0.22242844
11	0x3e0e7920	0.13913393
12	0x3e5b2dab	0.2140414
13	0x3ddc91f4	0.10770026
14	0x3e260ffe	0.16217038
15	0xbce8a670	-0.028399676
16	0x3bc92629	0.0061385822
17	0xbd3f5a81	-0.04671717
18	0x3d09b18f	0.0336166
19	0x3ea7a7d8	0.32745242
20	0xbb9afd0c	-0.0047298726
21	0x3df5789d	0.11985896
22	0x3dda677f	0.106642716
23	0x3e527fdb	0.20556585
24	0x3e257463	0.1615768
25	0x3d951edb	0.07281276
26	0xbcb5c7c3	-0.02218998
27	0x3f3c2bb3	0.7350418
28	0x3f7c1c1a	0.9848038
29	0x3eab6065	0.3347198
30	0x3ec36253	0.38160953
31	0x3e5f632a	0.21815172
32	0x3d694353	0.05694897
33	0xbe656d70	-0.22405028
34	0xbea7c241	-0.3276539
35	0xbeb3a8bc	-0.35089672
36	0xbdb27c51	-0.08715118
37	0xbe306cc7	-0.17228995
38	0xbe93b978	-0.2885244
39	0xbe9252de	-0.28578848
40	0xbed2051f	-0.41019532
41	0xbede9e14	-0.4347998
42	0xbf236d5c	-0.63838744
43	0xbf74342f	-0.95392126
44	0xbf25a515	-0.6470502
45	0x3ebf1bdb	0.3732594
46	0x3f55c082	0.8349687
47	0x3efad3e3	0.48989782
48	0x3eba5843	0.36395463
49	0x3e8f1a64	0.27949822
50	0x3d942411	0.072334416
51	0xbdb39ab6	-0.08769743
52	0xbe384e41	-0.17998601
53	0xbdee3f0a	-0.116331175
54	0xbd9791d3	-0.07400861
55	0xbe00b857	-0.1257032
56	0xbd2a8c35	-0.041637618
57	0xbe8d00b8	-0.2753961
58	0xbeaa0dca	-0.33213645
59	0x3cde4129	0.02713068
60	0xbeae8c76	-0.34091538
61	0xbe56e8ad	-0.20987196
62	0xbddad383	-0.10684874
63	0x3d992dfb	0.07479473
64	0x3e0779be	0.13230035
65	0x3eb656c3	0.3561307
66	0xbdc96163	-0.09833028
67	0x3d0c2180	0.034211636
68	0x3eb45bb2	0.35226208
69	0xbdf5a196	-0.11993711
70	0x39cf6f53	0.0003956506
71	0x3e4c7bd3	0.1996911
72	0xbe041a62	-0.12900689
73	0xbe06c3c9	-0.13160624
74	0x3e06160a	0.13094345
75	0xbebf9df8	-0.37425208
76	0xbe37f2a0	-0.17963648
77	0x3e36d956	0.17856345
78	0xbe8d9366	-0.2765152
79	0xbe343d22	-0.17601445
80	0x3e45bd17	0.19310413
81	0xbe41bd03	-0.18919758
82	0xbe449afc	-0.19199747
83	0xbee6ebda	-0.45101815
84	0xbe347d01	-0.1762581
85	0xbe20353e	-0.1564531
86	0xbea31d33	-0.31858215
87	0xbe661a90	-0.2247107
88	0xbea4826f	-0.32130763
89	0xbe767a67	-0.2407013
90	0x3e7ddc29	0.24791016
91	0xbd96cad7	-0.073629074
92	0xbd4cc584	-0.049993053
93	0x3c39204e	0.011299206
94	0xbceb132c	-0.028695665
95	0x3bb47cdf	0.00550805
96	0x3e0e89e3	0.13919787
97	0x3c70f4c2	0.014706792
98	0x3c8546e6	0.016269159
99	0x3ec105d5	0.37699762
100	0x3e61bc31	0.22044446
101	0x3d353796	0.044242464
102	0x3e943048	0.28943086
103	0x3e1bb07e	0.15204045
104	0x3e39dbd0	0.18150258
105	0x3e8ce4d9	0.27518347
106	0x3f07cfc8	0.53051424
107	0x3ec531ff	0.38514706
108	0xbe7d274c	-0.24722022
109	0xbddd950b	-0.10819443
110	0xbdb6798a	-0.089099005
111	0xbd96dd3a	-0.07366414
112	0xbc74020b	-0.014893065
113	0xbe846c8d	-0.25864068
114	0x3cf9b688	0.030482545
115	0x3d012fdf	0.031539794
116	0xbe6e3150	-0.23260999
117	0xbe2497e7	-0.16073571
118	0xbdfc6b9b	-0.123252116
119	0xbd06e59c	-0.032933816
120	0x3d6ca1c3	0.057771455
121	0xbe7ce221	-0.24695636
122	0xbe8b6ce7	-0.27231523
123	0xbbcaac8a	-0.006185119
124	0xbd8c8813	-0.068618916
125	0x3defa3dc	0.117011756
126	0xbdc80e26	-0.097683236
127	0xbd223a1b	-0.039606195
128	0x3d926fc7	0.07150226
129	0x3dc48972	0.09596528
130	0x3dc849b6	0.09779684
131	0xbc0a9821	-0.008459122
132	0xbd418a54	-0.04725106
133	0x3b04d392	0.0020267707
134	0xbc20f33d	-0.0098236175
135	0xbec69021	-0.38781837
136	0xbdaf2edc	-0.085538596
137	0xbe17a12f	-0.1480758
138	0xbf06c664	-0.5264647
139	0xbf09f3ad	-0.53887445
140	0xbed61812	-0.4181524
141	0xbef99f41	-0.48754314
142	0xbf04cc7b	-0.5187451
143	0xbf25b853	-0.6473438
144	0x3f13e6d2	0.5777408
145	0x3f302291	0.68802744
146	0x3f30e991	0.69106394
147	0x3f119bb7	0.56878227
148	0x3f12c42a	0.5733057
149	0x3ec02ad4	0.37532675
150	0x3f108765	0.56456596
151	0x3f05b35c	0.52226806
152	0x3d959813	0.073043965
153	0x3d634285	0.05548336
154	0x3dc8931c	0.09793684
155	0x3d830221	0.063968904
156	0x3d1e6775	0.038672883
157	0x3dfbf345	0.12302259
158	0xbdfc9034	-0.12332192
159	0xbca6da74	-0.020367838
160	0xbdcc44df	-0.099740736
161	0xbeb66c57	-0.35629532
162	0x3dc83000	0.0977478
163	0x3dd68051	0.10473693
164	0x3cfa8e26	0.03058536
165	0x3cf3cc32	0.029760454
166	0x3d8737ad	0.06602416
167	0x3dac2bdc	0.08406803
168	0x3de14f43	0.11001446
169	0xbd9610c4	-0.073274165
170	0x3d93e837	0.07222026
171	0xbe21fc96	-0.1581901
172	0xbe5db869	-0.21652378
173	0xbe6b1946	-0.2295886
174	0xbe04803f	-0.12939547
175	0xbe9e8a02	-0.30964667
176	0xbeb26c02	-0.34848028
177	0xbe8b7b39	-0.2724245
178	0xbeca3822	-0.3949595
179	0xbcd5760d	-0.026057268
180	0x3d13a83d	0.036049116
181	0x3e4cfd21	0.20018436
182	0x3d7ae90d	0.06125741
183	0x3e4bb7e9	0.19894375
184	0xbb03620b	-0.0020047452
185	0x3d65f907	0.056145694
186	0x3e03b9cf	0.12863849
187	0x3d4cd08a	0.050003566
188	0x3cd83e70	0.02639696
189	0xbe1ed660	-0.15511465
190	0x3cba9a6b	0.02277871
191	0xbe3d012d	-0.1845748
192	0x3e63fe9c	0.22265095
193	0x3ee2979b	0.4425629
194	0x3e910cd7	0.2833011
195	0x3eeefb76	0.46676224
196	0x3f0d382f	0.55163854
197	0x3e81090b	0.25202212
198	0xbf11f92b	-0.57020825
199	0xbecdaa78	-0.4016912
200	0xbead7aeb	-0.3388284
201	0xbf0108fd	-0.5040434
202	0xbf08ecbe	-0.5348624
203	0xbe62263b	-0.22084896
204	0xbeab7938	-0.3349092
205	0xbea9c9c2	-0.33161741
206	0xbe961c21	-0.29318336
207	0xbe7c1035	-0.24615557
208	0xbe1467a8	-0.14492667
209	0x3e95ec5e	0.29281896
210	0xbd60c95b	-0.054879528
211	0x3c9d1704	0.019176014
212	0x3e3853ed	0.18000765
213	0x3e0bd3ea	0.13655058
214	0x3def1278	0.116734445
215	0x3eac031f	0.3359613
216	0xbe757c70	-0.2397325
217	0xbe7505e2	-0.23928025
218	0xbd9dd813	-0.077072285
219	0xbe355149	-0.17706789
220	0xbe63a21e	-0.22229812
221	0xbe2b8ab8	-0.16752136
222	0xbeb71c2f	-0.3576369
223	0xbe0b5248	-0.13605607
224	0xbe3344b3	-0.17506675
225	0xbe09ab50	-0.13444257
226	0xbe3e3943	-0.18576531
227	0x3e0f7ece	0.14013216
228	0x3c348512	0.011018055
229	0xbbeae242	-0.0071680853
230	0xbccc8594	-0.024966039
231	0xbd669b5c	-0.056300506
232	0xbe13dc7c	-0.14439577
233	0x3d4656c4	0.04842259
234	0x3bf1d175	0.0073797056
235	0xbcd581b9	-0.026062833
236	0x3ea7ed28	0.32798123
237	0x3cc06947	0.0234877
238	0xbc124bd5	-0.008929213
239	0x3c5082c0	0.012726486
240	0xbc8aaf58	-0.016929314
241	0x3e9616d0	0.2931428
242	0x3e7aadb1	0.2448032
243	0x3e78e4a4	0.2430597
244	0x3e5eae94	0.21746284
245	0x3ea64778	0.324764
246	0x3e7dcf58	0.24786127
247	0xbd08c4ba	-0.033390738
248	0x3ddc27f1	0.10749806
249	0xbe87bd2f	-0.26511523
250	0xbd546ac5	-0.051859636
251	0xbe91a582	-0.28446585
252	0x3ee5b6bd	0.4486598
253	0x3e8d9804	0.2765504
254	0x3ec04a7e	0.37556833
255	0x3e25bbde	0.16184947

backbone.stage0.sconv.bias f4 [16]
0	0x3ca3226a	0.01991387
1	0x3ca3224d	0.019913817
2	0x3ca322db	0.019914081
3	0x3ca322a8	0.019913986
4	0x3ca320f9	0.019913184
5	0x3ca31f93	0.019912517
6	0x3ca320a0	0.019913018
7	0x3ca324f7	0.019915087
8	0x3ca32037	0.019912822
9	0x3ca321a9	0.019913511
10	0x3ca31fb2	0.019912574
11	0x3ca31fe7	0.019912673
12	0x3ca320e3	0.019913143
13	0x3ca32231	0.019913765
14	0x3ca31f6a	0.01991244
15	0x3ca32081	0.01991296

backbone.stage0.bn.weight f4 [16]
0	0x3f8734cf	1.0562991
1	0x3f999641	1.1998979
2	0x3f72cbd3	0.9484226
3	0x3f554ee8	0.83323526
4	0x3f5a9577	0.85384315
5	0x3f918c46	1.1370933
6	0x3f83fb07	1.0310982
7	0x3f9df83b	1.2341379
8	0x3f715c70	0.94281673
9	0x3f8524c1	1.0401841
10	0x3f7a10c1	0.97681814
11	0x3f74d4cb	0.95637196
12	0x3f42511b	0.7590501
13	0x3f4ef7ab	0.8084666
14	0x3f5fa663	0.8736326
15	0x3f960aa6	1.1722

backbone.stage0.bn.bias f4 [16]
0	0xbdd4b4bc	-0.10386035
1	0x3f480e26	0.7814659
2	0x3dad975e	0.084761366
3	0x3eb91620	0.36149693
4	0xbe2732cf	-0.16327976
5	0x3f3b5c30	0.7318754
6	0xbe4c8120	-0.19971132
7	0xbcc7e71b	-0.024402192
8	0xbe36a73f	-0.17837237
9	0x3eb563e9	0.35427788
10	0xbec82802	-0.39093024
11	0x3e49dbaa	0.19712701
12	0xbe93fce8	-0.2890389
13	0xbd2fbc55	-0.042904217
14	0xbd1785fa	-0.036993004
15	0xbe38b843	-0.1803904

backbone.stage0.bn.running_mean f4 [16]
0	0xbe8540c6	-0.2602598
1	0x3d9ed1f0	0.07754886
2	0x3d9a15a0	0.07523656
3	0xbe9f53f3	-0.31118736
4	0x3e27d3ad	0.16389342
5	0xbe9573ce	-0.29189914
6	0x3e033d18	0.12816274
7	0x3e7b4439	0.24537744
8	0x3c93161a	0.017954875
9	0x3e33460c	0.1750719
10	0xbeb7c98b	-0.35895953
11	0xbeb1c05b	-0.34717068
12	0x3e2adf47	0.16686736
13	0x3dd02c99	0.10164756
14	0x3dc517fc	0.09623715
15	0xbd09fa72	-0.03368611

backbone.stage0.bn.running_var f4 [16]
0	0x3f77fb1c	0.9686754
1	0x3f2e7e10	0.68161106
2	0x3edf1488	0.43570352
3	0x3f733bac	0.9501293
4	0x3f65fbcf	0.89837354
5	0x3fb00d62	1.3754084
6	0x3ea2cabe	0.31795305
7	0x3f468460	0.7754574
8	0x3f47c5ac	0.78036
9	0x3ee27d38	0.4423616
10	0x3f9ac4d2	1.2091315
11	0x3fda67c2	1.7062914
12	0x3f75b328	0.95976496
13	0x3e39d436	0.18147358
14	0x3f8ab40f	1.08362
15	0x3f7f5a75	0.997474

backbone.stage0.unit.pconv.weight f4 [16, 16, 1, 1]
0	0xbd7f08ec	-0.062264368
1	0xbef9da2c	-0.48799264
2	0xbdc2e7d4	-0.09516874
3	0xbec51975	-0.38495985
4	0xbe04fe86	-0.12987718
5	0xbf114444	-0.5674479
6	0x3e5fe7a9	0.21865715
7	0x3dc0e125	0.09417943
8	0xbbffe421	-0.0078091775
9	0xbea655d5	-0.3248736
10	0xbee89e2a	-0.4543317
11	0xbef4d747	-0.47820494
12	0xbe885644	-0.26628315
13	0xbe10afb9	-0.14129533
14	0xbe68ae3b	-0.22722714
15	0xbe1334cf	-0.14375614
16	0xbe1dcf39	-0.1541108
17	0xbdc5b75a	-0.09654112
18	0xbdce328b	-0.10068234
19	0x3f63df72	0.89012825
20	0x3dbe3b20	0.09288621
21	0x3e9d23d6	0.30691403
22	0x3da4f7ce	0.080550775
23	0xbf1b791d	-0.6073168
24	0x3eb413f8	0.35171485
25	0xbdb46d18	-0.088098705
26	0xbc50f254	-0.012753088
27	0x3f0aa396	0.5415586
28	0xbeaec427	-0.34134027
29	0xbe5c00cb	-0.21484677
30	0xbca53eb8	-0.020171508
31	0x3ec408ae	0.38287872
32	0xbe971250	-0.2950616
33	0x3ebe23ec	0.3713678
34	0xbe1bf136	-0.15228733
35	0xbda56e0e	-0.08077632
36	0xbe8dec03	-0.27719125
37	0xbf0701a9	-0.5273691
38	0x3f23e22a	0.64016974
39	0x3f27cd10	0.65547276
40	0xbe892d94	-0.26792586
41	0xbcc7dcd1	-0.024397286
42	0x3cea6840	0.028614163
43	0x3df36af5	0.11885635
44	0x3d8777f5	0.06614677
45	0x3be8119a	0.0070821764
46	0x3dab311d	0.08358977
47	0x3f143104	0.5788729
48	0x3e9a4f82	0.30138785
49	0x3f05008f	0.5195398
50	0xbe92e657	-0.2869136
51	0x3d9ec758	0.077528656
52	0xbd8a02ac	-0.06738791
53	0xbea00caf	-0.31259677
54	0x3df9dcd5	0.122003235
55	0xbf19dfe0	-0.6010723
56	0xbe3b84de	-0.18312404
57	0x3e1ff439	0.15620507
58	0x3d6b6f9b	0.057479482
59	0xbec9f4dc	-0.39444625
60	0xbdbaeecb	-0.091275774
61	0xbe594d12	-0.21220806
62	0xbe904535	-0.281778
63	0x3ea8a946	0.32941645
64	0x3e51b1c0	0.20477962
65	0x3eac9056	0.3370387
66	0xbcee92bb	-0.0291227
67	0xbeb121c6	-0.3459608
68	0x3e7a038f	0.2441542
69	0xbd902ad4	-0.07039419
70	0xbf0029da	-0.5006386
71	0xbef4e79c	-0.47832954
72	0x3c5a835b	0.013336982
73	0x3dc7466e	0.0973023
74	0x3e1654d1	0.14680792
75	0x3d0128a6	0.031532906
76	0x3e4c0798	0.19924772
77	0xbdafa6bc	-0.08576724
78	0xbea18f06	-0.3155443
79	0x3f466264	0.7749388
80	0xbd9d7b04	-0.07689479
81	0x3f27738a	0.65410674
82	0x3e8aa6c2	0.2708035
83	0xbbcca648	-0.006245408
84	0xbd0d304d	-0.03446989
85	0x3e1aad9b	0.15105288
86	0x3f2bfa2c	0.67178607
87	0x3f325723	0.6966421
88	0x3ef7eb88	0.48421884
89	0xbefaa7cb	-0.4895614
90	0x3db9f1e5	0.09079341
91	0x3e6ef434	0.23335344
92	0x3def773e	0.116926655
93	0x3dd9f600	0.10642624
94	0xbd43246c	-0.047642156
95	0x3e0d31a7	0.13788472
96	0xbebb9fc0	-0.36645317
97	0xbe6b10f1	-0.22955681
98	0x3e2e7100	0.17035294
99	0x3de5bbd4	0.11217466
100	0x3e269ba9	0.16270317
101	0xbe07f859	-0.13278331
102	0x3ed7d9e6	0.4215843
103	0x3e26f878	0.16305721
104	0x3e205b78	0.15659893
105	0xbe82737e	-0.2547874
106	0x3ef3f7ed	0.4765009
107	0xbe0cbb09	-0.13743223
108	0xbd86033f	-0.06543588
109	0xbdd71109	-0.10501296
110	0x3ef67f27	0.48143885
111	0x3e162c04	0.14665228
112	0xbe51f0dd	-0.20502038
113	0xbf2092ce	-0.62724006
114	0xbdb2efbd	-0.08737133
115	0xbea97d47	-0.33103392
116	0xbd14dc95	-0.036343176
117	0xbf1e1b5d	-0.61760503
118	0xbddbea78	-0.10738081
119	0x3ea493c0	0.32143974
120	0xbd675685	-0.056478996
121	0xbedc61fd	-0.4304351
122	0x3ec13b71	0.37740663
123	0x3cb86a59	0.022511648
124	0x3e131892	0.14364842
125	0xbe299304	-0.16559988
126	0xbe18a7ca	-0.14907756
127	0x3e5d80ec	0.21631211
128	0xbdff245d	-0.124581076
129	0xbf63f5a1	-0.89046675
130	0x3e90b6c6	0.28264445
131	0xbe0c3cf6	-0.1369513
132	0x3e95b2c7	0.2923796
133	0xbf00f8cd	-0.5037964
134	0xbdd1e39c	-0.10248491
135	0x3e7a81ba	0.2446355
136	0x3e898da8	0.26865888
137	0xbe400d4f	-0.18755077
138	0xbeab4f5c	-0.33458984
139	0x3de15fb1	0.1100458
140	0x3eafa374	0.34304392
141	0x3d3a58b9	0.04549477
142	0x3da8c26c	0.08240208
143	0xbe79fb8d	-0.24412365
144	0x3f6c1ca9	0.9223123
145	0x3c8989fe	0.016789433
146	0x3e34bae7	0.17649423
147	0xbca99631	-0.0207015
148	0x3da256b1	0.07926691
149	0x3e92184e	0.28534168
150	0x3dbb25c2	0.09138061
151	0x3d7881bd	0.060670603
152	0x3e94aae0	0.29036617
153	0x3ca69da9	0.02033885
154	0xbee66984	-0.45002377
155	0x3e2154bd	0.15754981
156	0x3dec6164	0.11542013
157	0x3cedb20f	0.029015569
158	0x3e61488a	0.22000328
159	0xbed45787	-0.41473028
160	0x3e0faba7	0.14030324
161	0xbed1a13e	-0.4094333
162	0xbad359d4	-0.0016124793
163	0xbec05ac3	-0.37569246
164	0x3e0dbc09	0.13841261
165	0xbe89bd30	-0.2690215
166	0xbe54d729	-0.20785202
167	0x3e7e6f17	0.24847065
168	0x3d961cdd	0.07329724
169	0x3f111c63	0.5668394
170	0xbeea6133	-0.45777282
171	0xbe79ab8c	-0.24381846
172	0xbe93a329	-0.2883542
173	0xbdae5e4a	-0.08514078
174	0xbe033172	-0.1281183
175	0x3f0f99af	0.5609388
176	0xbe8881af	-0.2666144
177	0xbee8c674	-0.45463908
178	0x3dda533c	0.10660407
179	0x3dbe014c	0.09277591
180	0xbdd3aa9c	-0.103352755
181	0x3e357fdf	0.1772456
182	0xbda7ed4e	-0.08199559
183	0xbeb7d110	-0.3590169
184	0x3f0ba13e	0.5454291
185	0x3f2077ea	0.62682974
186	0x3ed26060	0.41089153
187	0xbf71bea4	-0.9443152
188	0xbe6fcddf	-0.23418377
189	0xbd3c2180	-0.045930386
190	0x3eaa54c4	0.33267796
191	0x3c72c32a	0.014817039
192	0xbeaf4319	-0.3423088
193	0xbed52ed6	-0.41637295
194	0xbe384293	-0.17994146
195	0x3e760d9c	0.24028629
196	0x3f5b8261	0.8574582
197	0x3d2f2065	0.042755503
198	0x3e5fec61	0.21867515
199	0x3e33a5ca	0.17543712
200	0x3e9b800c	0.3037113
201	0xbe07cb62	-0.13261178
202	0x3e0419fb	0.12900536
203	0xbdad4e38	-0.08462185
204	0xbc03f71e	-0.008054523
205	0x3e7f1bff	0.24913023
206	0x3adb6e04	0.0016741161
207	0xbf1cf020	-0.613039
208	0x3ed12802	0.40850836
209	0x3e6638a0	0.22482538
210	0xbe7550e5	-0.2395664
211	0xbde54a66	-0.11195831
212	0xbe8a030c	-0.2695545
213	0xbe90e5f7	-0.2830045
214	0x3e5938aa	0.21213022
215	0xbe578fcf	-0.21050952
216	0xbe3d655b	-0.18495695
217	0x3ea4982e	0.32147354
218	0xbe669206	-0.22516641
219	0xbdc962c6	-0.09833293
220	0xbda5fd3a	-0.0810494
221	0xbf04143a	-0.51593363
222	0xbec312b9	-0.38100222
223	0x3de9bfbe	0.11413525
224	0xbe69352d	-0.22774191
225	0x3e976ff0	0.2957759
226	0xbe09a2e2	-0.13441041
227	0xbe43d83e	-0.19125459
228	0xbd72c8f9	-0.059273694
229	0xbecafde6	-0.39646834
230	0x3c7556d4	0.014974315
231	0xbe7ba275	-0.24573691
232	0x3e81c207	0.25343344
233	0xbe930bd9	-0.28719977
234	0xbe3a77bd	-0.18209739
235	0xbe8b4f2e	-0.27208847
236	0xbd95f1c3	-0.07321503
237	0xbebb397a	-0.3656729
238	0xbe8ce44e	-0.27517933
239	0x3e7f7a86	0.24949083
240	0xbf413807	-0.75476116
241	0x3e0c52ab	0.1370341
242	0xbe1f337a	-0.1554698
243	0x3e04cf02	0.12969592
244	0x3eccef5a	0.4002636
245	0xbe7e0398	-0.24806058
246	0xbce6b684	-0.028163202
247	0xbb8144bc	-0.0039449614
248	0xbdea1fc6	-0.114318416
249	0xbc02718a	-0.00796164
250	0xbe9f96de	-0.3116979
251	0xbeafce00	-0.34336853
252	0xbd5c0fe6	-0.0537261
253	0x3e14135a	0.14460507
254	0xbe51c459	-0.20485057
255	0xbe98f49d	-0.29874125

backbone.stage0.unit.pconv.bias f4 [16]
0	0x3d88dc70	0.0668267
1	0x3d17ad0e	0.037030272
2	0x3a845c3e	0.0010098291
3	0x3d7469b6	0.059671126
4	0x3cab2449	0.020891326
5	0xbca07320	-0.019586146
6	0x3cb2da05	0.021832475
7	0x3d254974	0.040353253
8	0xbb994941	-0.004677922
9	0x3caa5bd9	0.02079575
10	0x3d00b0b7	0.03141853
11	0x3c8eeade	0.017445978
12	0xbce5546e	-0.02799436
13	0x3c8cba53	0.01717869
14	0x3ca6f8a0	0.020382226
15	0x3ca086de	0.01959556

backbone.stage0.unit.dconv.weight f4 [16, 1, 3, 3]
0	0x3ebbf0a2	0.36707026
1	0x3f06b4c9	0.52619606
2	0xbb5a6d79	-0.003332941
3	0x3d43b527	0.047780182
4	0x3e3df644	0.18550974
5	0xbdb1edcb	-0.086879335
6	0x3dcc55eb	0.09977325
7	0x3e5baa43	0.21451668
8	0xbdbb7f48	-0.09155136
9	0x3d9b207c	0.07574555
10	0xbeca5d4b	-0.39524302
11	0xbe1a3fdb	-0.15063421
12	0x3e38999b	0.18027346
13	0x3d2d37fe	0.042289726
14	0x3c57676f	0.013147219
15	0x3f1d00df	0.61329454
16	0x3eae2fc0	0.34020805
17	0xbc6f3127	-0.014599121
18	0x3f1053fe	0.5637816
19	0x3ee3329f	0.44374558
20	0x3eaee708	0.34160638
21	0xbd93edf6	-0.07223122
22	0xbebdd62d	-0.37077466
23	0x3d194fdf	0.037429687
24	0xbf70c18d	-0.94045335
25	0xbeea9135	-0.4581391
26	0xbd890705	-0.06690792
27	0x3d65b613	0.056081843
28	0x3e890356	0.26760358
29	0x3e57cd8c	0.21074504
30	0x3ed46c0b	0.4148868
31	0x3ed4b21f	0.41542146
32	0xbda48b7e	-0.080344185
33	0xbec96e65	-0.39342037
34	0xbf27f5f3	-0.65609664
35	0xbe9c142a	-0.30484134
36	0x3e820bd2	0.25399643
37	0x3e40ff08	0.18847287
38	0x3b3fea18	0.0029283818
39	0x3d8f10a4	0.06985596
40	0x3db74e7b	0.08950516
41	0x3e20bb3d	0.15696426
42	0xbdd6f13b	-0.1049523
43	0xbe190e84	-0.14946944
44	0x3d331917	0.0437251
45	0x3ed458c0	0.4147396
46	0x3cb356e9	0.021892028
47	0xbebcf87c	-0.3690833
48	0x3ed7a50a	0.42118102
49	0x3eb77533	0.35831603
50	0xbdd473aa	-0.10373624
51	0x3da584d1	0.08081973
52	0x3e4604be	0.19337747
53	0xbe20df25	-0.15710123
54	0xbee9bf06	-0.45653552
55	0xbe467d05	-0.19383629
56	0x3db61343	0.08890393
57	0xbe18231a	-0.1485714
58	0x3ee286e9	0.44243553
59	0x3e2f86d9	0.17141284
60	0x3e8fa974	0.2805897
61	0x3ebbfe2e	0.3671736
62	0x3c08c11f	0.008346825
63	0xbe33085a	-0.17483655
64	0x3c1e2cd0	0.009654239
65	0x3d8b2589	0.06794269
66	0x3ee2e4d9	0.44315222
67	0x3f08b2c8	0.533978
68	0x3eae74ab	0.34073386
69	0x3d0f7fe1	0.035034064
70	0x3e064651	0.13112761
71	0x3e009264	0.12555844
72	0x3e7ab49c	0.2448296
73	0x3f18b11c	0.5964525
74	0xbcf7a8ab	-0.030231794
75	0x3f2f939b	0.68584603
76	0x3df71bd8	0.12065858
77	0xbecee09f	-0.40405747
78	0x3f0d1524	0.55110383
79	0xbea2fe13	-0.31834468
80	0xbe24750f	-0.1606028
81	0x3e8bef4a	0.27331
82	0x3e2cecbf	0.16887186
83	0xbc7718d7	-0.015081606
84	0x3e183188	0.14862645
85	0x3d353366	0.04423847
86	0x3d7b11e7	0.06129637
87	0x3d52ad89	0.051435027
88	0x3ecf0899	0.40436247
89	0x3e0123e0	0.12611341
90	0x3e787676	0.2426394
91	0xbead2f7d	-0.33825293
92	0xbdda595e	-0.10661577
93	0xbe4df306	-0.20112237
94	0xbd902fd9	-0.07040376
95	0x3e354b17	0.17704426
96	0xbe8a8ed6	-0.270621
97	0x3daa4566	0.08314018
98	0x3ea65d43	0.32493028
99	0x3f311f40	0.6918831
100	0xbe20d6e3	-0.15706973
101	0xbdf14d12	-0.11782278
102	0x3e2605f5	0.1621321
103	0x3ed887fb	0.42291245
104	0xbd01ef51	-0.03172237
105	0xbe383049	-0.1798717
106	0x3d3ac8e3	0.045601737
107	0x3cdc914f	0.026924757
108	0x3f244ceb	0.6417987
109	0x3f591732	0.8480102
110	0x3ebb0038	0.36523604
111	0xbe859494	-0.2608992
112	0x3ca174d2	0.019709025
113	0x3ee761cc	0.451918
114	0xbf1660f0	-0.58741665
115	0xbf2a8eb0	-0.66623974
116	0xbea331f7	-0.31874058
117	0x3ed7de86	0.4216196
118	0x3e9c2226	0.30494803
119	0x3ea3c8c5	0.31989112
120	0x3d1217fc	0.035667405
121	0x3e0f89af	0.14017366
122	0x3e3d7e12	0.18505123
123	0x3ec8880c	0.39166296
124	0x3ea4ca5f	0.32185647
125	0x3e7c2d15	0.24626572
126	0x3e10ac65	0.14128263
127	0x3e7fe3f9	0.24989308
128	0xbe17d31b	-0.14826624
129	0x3e3bd426	0.18342647
130	0x3e41cfa1	0.1892686
131	0x3d421781	0.047385696
132	0x3e3cded0	0.18444371
133	0x3e36f08b	0.17865197
134	0xbd7a0e03	-0.06104852
135	0xbcc82b4f	-0.024434714
136	0x3dee87ef	0.11647021
137	0x3e59fe94	0.2128852
138	0x3d5da0e8	0.05410853
139	0x3e3c9e44	0.18419749
140	0x3e059be6	0.13047752
141	0x3db9b482	0.09067632
142	0x3dd7ecda	0.10543223
143	0xbd359fd1	-0.044341866

backbone.stage0.unit.dconv.bias f4 [16]
0	0x3ca322eb	0.019914111
1	0x3ca32154	0.019913353
2	0x3ca32038	0.019912824
3	0x3ca320ed	0.019913161
4	0x3ca32146	0.019913327
5	0x3ca32123	0.019913262
6	0x3ca320ae	0.019913044
7	0x3ca32144	0.019913323
8	0x3ca32279	0.019913899
9	0x3ca32186	0.019913446
10	0x3ca3219b	0.019913485
11	0x3ca32118	0.019913241
12	0x3ca32208	0.019913688
13	0x3ca3207d	0.019912953
14	0x3ca3231a	0.019914199
15	0x3ca3212d	0.01991328

backbone.stage0.unit.bn.weight f4 [16]
0	0x3f89ef19	1.0776092
1	0x3f52af0c	0.8229835
2	0x3f656ba9	0.896174
3	0x3f6f8280	0.935585
4	0x3f6c4a21	0.9230061
5	0x3f9d2aec	1.2278724
6	0x3f67f699	0.90610653
7	0x3f87c1b3	1.0605987
8	0x3f606133	0.87648314
9	0x3f8d0ec3	1.102013
10	0x3f8f3deb	1.1190771
11	0x3f9271de	1.1441
12	0x3f9091fd	1.1294552
13	0x3f5a3d0e	0.8524941
14	0x3f400171	0.750022
15	0x3f6cf9b9	0.92568547

backbone.stage0.unit.bn.bias f4 [16]
0	0x3e74833e	0.2387819
1	0x3e2151e2	0.15753892
2	0x3f2b8fee	0.67016494
3	0x3df73a2b	0.120716415
4	0xbe350160	-0.17676306
5	0xbf0951c1	-0.5364037
6	0x3dc2c100	0.09509468
7	0x3e1b5d31	0.15172268
8	0x3e8f2bcf	0.2796311
9	0xbdab428c	-0.08362302
10	0x3e5941ba	0.21216479
11	0x3ee4d5d4	0.44694388
12	0x3e826ed4	0.2547518
13	0xbe241914	-0.16025192
14	0x3caab4ca	0.02083816
15	0x3c90bf6b	0.0176694

backbone.stage0.unit.bn.running_mean f4 [16]
0	0xc018538e	-2.3800998
1	0x3f089aa1	0.53360945
2	0xbe1f342f	-0.1554725
3	0x3c8b24aa	0.016985256
4	0x3dd885f7	0.10572427
5	0x3f9e97f6	1.2390125
6	0x3d812ab4	0.06306973
7	0xc009d12e	-2.1533923
8	0xbfc1ca4e	-1.5139863
9	0x3f8c6d9d	1.0970951
10	0x3e1aa81c	0.15103191
11	0xbe20888a	-0.15677086
12	0xbd90d850	-0.07072508
13	0xbf5f5fa0	-0.8725529
14	0xbf4e741b	-0.8064591
15	0xbf1a8bb4	-0.6036942

backbone.stage0.unit.bn.running_var f4 [16]
0	0x3fbc7e78	1.4726095
1	0x3f76f9a6	0.96474683
2	0x3f4f8c5f	0.81073564
3	0x3e9cdea1	0.30638602
4	0x3e76c862	0.24099877
5	0x3fadc033	1.357428
6	0x3e58e938	0.21182716
7	0x3f8d965a	1.1061509
8	0x3ffb1fb4	1.961905
9	0x3ec03a77	0.37544605
10	0x3dd66a3c	0.10469481
11	0x3ee8518a	0.4537471
12	0x3f49fc71	0.7890082
13	0x402cc598	2.6995602
14	0x3ed35229	0.4127362
15	0x3f31f903	0.69520587

backbone.stage1.1.unit1.pconv.weight f4 [16, 16, 1, 1]
0	0x3f26804e	0.6503953
1	0xbea6bc0f	-0.32565352
2	0xbe63aad8	-0.2223314
3	0x3e914e08	0.28379846
4	0xbdbe7102	-0.09298898
5	0xbf183a7a	-0.5946423
6	0xbe586df3	-0.21135692
7	0x3f1f6397	0.6226134
8	0x3ec153f0	0.37759352
9	0xbef8093e	-0.4844455
10	0xbe86e156	-0.26343793
11	0xbeff9c3f	-0.49923894
12	0xbc99f371	-0.01879284
13	0xbe02e362	-0.12782052
14	0x3d23514d	0.039872456
15	0x3e518f2a	0.20464769
16	0xbd0cb51d	-0.03435241
17	0x3e86becc	0.2631744
18	0x3ecc6827	0.39923212
19	0xbf119078	-0.56861067
20	0xbe55976a	-0.20858541
21	0xbdf0f221	-0.117649324
22	0x3de2d7c6	0.11076312
23	0xbf0e00c5	-0.55469924
24	0xbf1b9e16	-0.60788095
25	0x3edee4f0	0.4353404
26	0xbef237a0	-0.47308064
27	0x3d4f9435	0.05067845
28	0xbd7e7f1a	-0.062132932
29	0xbd67c98a	-0.056588687
30	0xbe56fd2a	-0.20995012
31	0x3d74aa4d	0.059732724
32	0xbd960401	-0.073249824
33	0x3f01b1b4	0.5066178
34	0x3d811d17	0.063043766
35	0xbf2a22b3	-0.66459197
36	0xbe91152a	-0.2833646
37	0x3e168cfc	0.14702219
38	0x3db38d2e	0.08767162
39	0xbd56f51b	-0.052479845
40	0x3e908bf2	0.2823177
41	0x3e910e06	0.28331012
42	0x3e1772b7	0.14789854
43	0x3ecde6c9	0.40215138
44	0x3eae1107	0.33997366
45	0xbe5bf3e6	-0.21479759
46	0x3c457c56	0.01205357
47	0xbe71a140	-0.23596668
48	0x3e77711c	0.24164242
49	0xbe5cff96	-0.21581873
50	0xbf0364fb	-0.5132596
51	0x3e07be54	0.13256198
52	0x3defd685	0.11710838
53	0xbf0323cf	-0.51226515
54	0xbeb6cda0	-0.35703754
55	0x3e8ab5c8	0.27091813
56	0xbebfdd35	-0.37473455
57	0xbed40fe4	-0.41418374
58	0xbee0a5a7	-0.43876383
59	0xbf0914ee	-0.5354756
60	0x3efab2a7	0.48964426
61	0x3e8bf6a7	0.27336618
62	0x3e96a804	0.2942506
63	0x3dcfe9b7	0.101519994
64	0x3e4d5802	0.20053104
65	0xbe8d0284	-0.27540982
66	0xbd9b6a81	-0.075886734
67	0xbd947433	-0.07248726
68	0xbe0cfbb3	-0.1376789
69	0xbe85290c	-0.2600788
70	0xbe13f565	-0.1444908
71	0xbdbcda47	-0.092213206
72	0xbdf582c0	-0.11987829
73	0xbe1d2fc8	-0.15350258
74	0xbf1516e1	-0.58238035
75	0xbf192eb9	-0.5983692
76	0xbe5f85e0	-0.21828413
77	0x3ef7c854	0.48395026
78	0x3e3ac5fd	0.18239589
79	0x3e8ef3e9	0.27920464
80	0xbe4a3d5b	-0.19749968
81	0xbddee13a	-0.10882802
82	0xbe1a2e19	-0.15056647
83	0x3e448e3e	0.19194886
84	0x3ededfce	0.43530124
85	0x3e7802b9	0.24219789
86	0x3eb149f0	0.34626722
87	0x3e8d2174	0.27564585
88	0xbd92b2f1	-0.071630366
89	0x3c941509	0.018076437
90	0xbe07715d	-0.13226838
91	0x3cee91a6	0.029122185
92	0x3e5a0854	0.2129224
93	0x3ed3dab3	0.41377792
94	0x3ddc40cb	0.10754546
95	0xbe93d81a	-0.2887581
96	0x3e3ad221	0.1824422
97	0x3e663dcb	0.2248451
98	0x3d3c8ac3	0.04603077
99	0x3e6976ef	0.22799276
100	0x3eefb406	0.46817034
101	0xbdd438d3	-0.10362401
102	0x3e07441f	0.1320958
103	0xbd47cce8	-0.0487794
104	0x3e9a99a3	0.3019534
105	0xbe873dde	-0.26414388
106	0xbe448a93	-0.19193487
107	0x3deb4d2b	0.11489328
108	0xbf27d8ea	-0.6556536
109	0xbf0b152f	-0.543292
110	0xbd545c2f	-0.051845726
111	0xbdb492f8	-0.088170946
112	0xbcde3187	-0.027123226
113	0x3ea01fd2	0.31274277
114	0x3f230d1a	0.63691866
115	0xbbd0e801	-0.0063753133
116	0xbd8cbf59	-0.06872434
117	0xbdcc70b5	-0.09982435
118	0xbf0942e9	-0.5361772
119	0x3e998ac9	0.29988697
120	0xbe0ec13a	-0.13940898
121	0xbeb29f03	-0.3488694
122	0xbe8f9079	-0.2803991
123	0x3e8c8494	0.274449
124	0x3ea6458a	0.3247493
125	0x3e57adec	0.2106244
126	0xbea0de78	-0.3141973
127	0xbd552e33	-0.052046012
128	0xbd937edf	-0.07201933
129	0x3d93f1b0	0.072238326
130	0x3f1c896b	0.61147183
131	0xbe7e6d14	-0.24846298
132	0xbe1f6f5f	-0.15569828
133	0x3f4987b7	0.7872271
134	0xbd02e772	-0.031959005
135	0xbdb1fb31	-0.08690489
136	0xbe5c8fa1	-0.21539165
137	0xbc05c31d	-0.008164194
138	0x3ddb5f4d	0.107115366
139	0x3ef762a2	0.48317438
140	0x3c3df3e1	0.01159379
141	0xbeda8313	-0.42678127
142	0xbe191273	-0.14948444
143	0x3de651b7	0.112460546
144	0xbf28a53b	-0.6587712
145	0xbddb0dbe	-0.106959805
146	0x3f03d41d	0.51495534
147	0x3ea160f2	0.31519276
148	0xbc9e097c	-0.019291632
149	0xba9513dc	-0.0011373716
150	0x3f109fe5	0.5649398
151	0xbe57fe4a	-0.21093097
152	0x3e5a13b3	0.21296577
153	0x3e294e21	0.1653371
154	0x3e8f85e1	0.2803183
155	0xbe1ac79b	-0.15115206
156	0xbebdd3b7	-0.37075588
157	0x3e4676b5	0.1938122
158	0xbe16ac23	-0.14714102
159	0xbddcf129	-0.10788185
160	0xbe206d11	-0.15666606
161	0x3da3117f	0.079623215
162	0x3e9d0d0c	0.30674016
163	0xbe3f21e8	-0.18665278
164	0xbc8bf0d0	-0.017082602
165	0x3e90a708	0.28252435
166	0xbe45ca6d	-0.193155
167	0x3e9327a8	0.28741193
168	0x3f3a3c71	0.72748476
169	0x3d5e4f44	0.054274812
170	0x3e0af9c1	0.13571836
171	0x3efe3a74	0.4965397
172	0x3f2450e9	0.6418596
173	0xbf0a62fe	-0.540573
174	0xbd8ca44a	-0.06867273
175	0xbf1d75dd	-0.6150797
176	0x3c84642f	0.016161053
177	0x3cfce728	0.030871943
178	0x3d0860f1	0.033295576
179	0x3ea6b75b	0.32561764
180	0x3e8f1a72	0.27949864
181	0xbe9865f6	-0.2976529
182	0xbde1e386	-0.11029725
183	0xbd0ff7a1	-0.035148267
184	0xbf045983	-0.51699084
185	0xbe80511f	-0.2506189
186	0x3d304d49	0.043042455
187	0xbeac70e0	-0.33679867
188	0x3e85095d	0.25983706
189	0x3eb23f52	0.34813935
190	0x3f028baf	0.5099439
191	0xbda899b1	-0.08232439
192	0xbf1b201e	-0.6059588
193	0xbe36e3b3	-0.17860298
194	0xbd8b9347	-0.068152
195	0x3dae0c9b	0.08498498
196	0x3e900d24	0.28135026
197	0x3df31b98	0.118704975
198	0x3e1c0607	0.15236674
199	0x3d0df554	0.03465779
200	0xbeb3c499	-0.3511093
201	0x3ea836e6	0.32854384
202	0xbe6d54f8	-0.23176944
203	0x3ead0b86	0.33797854
204	0x3f3b26a4	0.73105836
205	0xbdb949e9	-0.090473
206	0x3e1ec70e	0.15505621
207	0x3eb0dd37	0.34543774
208	0x3e6cdeff	0.23131941
209	0x3dd9a621	0.1062739
210	0x3e90c576	0.2827565
211	0xbe0c372a	-0.13692918
212	0x3e9c3732	0.3051086
213	0x3f05bd84	0.522423
214	0xbf0ad767	-0.5423493
215	0xbe1ce706	-0.15322503
216	0xbe0a1710	-0.1348536
217	0x3f086330	0.5327635
218	0x3e8bb484	0.2728616
219	0xbe04a98d	-0.12955303
220	0x3dbd842d	0.09253726
221	0x3e3f701a	0.18695107
222	0x3e94ed4b	0.2908729
223	0xbe89b77b	-0.26897797
224	0xbe9fa02b	-0.31176886
225	0x3ca898b6	0.02058063
226	0xbf142246	-0.578648
227	0x3e84cf35	0.25939336
228	0xbd0a6b8a	-0.033793963
229	0xbf06287e	-0.52405536
230	0x3e9d6120	0.30738163
231	0xbd47f7de	-0.04882037
232	0xbcfd2990	-0.030903608
233	0xbe76508f	-0.24054168
234	0x3e24c33c	0.16090101
235	0x3e982b01	0.2972031
236	0x3ebde772	0.3709064
237	0xbcd046c4	-0.025424369
238	0x3dc1df20	0.09466386
239	0x3e58c06f	0.21167158
240	0x3ed0bea0	0.40770435
241	0x3da758d9	0.08171243
242	0xbd5e17bd	-0.054221857
243	0x3de1e026	0.11029081
244	0xbdee8280	-0.11645985
245	0xbc292eb4	-0.010326076
246	0x3e3cd754	0.18441516
247	0x3ec4adaa	0.38413745
248	0xbceb66aa	-0.028735477
249	0x3e0835e7	0.13301812
250	0x3f219ff2	0.6313468
251	0xbe11f3b9	-0.14253129
252	0x3d9248d5	0.07142798
253	0xbdf758ae	-0.12077461
254	0xbe38f102	-0.18060687
255	0x3e82f475	0.2557713

backbone.stage1.1.unit1.pconv.bias f4 [16]
0	0x3c90f718	0.017695948
1	0x3cb13f39	0.021636592
2	0xbc99d135	-0.018776515
3	0x3d055e07	0.032560375
4	0x3d57600a	0.052581824
5	0x3b6454e5	0.003484064
6	0x3cda3004	0.026634224
7	0x3c8e2ad9	0.017354416
8	0x3cd7d274	0.026345469
9	0x3ca9415a	0.020661045
10	0x3c0c5cc7	0.008567042
11	0x3d403a89	0.046930823
12	0x3c6c741a	0.014431978
13	0x3cc52fe0	0.02407068
14	0x3c66a708	0.014077909
15	0x3bcb459b	0.006203366

backbone.stage1.1.unit1.dconv.weight f4 [16, 1, 3, 3]
0	0xbe84d588	-0.2594416
1	0x3f041501	0.5159455
2	0x3ea7e4db	0.3279179
3	0xbebcae7d	-0.36851874
4	0x3eee7af7	0.4657819
5	0x3e3cae55	0.18425877
6	0xbe4d5353	-0.20051317
7	0x3df8c4c7	0.12146907
8	0xbebb9ba4	-0.36642182
9	0xbe2af944	-0.1669665
10	0xbf19652b	-0.59919995
11	0xbd087a62	-0.03331984
12	0x3e7c4449	0.24635424
13	0x3d8fe32d	0.07025752
14	0x3c113971	0.008863793
15	0x3e43c554	0.19118243
16	0xbe649546	-0.22322568
17	0xbe190f83	-0.14947324
18	0x3d92d4c1	0.07169486
19	0xbf0dd4a2	-0.55402577
20	0xbeac6917	-0.33673927
21	0x3dbe2460	0.09284282
22	0xbe0cc309	-0.13746275
23	0xbddb0ce3	-0.10695817
24	0x3e1aac91	0.15104891
25	0xbd0564d3	-0.032566857
26	0xbd22ae0d	-0.03971677
27	0x3efac9ea	0.48982173
28	0x3c9be75f	0.019031225
29	0xbeacf281	-0.33778766
30	0x3f039303	0.513962
31	0x3ebee263	0.37282094
32	0xbe047960	-0.12936926
33	0x3e61c6fe	0.22048566
34	0x3cc702f5	0.024293402
35	0xbd3d33d7	-0.046192016
36	0xbdf98eca	-0.12185438
37	0x3c6cb03d	0.014446315
38	0x3f030239	0.51175267
39	0xbe9adf59	-0.30248526
40	0xbea880b0	-0.3291068
41	0x3d937add	0.07201169
42	0xbea658ec	-0.32489717
43	0xbe81a04c	-0.2531761
44	0x3e5a9549	0.2134601
45	0xbeef4150	-0.46729517
46	0xbe4a1d54	-0.1973775
47	0xbe98a8bb	-0.2981623
48	0x3ce1c817	0.02756123
49	0x3e75a29a	0.23987809
50	0xbe01eb03	-0.12687306
51	0x3e5f7346	0.21821317
52	0x3ebd7eba	0.37010747
53	0x3ea6047a	0.3242529
54	0x3ce1dad1	0.02757016
55	0x3e2ef41c	0.17085308
56	0x3d31d25c	0.043413505
57	0xbe92951b	-0.28629383
58	0x3d5c59ad	0.05379646
59	0xbc56ee69	-0.013118365
60	0xbdf85faa	-0.121276215
61	0xbef1bb1e	-0.47213072
62	0x3d833327	0.06406241
63	0xbd90b612	-0.07065977
64	0x3f00f3f8	0.50372267
65	0x3e50c5c5	0.20387943
66	0x3cd27a70	0.025693148
67	0x3e95f0bb	0.29285225
68	0x3eab3f4f	0.33446738
69	0xbe27c77e	-0.16384694
70	0xbe744bca	-0.23857036
71	0xbdce56b4	-0.10075131
72	0xbe76f408	-0.24116528
73	0x3e01f275	0.12690146
74	0xbd10bf0e	-0.035338454
75	0xbec51ebf	-0.3850002
76	0x3cbe2ca7	0.023214651
77	0xbe5cecfb	-0.21574776
78	0xbeb20347	-0.34768125
79	0xbeaa5425	-0.33267322
80	0xbcf0d9dc	-0.029400758
81	0x3e2e8c72	0.17045763
82	0x3eec3b87	0.46139166
83	0xbe9959f5	-0.29951444
84	0x3eb774f5	0.3583142
85	0x3df672eb	0.120336376
86	0xb6a2de64	-4.853866e-06
87	0x3dcf3981	0.1011839
88	0xbf1010d9	-0.5627571
89	0xbf2576d7	-0.6463446
90	0xbe182dbe	-0.148612
91	0xbec1a4c6	-0.37821025
92	0x3cfd74f4	0.030939557
93	0xbf130728	-0.57432795
94	0xbe9263c6	-0.28591746
95	0x3f0cd32e	0.55009735
96	0x3e0d1824	0.1377874
97	0x3ef8d644	0.48600972
98	0xbcd5ab32	-0.026082609
99	0x3e37a02c	0.17932194
100	0x3e511120	0.20416689
101	0xbf14226b	-0.5786502
102	0x3e8f8a0c	0.2803501
103	0x3ef8d156	0.4859721
104	0xbed64443	-0.41848955
105	0x3e778a7e	0.24173924
106	0x3ea3e8c0	0.32013512
107	0xbe2d3740	-0.16915607
108	0xbda52824	-0.08064297
109	0xbe8f8331	-0.2802978
110	0x3d1d5eca	0.038420476
111	0xbe204f6b	-0.15655296
112	0xbf2705ab	-0.65243024
113	0x3e3dd0ed	0.1853673
114	0xbbc6e1b3	-0.006069386
115	0xbd7da91c	-0.061928853
116	0x3ca8b27c	0.02059292
117	0x3c819a9e	0.015820798
118	0xbddbac52	-0.10726227
119	0xbca9dbf1	-0.020734759
120	0x3b697eae	0.0035628485
121	0xbea47635	-0.32121435
122	0xbdf83c0a	-0.121208265
123	0x3e321786	0.17391786
124	0xbe28964d	-0.16463585
125	0xbda23890	-0.07920945
126	0x3e573bea	0.21018949
127	0x3e216ee5	0.15764959
128	0x3dadbb2d	0.084829666
129	0xbe624ac8	-0.2209884
130	0xbeca177a	-0.39471036
131	0x3d4ca4c3	0.049961817
132	0xbe92e65c	-0.28691375
133	0xbe25d01c	-0.16192669
134	0x3af32e24	0.001855318
135	0xbe99d034	-0.3004166
136	0xbe04690b	-0.12930696
137	0x3e8efdd0	0.2792802
138	0xbf05e999	-0.52309567
139	0x3e1832c5	0.14863117
140	0x3e81a922	0.2532435
141	0xbea96935	-0.3308808
142	0x3e1cc5bf	0.15309809
143	0xbe865b0f	-0.26241347

backbone.stage1.1.unit1.dconv.bias f4 [16]
0	0x3ca3211d	0.01991325
1	0x3ca32055	0.019912878
2	0x3ca32157	0.019913359
3	0x3ca320b8	0.019913062
4	0x3ca32161	0.019913377
5	0x3ca3217e	0.019913431
6	0x3ca320f9	0.019913184
7	0x3ca321df	0.019913612
8	0x3ca320f9	0.019913184
9	0x3ca321d8	0.019913599
10	0x3ca320eb	0.019913157
11	0x3ca32042	0.019912843
12	0x3ca321a5	0.019913504
13	0x3ca3212f	0.019913284
14	0x3ca3206d	0.019912923
15	0x3ca32139	0.019913303

backbone.stage1.1.unit1.bn.weight f4 [16]
0	0x3f84a762	1.0363581
1	0x3f23d35a	0.6399437
2	0x3f95c94e	1.1702058
3	0x3f86dc10	1.0535908
4	0x3f69d58b	0.91341466
5	0x3f87a40b	1.0596937
6	0x3f71b5c1	0.9441796
7	0x3f7e1a68	0.9925904
8	0x3f837f37	1.0273198
9	0x3f866503	1.0499576
10	0x3f6b57fd	0.91931134
11	0x3f4322ea	0.7622515
12	0x3f678bec	0.9044788
13	0x3f73de67	0.95261234
14	0x3f8ba2b2	1.0909026
15	0x3f6a8fc3	0.9162561

backbone.stage1.1.unit1.bn.bias f4 [16]
0	0x3f1c37dd	0.6102274
1	0xbc300364	-0.010742996
2	0x3ec33b56	0.38131207
3	0x3e69c17a	0.22827712
4	0x3dc838ca	0.09776457
5	0x3e57904d	0.2105114
6	0x3cf0827a	0.029359091
7	0x3e846881	0.2586098
8	0x3de38d71	0.11110962
9	0x3f2ac205	0.667023
10	0x3f0d08ad	0.55091363
11	0x3e9901a3	0.2988406
12	0x3e519c81	0.20469858
13	0x3d27ce42	0.040968187
14	0xbab9a00e	-0.001416208
15	0xbd4e7e03	-0.050413143

backbone.stage1.1.unit1.bn.running_mean f4 [16]
0	0xbdf8ad5b	-0.1214244
1	0x3f1c76b7	0.61118644
2	0xbf2c71cf	-0.6736116
3	0xbf89afc6	-1.0756767
4	0x3f49eb75	0.78874904
5	0x3da3ddf5	0.08001319
6	0x3daf20e4	0.08551195
7	0x3eed1785	0.46307006
8	0xbf8a3d9f	-1.0800055
9	0xbd77b485	-0.06047489
10	0xbe78d3c6	-0.24299535
11	0xbd22c377	-0.03973719
12	0xbef2f1c6	-0.47450083
13	0xbed93a60	-0.4242735
14	0xbba6d422	-0.005091206
15	0xbf48eaa9	-0.78483063

backbone.stage1.1.unit1.bn.running_var f4 [16]
0	0x3f7a7fa8	0.9785104
1	0x3f1f020a	0.62112486
2	0x3f607b74	0.87688375
3	0x400df887	2.218294
4	0x3f3ba550	0.7329912
5	0x3e51a482	0.20472911
6	0x3e4b0df3	0.1982954
7	0x3f411701	0.75425726
8	0x3fb03a5e	1.3767812
9	0x3f76c196	0.9638914
10	0x3f7982e8	0.9746537
11	0x3f129a04	0.5726626
12	0x3efee4af	0.49783847
13	0x3e7b49ed	0.24539919
14	0x3e8d7940	0.2763157
15	0x3ee6fef7	0.45116398

backbone.stage1.1.unit2.pconv.weight f4 [64, 16, 1, 1]
0	0x3d864cc5	0.065576114
1	0xbd934ef5	-0.07192794
2	0x3cb781ef	0.022400824
3	0xbe7f6699	-0.24941482
4	0xbe1987b4	-0.14993173
5	0x3d6eb2b0	0.05827588
6	0xbe8be628	-0.27324033
7	0x3e6ee579	0.23329724
8	0x3ebef0ab	0.3729299
9	0x3dc586ab	0.096448265
10	0x3e00c440	0.12574863
11	0xbdcc6c3a	-0.0998158
12	0xbeaef6d6	-0.34172696
13	0xbe2a9fbe	-0.166625
14	0x3d574f92	0.05256612
15	0xbe0ab305	-0.13544853
16	0xbdf7b38c	-0.12094793
17	0x3dd66eb4	0.10470334
18	0x3d628b0a	0.05530838
19	0x3daab9ba	0.08336206
20	0x3e89bdbc	0.26902568
21	0x3d38b787	0.0450969
22	0x3e08db3b	0.1336488
23	0x3e7e28c3	0.24820237
24	0xbd88a2f9	-0.066717096
25	0xbea7eb53	-0.32796726
26	0xbda7d401	-0.081947334
27	0xbd9c15c8	-0.07621342
28	0x3db48a03	0.08815386
29	0xbeac616c	-0.33668077
30	0x3da88ad1	0.08229602
31	0xbea3d651	-0.31999448
32	0xbe054619	-0.13015021
33	0xbbafddd4	-0.00536702
34	0x3ec7f3b1	0.3905311
35	0x3ef1e27f	0.47243115
36	0xbd930cd6	-0.07180183
37	0x3e29ca84	0.1658116
38	0x3deaf5aa	0.11472638
39	0x3e40bf81	0.18823053
40	0x3e1bec71	0.15226914
41	0x3e8f7e7d	0.2802619
42	0x3d36732d	0.044543434
43	0xbe1b8305	-0.15186699
44	0xbd4dddd6	-0.050260387
45	0x3eb60e7f	0.35557935
46	0xbda7c8f9	-0.08192629
47	0xbdb709c7	-0.08937412
48	0x3e4fe49f	0.20302056
49	0x3e13ac2e	0.1442115
50	0x3e907662	0.2821532
51	0x392b26ab	0.00016322236
52	0x3db05b3f	0.08611154
53	0xbd87a2cf	-0.0662285
54	0xbdc32830	-0.095291495
55	0xbe9b54b9	-0.30338076
56	0x3d04b6d7	0.032400932
57	0x3e04a727	0.12954389
58	0x3d157481	0.03648806
59	0xbe95d410	-0.29263353
60	0xbe2b5a46	-0.16733655
61	0x3e12ac3d	0.14323516
62	0xbe0d5ad8	-0.13804185
63	0xbd600250	-0.054689705
64	0x3ec5d302	0.3863755
65	0xbe141128	-0.1445967
66	0xbedc9eb4	-0.4308983
67	0xbea8766d	-0.32902852
68	0xbdbbe431	-0.091743834
69	0x3ddebcb5	0.10875837
70	0xbe57e9b6	-0.21085247
71	0xbde7d7d5	-0.113204636
72	0x3e3aa5cd	0.1822731
73	0xbd89de64	-0.06731871
74	0xbd148a77	-0.036264863
75	0x3e21b295	0.1579078
76	0x3ea7aee1	0.3275061
77	0x3d5aa4fc	0.053379998
78	0x3e46e822	0.19424489
79	0xbe6799a2	-0.226172
80	0xbe08c8d1	-0.13357855
81	0x3edab694	0.4271742
82	0xbd7043d8	-0.05865845
83	0xbe55a638	-0.20864189
84	0x3dbf1242	0.09329654
85	0xbd669069	-0.056290064
86	0xbd2328f3	-0.039833974
87	0xbe2879f8	-0.16452777
88	0x3dc903c1	0.09815169
89	0x3e6a840a	0.22901931
90	0x3e0cca26	0.13748989
91	0xbe20e527	-0.15712415
92	0x3bde9968	0.00679319
93	0xbd13d1ab	-0.036088627
94	0xbe35e7eb	-0.17764251
95	0x3e32b62e	0.17452309
96	0xbe94bae7	-0.29048845
97	0xbe5286bb	-0.20559208
98	0x3d0e02ed	0.03467076
99	0x3d842155	0.0645167
100	0xbe5c63af	-0.21522401
101	0x3e3c27a9	0.18374504
102	0x3e158dae	0.14604828
103	0xbdf221ee	-0.11822878
104	0x3de5db7f	0.11223506
105	0x3e8be612	0.27323967
106	0x3da092ae	0.07840477
107	0x3e0fa24e	0.14026758
108	0xbe6cab5d	-0.23112245
109	0x3cbc82a2	0.02301151
110	0xbdc4ffcf	-0.09619104
111	0xbe81ec0a	-0.25375396
112	0xbe91689f	-0.28400132
113	0xbe343f68	-0.17602313
114	0xbe341c83	-0.17589001
115	0x3e47703d	0.1947641
116	0x3d0cf246	0.034410737
117	0xbe333584	-0.17500883
118	0x3e409ee1	0.18810607
119	0xbd37a3b3	-0.04483385
120	0x3ddbcd3c	0.10732505
121	0x3e202954	0.15640765
122	0x3cf9604d	0.030441428
123	0x3d3fb6ed	0.04680531
124	0xbe019f74	-0.12658483
125	0x3e269c0e	0.16270468
126	0x3e640587	0.22267734
127	0x3e6bba49	0.23020281
128	0xbe032a66	-0.12809142
129	0xbe9ebc1f	-0.310029
130	0x3e86fbdf	0.26364037
131	0x3e3a6f70	0.18206573
132	0x3d5b87f2	0.053596444
133	0xbdeab2c2	-0.114598766
134	0xbd49d564	-0.04927577
135	0xbec089e0	-0.3760519
136	0x3c4f8721	0.012666495
137	0x3e52267f	0.20522498
138	0x3da9d2ab	0.08292135
139	0x3e213bbb	0.15745442
140	0x3d878335	0.06616823
141	0xbde4000b	-0.11132821
142	0x3b352d10	0.0027645268
143	0xbe214537	-0.1574906
144	0xbe542512	-0.20717266
145	0x3e20361f	0.15645646
146	0x3df38e0b	0.11892327
147	0x3c7e9d5e	0.015540449
148	0x3e9f4fd2	0.31115586
149	0x3e8a2e5c	0.26988494
150	0x3e33bf05	0.17553337
151	0xb9c7d181	-0.0003811233
152	0xbda44e66	-0.08022766
153	0xbeaee00b	-0.34155306
154	0xbd73e2ce	-0.05954247
155	0x3e0a89d2	0.13529137
156	0xbc15c1fb	-0.009140487
157	0xbd04b2fb	-0.03239725
158	0xbe07e4c9	-0.13270868
159	0xbba21c6c	-0.004947236
160	0x3d3cd801	0.046104435
161	0xbea1a9ee	-0.3157496
162	0x3c9ba1eb	0.018998107
163	0x3c2028c0	0.009775341
164	0x3d2fe6a0	0.04294455
165	0xbe889651	-0.26677182
166	0xbd2cc374	-0.042178586
167	0x3e7722a6	0.24134311
168	0xbdcf673c	-0.10127112
169	0xbdd921ad	-0.10602126
170	0x3cec446f	0.028841225
171	0xbe1f164c	-0.1553585
172	0xbdcdd734	-0.10050812
173	0x3e8c63ad	0.27419797
174	0xbdd35b30	-0.10320127
175	0xbd520bf1	-0.05128092
176	0xbea8c5ce	-0.32963413
177	0x3df01ec6	0.117246196
178	0x3ebcc07b	0.368656
179	0xbdfe3189	-0.12411792
180	0x3e57d1f0	0.21076179
181	0x3e5cc21d	0.21558423
182	0x3e8ea454	0.27859747
183	0xbd70bf8c	-0.058776423
184	0xbe95f025	-0.29284778
185	0x3e3cc47e	0.18434331
186	0x3db5bed4	0.08874288
187	0xbecf03a4	-0.40432465
188	0x3e43890e	0.19095251
189	0x3e341d31	0.1758926
190	0x3e50972f	0.20370172
191	0x3c6a8a32	0.014315175
192	0x3e0890df	0.13336514
193	0x3e722e7e	0.23650548
194	0xbd953fc0	-0.0728755
195	0x3ed2aecc	0.41148984
196	0xbea6ee75	-0.32603803
197	0x3e33017c	0.17481035
198	0x3d992faa	0.07479794
199	0xbe893f27	-0.26805994
200	0x3d7822a2	0.060579903
201	0x3e845477	0.25845692
202	0xbdd1814b	-0.10229739
203	0xbb9095d5	-0.0044123926
204	0xbe71e9d2	-0.23624352
205	0x3ddfe788	0.10932833
206	0xbd6d61f2	-0.057954736
207	0x3d4271b6	0.047471724
208	0xbeadad77	-0.33921406
209	0x3c27712d	0.010219854
210	0xbe7c9f7f	-0.24670218
211	0xbdd0975e	-0.10185121
212	0x3d90e5f3	0.07075109
213	0xbd428600	-0.047491074
214	0xbdaf9243	-0.08572819
215	0xbd5f106b	-0.054459017
216	0xbdaffe07	-0.08593374
217	0xbcf8353b	-0.03029882
218	0xbec569e5	-0.38557354
219	0xbeaa258d	-0.33231774
220	0x3e9574d0	0.29190683
221	0x3e9c722a	0.3055585
222	0x3e167a74	0.1469515
223	0x3deb14c7	0.11478572
224	0xbe64fc25	-0.2236181
225	0xbd8dfa3b	-0.06932493
226	0xbf0e474e	-0.5557755
227	0xbdd26058	-0.10272282
228	0x3c8246f0	0.015902966
229	0x3e8bf328	0.2733395
230	0x3d326565	0.04355373
231	0x3cdf9ffa	0.027297962
232	0xbe0d4c04	-0.13798529
233	0xbe4f6239	-0.20252313
234	0xbe2878c3	-0.16452317
235	0x3dad9615	0.084758915
236	0x3e405a4b	0.18784444
237	0xbddb5cb1	-0.10711039
238	0xbe615f14	-0.22008926
239	0xbd314dff	-0.043287273
240	0x3e0f702c	0.14007634
241	0xbd46cc23	-0.048534524
242	0xbdb1a952	-0.086748734
243	0x3cebe7b9	0.028797017
244	0x3d94b966	0.072619244
245	0xbe82d5e1	-0.25553802
246	0x3cf34b8d	0.029699111
247	0xbe154aab	-0.14579265
248	0x3dbad8be	0.091233715
249	0x3d1d6106	0.038422607
250	0xbceebfbd	-0.029144162
251	0x3cabd4be	0.020975467
252	0x3e20d939	0.15707864
253	0x3d769da3	0.060208928
254	0xbc7ef760	-0.0155619085
255	0x3eb16388	0.3464625

backbone.stage1.1.unit2.pconv.bias f4 [64]
0	0x3c9ebde7	0.019377662
1	0x3cf65ef0	0.030074567
2	0x3ca3edd0	0.020010859
3	0x3c8e99b3	0.017407274
4	0x3c77a47c	0.0151149
5	0x3cd1610a	0.025558967
6	0x3ca74288	0.020417467
7	0x3c688621	0.014192135
8	0x3ca5a31b	0.020219376
9	0x3c888f6d	0.016669953
10	0x3ca140bb	0.019684186
11	0x3d17bc1b	0.037044626
12	0x3cab91af	0.02094349
13	0x3cced6a2	0.02524883
14	0x3cb4e3d9	0.022081302
15	0x3cb84d5c	0.022497825
16	0x3c8d92a3	0.017281836
17	0x3cd44597	0.02591209
18	0x3c9edcf4	0.019392468
19	0x3ca525ae	0.020159569
20	0x3c968dc4	0.018378146
21	0x3d0cf3b6	0.03441211
22	0x3c98c2bc	0.018647544
23	0x3c39c510	0.011338487
24	0x3c9f4925	0.019444058
25	0x3cb31389	0.021859901
26	0x3ca6aa5a	0.020344902
27	0x3d06fdbd	0.032956827
28	0x3d05bc8c	0.032650515
29	0x3c7de68d	0.015496862
30	0x3cb4a2ce	0.022050288
31	0x3c3be4be	0.011468111
32	0x3cd562c4	0.026048072
33	0x3c8ec23e	0.017426606
34	0x3ca50af1	0.020146819
35	0x3b600f18	0.0034188684
36	0x3cb1fce4	0.021727033
37	0x3cdce5aa	0.026964981
38	0x3c704a12	0.014666097
39	0x3ccee388	0.02525498
40	0x3c4a3319	0.012341284
41	0x3c8478f1	0.01617095
42	0x3cde3d13	0.027128732
43	0x3cae0c7a	0.021246184
44	0x3cafdeab	0.021468481
45	0x3ca46e0e	0.02007201
46	0x3cbbc517	0.022921128
47	0x3ce792bc	0.02826821
48	0x3cdfa463	0.027300065
49	0x3cb2dbc4	0.021833308
50	0x3ccac99d	0.02475434
51	0x3c53982d	0.0129146995
52	0x3cc547d7	0.024082107
53	0x3c3c85b3	0.011506486
54	0x3caafd88	0.020872846
55	0x3cdc895b	0.026920965
56	0x3cb3f71b	0.021968415
57	0x3c872993	0.016499316
58	0x3c1bb58d	0.009503734
59	0x3d026664	0.03183593
60	0x3c9c8eb0	0.019111007
61	0x3c0097b1	0.007848666
62	0x3cb73f18	0.022368953
63	0x3cc2549f	0.023721991

backbone.stage1.1.unit2.dconv.weight f4 [64, 1, 3, 3]
0	0x3e2a3f3c	0.16625684
1	0xbe29a511	-0.16566874
2	0xbe746d8f	-0.23869918
3	0x3e290063	0.16504054
4	0x3dbe7025	0.092987336
5	0xbe1cfb07	-0.15330134
6	0x3e1ea4d0	0.15492558
7	0x3e8faedc	0.28063095
8	0xbd808e91	-0.062771924
9	0x3d00cc9b	0.031445127
10	0xbe804a91	-0.2505689
11	0x3bdd28da	0.0067492547
12	0xbe1bcf90	-0.15215898
13	0xbe51eb98	-0.20500028
14	0x3dd1bcde	0.10241102
15	0xbdb85a58	-0.09001607
16	0x3d6eade4	0.058271304
17	0xbc41ea08	-0.011835583
18	0xbd49ffb0	-0.04931611
19	0x3e5bbc02	0.21458438
20	0x3df5b98c	0.11998281
21	0xbe04e58d	-0.12978192
22	0x3e597be5	0.21238668
23	0x3d90695e	0.07051347
24	0xbdb6fd93	-0.08935084
25	0xbe93143b	-0.28726372
26	0xbc9f5cd4	-0.019453444
27	0xbeafda4f	-0.34346244
28	0xbd917d17	-0.07103937
29	0x3d905651	0.070477135
30	0xbe8905cf	-0.26762244
31	0xbd99b125	-0.07504491
32	0x3e375686	0.179041
33	0xbdc6bca4	-0.09703949
34	0xbdbb16a3	-0.09135177
35	0x3d444732	0.04791946
36	0xbce38a5c	-0.027775936
37	0xbd41cfde	-0.04731738
38	0xbd97fedb	-0.07421657
39	0x3d37fa51	0.044916455
40	0xbe17ce3a	-0.14824763
41	0xbcee7ce6	-0.02911229
42	0x3d92209e	0.071351275
43	0xbdf6bebb	-0.12048098
44	0xbe592ce9	-0.21208538
45	0xbe61dfe3	-0.22058062
46	0xbe0eb7e7	-0.1393734
47	0xbe4a3876	-0.197481
48	0x3d374b7a	0.044749714
49	0x3d9dfc6f	0.077141635
50	0xbdf050cd	-0.117341615
51	0x3bc07b6c	0.005874088
52	0x3dfdbfac	0.12390074
53	0x3c9a2d1d	0.01882034
54	0x3e93e6d7	0.28887054
55	0x3cb3400d	0.021881128
56	0xbda4c38e	-0.080451116
57	0x3e046d7c	0.1293239
58	0x3e2e7b01	0.1703911
59	0xbda9bb4d	-0.08287678
60	0xbe1a3c24	-0.15062004
61	0x3d4b61ff	0.049654003
62	0x3ceec419	0.029146241
63	0x3dde69c4	0.10860017
64	0x3cbedfc2	0.023300055
65	0xbe0032fa	-0.12519446
66	0x3daf12bf	0.085484974
67	0x3e3565b1	0.17714573
68	0x3cc323a8	0.023820713
69	0x3cfb4e4e	0.030676987
70	0x3e12eb57	0.14347588
71	0x3e08a17d	0.13342853
72	0x3dcf8bcd	0.10134087
73	0xbc9e420b	-0.019318601
74	0x3d887213	0.06662383
75	0x3d0122b3	0.031527232
76	0xbd29b533	-0.04143257
77	0xbcc5951a	-0.024118949
78	0x3e6a118e	0.22858259
79	0x3e39d2c2	0.18146804
80	0xbe83eec8	-0.25768113
81	0x3dc76dde	0.097377524
82	0x3e092af1	0.13395287
83	0xbdc0035d	-0.093756415
84	0x3e293e92	0.16527775
85	0xbd79982e	-0.060936145
86	0xbe0cad40	-0.13737965
87	0x3bc938b6	0.0061407937
88	0xbd5fe40a	-0.054660834
89	0xbe15ed1e	-0.14641234
90	0xbdc4d23b	-0.09610411
91	0x3ddc5594	0.1075851
92	0x3daec7db	0.08534213
93	0xbbce3ef0	-0.006294124
94	0x3dce87ca	0.100844935
95	0xbce63de8	-0.028105691
96	0x3e38bb85	0.18040283
97	0x3d14c7ba	0.036323287
98	0x3dd1c676	0.102429315
99	0xbcf45917	-0.029827638
100	0xbec1a44c	-0.3782066
101	0xbe71f7b0	-0.23629642
102	0x3dcd9c35	0.1003956
103	0xbd57cf4c	-0.052687928
104	0xbd9b14f3	-0.07572355
105	0x3da8f3b8	0.08249611
106	0xbcb647be	-0.022251006
107	0xbe549367	-0.20759355
108	0x3d4660bd	0.0484321
109	0xbd9552c5	-0.07291178
110	0xbd794a6f	-0.060862
111	0x3d7371db	0.059434753
112	0xbdf6aeb3	-0.1204504
113	0xbe2bd9f4	-0.16782361
114	0x3dc17c3d	0.09447525
115	0xbdb70062	-0.0893562
116	0xbdfad3b0	-0.122474074
117	0xbe7e5b53	-0.24839525
118	0x3ddebf03	0.10876276
119	0x3e622525	0.22084482
120	0xbcd08239	-0.02545272
121	0x3e66bb8f	0.22532485
122	0x3e05be4a	0.13060871
123	0x3eb3e1f9	0.3513334
124	0x3e878601	0.26469424
125	0x3e94d92e	0.29071945
126	0x3d2cb4d9	0.042164657
127	0xbe8fecec	-0.28110445
128	0xbe4e2ea7	-0.20134984
129	0xba7bc9d2	-0.00096049637
130	0xbdeca4b7	-0.11554854
131	0x3d7ccd6d	0.061719347
132	0x3db9df73	0.09075823
133	0x3dae8838	0.085220754
134	0x3e0081de	0.1254954
135	0xbe074b85	-0.13212402
136	0xbd9d6310	-0.0768491
137	0xbdb465c6	-0.08808474
138	0xbdf40563	-0.1191509
139	0xbd89673f	-0.06709146
140	0xbc1554b5	-0.009114434
141	0xbe3808af	-0.17972063
142	0xbe8d41af	-0.27589175
143	0xbd8572ac	-0.065160125
144	0x3e9f3ec6	0.3110258
145	0x3dbfa679	0.09357924
146	0x3d93edd4	0.072230965
147	0x3e79019b	0.24317019
148	0x3e466c6b	0.19377296
149	0xbc85cfe0	-0.016334474
150	0xbd93275c	-0.071852416
151	0x3df9fefb	0.12206837
152	0x3d833849	0.0640722
153	0xbd10dee2	-0.035368808
154	0xbe5eca02	-0.21756747
155	0xbf03a72e	-0.5142697
156	0x3e460a35	0.19339831
157	0xbd6d5d79	-0.05795047
158	0xbe664d26	-0.22490367
159	0x3dd98250	0.10620558
160	0x3d8dba07	0.069202475
161	0x3e2baa6c	0.1676423
162	0x3b0f9586	0.0021909191
163	0xbe418522	-0.18898442
164	0xbd9d09a1	-0.07667852
165	0xbe5104ca	-0.20411983
166	0x3d0047eb	0.031318586
167	0xbe20e1dc	-0.15711159
168	0xbe1471fe	-0.1449661
169	0x3cec2345	0.028825412
170	0xbd9f6711	-0.0778333
171	0xbd82a313	-0.0637876
172	0xbd4363ff	-0.047702786
173	0xbd65b1e8	-0.056077868
174	0xbdbb55e9	-0.091472454
175	0xbe1214cf	-0.1426575
176	0xbd947613	-0.07249083
177	0xbe040eba	-0.12896243
178	0xbd6f68b3	-0.05844946
179	0xbe0208a0	-0.12698603
180	0xbe1e7cde	-0.1547732
181	0x3dfdd166	0.12393455
182	0x3db38968	0.087664425
183	0xbe02153b	-0.12703411
184	0x3c39ca48	0.0113397315
185	0xbe49d1db	-0.1970896
186	0xbdf01bae	-0.117240295
187	0xbde0c43e	-0.1097493
188	0xbddd2477	-0.10797971
189	0xbdb34914	-0.08754173
190	0xbe9ff0a6	-0.31238288
191	0xbe0a6c51	-0.13517882
192	0xbcdeb3f1	-0.027185412
193	0x3d68de5c	0.056852683
194	0x3e08bb0c	0.13352603
195	0xbd2d64cf	-0.042332467
196	0x3e8427e8	0.25811696
197	0x3e67239c	0.22572178
198	0x3d81450c	0.06311998
199	0x3dbc8f75	0.0920705
200	0xbd2bf0a6	-0.041977547
201	0x3e1c2e94	0.15252143
202	0x3e318a0f	0.17337821
203	0xbcaa8b7b	-0.020818463
204	0x3e0dc282	0.1384373
205	0x3e37af53	0.17937975
206	0x3d506b85	0.05088379
207	0x3d3020f5	0.04300018
208	0xbe12da13	-0.14341001
209	0x3cd806fb	0.026370516
210	0xbdf17edc	-0.11791775
211	0xbe248142	-0.16064933
212	0x3de00aac	0.109395355
213	0xbe23ba2d	-0.15988989
214	0xbde29fa5	-0.11065606
215	0x3cb88ffd	0.022529596
216	0x3deacff4	0.11465445
217	0x3cae347f	0.021265266
218	0xbd472ca0	-0.048626542
219	0x3e4cb744	0.19991785
220	0x3e333509	0.175007
221	0x3dd21774	0.102583796
222	0x3e3c03a1	0.1836076
223	0x3c9e43bc	0.019319408
224	0x3c47746f	0.012173756
225	0x3e16a8ab	0.14712779
226	0x3d70c3a4	0.058780327
227	0x3e09350d	0.13399144
228	0xbd874615	-0.06605164
229	0xbd90cfe3	-0.07070901
230	0xbdb3b94a	-0.087755755
231	0xbbd595af	-0.006518088
232	0x3e020e0f	0.12700675
233	0xbcfbf932	-0.030758474
234	0xbc87687f	-0.01652932
235	0xbe61dd91	-0.22057177
236	0x3e00afe6	0.125671
237	0xbe18d91c	-0.1492657
238	0xbebd820b	-0.37013277
239	0x3d568363	0.052371394
240	0x3e26ef2e	0.16302177
241	0xbe3062dc	-0.17225212
242	0x3d4d288b	0.050087493
243	0xbd5822f9	-0.052767728
244	0x3dc490e7	0.095979504
245	0x3e48bec4	0.19604021
246	0xbe37ceb1	-0.1794994
247	0x3e82c18b	0.25538287
248	0x3e91a413	0.2844549
249	0xbb50ddfd	-0.0031870597
250	0xbcd91662	-0.02649993
251	0x3c9711ef	0.018441169
252	0xbd0a86f3	-0.033820104
253	0x3d552e02	0.05204583
254	0x3e48db8b	0.19614999
255	0xbe2220e6	-0.15832862
