weights/epoch_2_state_dict.pt (torch, 728187 bytes, 320 tensors)

backbone.stage0.sconv.weight f4 [16, 3, 3, 3]
-0.08856327 0.16621666 -0.07473726 0.011038588 0.017498828 0.031584356 -0.111816764 0.11906552
0.06091128 0.014765427 0.09006833 0.08641841 0.06165414 0.13537075 0.10942333 0.028199576
0.049462248 0.17519228 0.071337506 0.13058184 0.00043565626 -0.044310227 0.095615156 0.08384502
0.020586926 0.06029715 0.07763951 -0.13550286 -0.08983497 -0.18479389 -0.20459084 -0.053757302
-0.034562297 0.026040826 -0.04132447 -0.061409824 0.19463578 0.2135364 0.34679142 0.33813816
0.2705808 0.41467425 0.032744173 0.30681062 0.22683033 0.4521846 0.5800909 0.2909
0.14173184 0.44626015 0.6475727 0.15111451 0.57274705 0.7154436 -0.14757897 -0.3203435
-0.108667605 -0.0056542503 -0.3102826 -0.22906981 0.05022869 0.11703051 0.17572659 0.15538424
0.0009890121 -0.1329744 0.0020849826 -0.013825353 -0.0106574 0.15353535 0.092483744 -0.0113847535
-0.11375396 -0.16879784 -0.052307617 -0.07105615 -0.1311958 -0.048860054 -0.11358711 -0.02506653
-0.034625445 0.089405544 0.29093316 0.17697254 0.13592654 0.37592 0.11554986 0.15835592
-0.019716205 0.05990441 0.12060274 -0.076326095 0.11177013 0.053850234 -0.088535324 0.23317654
0.22250988 -0.11549071 0.046900775 0.20851217 0.24997646 0.10234736 -0.014749605 -0.05737566
0.0031602187 -0.087210126 -0.0116631705 0.07934714 0.0068779886 -0.39420176 -0.20226866 -0.06339376
-0.26244462 -0.11731316 0.11376964 -0.018048933 -0.08046134 0.10176528 -0.09421072 0.14550497
0.1929827 -0.109526835 -0.08810473 0.27768248 0.08176256 0.10942801 0.29189593 0.1309885
0.3895839 0.30713665 0.1559062 0.18923186 0.24996632 0.45520127 0.27835724 0.034194317
0.06390722 0.033551063 0.021209119 0.2785918 0.3714868 0.25998667 0.16964036 0.2299766
-0.004333307 0.122122444 0.19194709 0.09949869 0.07583859 0.066438176 0.08681218 0.017747177
-0.12827314 -0.04154919 -0.07736538 0.063105494 0.07368154 0.12244542 0.026459085 0.037542928
0.05205952 -0.065783806 -0.36699763 -0.43635103 -0.34804124 -0.40263253 -0.26144558 -0.2960651
-0.25575018 -0.16342057 -0.21327972 0.32055652 0.10783527 0.38633996 0.33894068 0.37810358
0.25831258 0.39958757 0.5077023 0.5191022 -0.28942734 -0.18449213 -0.2523048 -0.41182202
-0.23975797 -0.13091935 -0.14341342 -0.22399676 -0.30038622 0.39646333 0.4326959 0.28373125
0.23158896 0.37813017 0.48636085 0.4924218 0.5863924 0.32110247 -0.3616161 -0.47294995
-0.4433607 -0.46012673 -0.4995734 -0.3254736 -0.44108424 -0.41471186 -0.29104245 0.24983764
0.029698467 0.07628453 -0.11953956 0.063473664 0.022688568 0.23168339 0.21970612 0.10923117
0.26682788 0.17347284 0.17859903 -0.10380841 0.016797148 0.14905268 0.1335515 0.32168865
0.026953146 0.14273617 -0.11314498 -0.07866584 0.008881432 0.07988727 -0.030048504 -0.16291623
-0.25384718 -0.283278 0.119538106 0.15007514 0.17791098 0.07925502 0.16809958 0.24189538
0.025827648 0.18283753 -0.08990647 -0.50237745 -0.63738346 -0.66894805 -0.5010779 -0.6015559
-0.473628 -0.1880848 -0.083688445 -0.016941385 -0.4741232 -0.4084585 -0.47236675 -0.3084723
00000000: a960 b5bd b334 2a3e d90f 99bd 32db 343c
00000010: b459 8f3c 995e 013d 3000 e5bd a0d8 f33d
00000020: 1b7e 793d b1ea 713c bf75 b83d 23fc b03d
00000030: 0d89 7c3d a19e 0a3e 5719 e03d cc02 e73c
00000040: ed98 4a3d 9b65 333e 6619 923d 3fb7 053e
00000050: cb68 e439 a47e 35bd e1d1 c33d f0b6 ab3d
00000060: eaa5 a83c 25fa 763d 7701 9f3d 43c1 0abe
00000070: 66fb b7bd 9c3a 3dbe 4380 51be 9e30 5cbd
00000080: 3291 0dbd 9253 d53c d943 29bd de88 7bbd
00000090: 9a4e 473e 49a9 5a3e a58e b13e 7220 ad3e
000000a0: 9189 8a3e 2f50 d43e c11e 063d 4816 9d3e
000000b0: 3646 683e bd84 e73e d680 143f d8f0 943e
000000c0: 2722 113e 367c e43e 53c7 253f c3bd 1a3e
000000d0: 8d9f 123f 5027 373f f11e 17be 1004 a4be
000000e0: 1f8d debd 4a47 b9bb 5cdd 9ebe 4791 6abe
000000f0: 99bc 4d3d b1ad ef3d acf1 333e 0c1d 1f3e
00000100: bda1 813a 712a 08be 34a4 083b bc83 62bc
00000110: 609c 2ebc 5f38 1d3e 1e68 bd3d 1e87 3abc
00000120: d6f7 e8bd 57d9 2cbe 8340 56bd e385 91bd
00000130: 3158 06be 7b21 48bd 5ca0 e8bd 5358 cdbc
00000140: 69d3 0dbd 411a b73d 31f5 943e 4a38 353e
00000150: 5430 0b3e 9678 c03e 68a5 ec3d 0e28 223e
00000160: e183 a1bc 545e 753d 92fe f63d db50 9cbd
00000170: bde7 e43d 1092 5c3d 0252 b5bd d5c5 6e3e
00000180: a1d9 633e 6586 ecbd 071b 403d 3784 553e
00000190: d4f9 7f3e 7e9b d13d 54a8 71bc bd02 6bbd
000001a0: ac1b 4f3b 399b b2bd e216 3fbc c180 a23d
000001b0: c060 e13b d0d4 c9be 841f 4fbe 96d4 81bd
000001c0: 245f 86be e241 f0bd 0f00 e93d 5bdb 93bc
000001d0: eac8 a4bd 516a d03d 8df1 c0bd 41ff 143e
000001e0: 429d 453e 9b4f e0bd 4170 b4bd 662c 8e3e
000001f0: 2173 a73d cb1b e03d 6273 953e d921 063e
00000200: 8a77 c73e 0441 9d3e e0a5 1f3e ffc5 413e
00000210: 2cf7 7f3e 2410 e93e d784 8e3e 570f 0c3d
00000220: cae1 823d d76c 093d bfbe ad3c 96a3 8e3e
00000230: 8533 be3e f91c 853e 34b6 2d3e fc7e 6b3e
00000240: 6afe 8dbb 551b fa3d c78d 443e f8c5 cb3d
00000250: 4351 9b3d bd10 883d 96ca b13d 8762 913c
00000260: 095a 03be 7c2f 2abd be71 9ebd 743d 813d
00000270: 59e6 963d aac4 fa3d b9c0 d83c 9dc6 193d
00000280: 5d3c 553d a9b9 86bd 1de7 bbbe 6769 dfbe
00000290: 7632 b2be da25 cebe 32dc 85be d895 97be
000002a0: b0f1 82be b957 27be 0066 5abe fc1f a43e
000002b0: bdd8 dc3d 5ace c53e a289 ad3e cb96 c13e
000002c0: 8c41 843e be96 cc3e c7f8 013f e2e3 043f
000002d0: d22f 94be 81eb 3cbe 182e 81be 56da d2be
000002e0: 1d83 75be b90f 06be f8da 12be 685f 65be
000002f0: 39cc 99be 3efd ca3e 518a dd3e 3945 913e
00000300: a825 6d3e 479a c13e 4a04 f93e b61e fc3e
00000310: d01d 163f 8b67 a43e bf25 b9be 7f26 f2be
00000320: 2c00 e3be bb95 ebbe 16c8 ffbe 7aa4 a6be
00000330: cbd5 e1be 1d55 d4be 8403 95be 70d5 7f3e
00000340: 334a f33c 103b 9c3d 28d1 f4bd 7bfe 813d
00000350: 60dd b93c 693e 6d3e a4fa 603e 97b4 df3d
00000360: aa9d 883e dda2 313e aae2 363e 8199 d4bd
00000370: 2c9a 893c 44a1 183e b9c1 083e 60b4 a43e
00000380: d8cc dc3c 6e29 123e 8eb8 e7bd 8e1b a1bd
00000390: 6d83 113c f09b a33d 4828 f6bc 83d3 26be
000003a0: 42f8 81be d009 91be 65d0 f43d 4cad 193e
000003b0: 4c2e 363e 7550 a23d 4c22 2c3e 6cb3 773e
000003c0: 8194 d33c c339 3b3e e220 b8bd cf9b 00bf
000003d0: 902b 23bf 2e40 2bbf a446 00bf 91ff 19bf
000003e0: 5f7f f2be 4d99 40be d964 abbd a9c8 8abc
000003f0: 47c0 f2be 7921 d1be 0eda f1be 15f0 9dbe

backbone.stage0.sconv.bias f4 [16]
0.01995075 0.019951379 0.019951833 0.019948589 0.019950831 0.019951366 0.019951928 0.019950306
0.019949028 0.019950317 0.019950086 0.019950863 0.019949589 0.01995297 0.01995077 0.019950768
00000000: c16f a33c 1371 a33c 0772 a33c 396b a33c
00000010: ed6f a33c 0c71 a33c 3a72 a33c d36e a33c
00000020: 256c a33c d96e a33c 5d6e a33c fe6f a33c
00000030: 526d a33c 6974 a33c cc6f a33c cb6f a33c

backbone.stage0.bn.weight f4 [16]
0.691444 1.1233536 0.96528095 0.77389175 0.9324257 0.87298477 0.9816603 1.368664
0.8456362 1.4090987 0.87542844 0.9391945 0.9154594 1.0725919 1.4075165 0.8674966
00000000: 7902 313f 0dca 8f3f a71c 773f c51d 463f
00000010: 73b3 6e3f ee7b 5f3f 174e 7b3f 6230 af3f
00000020: 9d7b 583f 595d b43f 141c 603f 0d6f 703f
00000030: 8c5b 6a3f b14a 893f 8029 b43f 4214 5e3f

backbone.stage0.bn.bias f4 [16]
-0.26521283 0.33829406 -0.07969708 -0.18224148 -0.41724318 -0.1743671 0.52388614 0.41433728
-0.18038972 0.18599942 -0.1947646 0.20301096 -0.064874806 0.28520116 0.12713191 -0.024243664
00000000: fac9 87be e134 ad3e 3938 a3bd 839d 3abe
00000010: e6a0 d5be 4a8d 32be 671d 063f 0424 d43e
00000020: 15b8 38be a276 3e3e 5f70 47be 1be2 4f3e
00000030: 15dd 84bd e305 923e de2e 023e a69a c6bc

backbone.stage0.bn.running_mean f4 [16]
-0.1817453 -0.9441739 0.19659749 -0.23794863 -0.4437445 -0.18523313 0.19122143 0.15925695
-0.16465738 1.5035434 -0.28553912 -0.082858495 0.2747234 0.13184536 0.3727601 -0.24253364
00000000: 711b 3abe 61b5 71bf da50 493e cea8 73be
00000010: 7b32 e3be c1ad 3dbe 8dcf 433e 4114 233e
00000020: f29b 28be 1c74 c03f 2f32 92be b7b1 a9bd
00000030: 8ca8 8c3e 7802 073e 69da be3e bd5a 78be

backbone.stage0.bn.running_var f4 [16]
0.5931663 9.844821 0.56613195 1.7367179 1.8148873 1.4706529 1.2528527 0.8401991
0.71461105 36.561665 1.4351151 0.32800204 0.72077 1.0605143 2.1132228 0.6579987
00000000: bfd9 173f 6384 1d41 06ee 103f c64c de3f
00000010: 3a4e e83f 5b3e bc3f 7a5d a03f 4a17 573f
00000020: c0f0 363f 253f 1242 dab1 b73f e2ef a73e
00000030: 6284 383f efbe 873f 0b3f 0740 9a72 283f

backbone.stage0.unit.pconv.weight f4 [16, 16, 1, 1]
-0.019497551 -0.45243934 0.029231776 -0.51646525 0.329833 -0.09812829 0.5754363 -0.28788328
-0.03590921 0.6893855 -0.1651911 0.101990215 -0.094052725 0.09380288 -0.58493847 -0.14630438
-0.033467013 0.3461524 -0.01871151 -0.16092512 0.085205704 0.01699213 -0.32617626 -0.3823662
0.008263831 -0.3137792 0.2862649 0.20003505 0.3022682 -0.09637145 0.09215639 0.42856115
0.43629095 0.29897183 -0.24174091 -0.45515123 -0.3405609 -0.014019022 0.123939335 0.4836244
0.30964717 -0.32625362 0.030244611 0.16524951 -0.15819703 0.75612277 0.31470326 0.45257828
-0.25380763 0.35338798 -0.025010057 0.3533006 0.27433553 -0.5149154 0.7019474 -0.23604578
-0.01185869 -0.27801982 -0.07325432 0.40306988 0.31047544 0.3248982 0.2684496 -0.201442
-0.01328377 0.7086786 -0.09378201 0.064620346 0.09837149 0.10053189 0.121774025 -0.055985663
0.08664743 -0.32082942 -0.05579482 -0.01464227 0.019379525 -0.5278734 0.11305793 0.42895514
0.3626698 -0.0683981 0.37337795 -0.07934339 -0.21976864 0.16170947 0.048445895 0.33688894
-0.038572114 0.18918669 0.015934896 0.305222 0.19314723 0.70380926 0.5159918 0.008934524
-0.07588755 -0.061980467 0.44987616 0.11260793 -0.21175541 0.0827178 0.5436712 -0.08390783
-0.32568002 0.032247853 -0.112242535 0.38099852 -0.21588531 0.3369604 -0.5014366 0.4469946
0.035356063 -0.6723373 0.015360221 0.090961434 -0.69414777 -0.2904423 -0.4408764 0.6146666
0.18724099 0.46994293 -0.5991776 -0.29965183 -0.2669876 0.10193182 0.21982415 -0.55435485
-0.4300624 -0.12646002 0.1454591 0.22494707 -0.07792176 0.0007938007 0.38224775 0.8542085
-0.12202735 0.21005884 0.48868066 -0.2806422 -0.2586331 -0.2115117 0.4824316 0.42982504
0.14636633 -0.15448609 -0.3902863 -0.24824677 0.12677227 0.045359284 0.05487359 0.39482555
-0.19518502 -0.42083266 0.36363283 -0.24104401 0.056767933 -0.17890815 0.33970866 0.4595084
0.10872908 0.060660936 -0.3786363 0.273118 -0.34668434 0.4234395 -0.44745868 0.031685688
0.35256362 -1.1036555 0.107068405 -0.14968616 0.088768706 -0.070646554 -0.034607228 0.16973303
0.099661216 0.23484366 0.1500535 0.376262 0.33568683 0.1011044 -0.012750468 0.8358745
0.017520685 0.32348043 -0.13670053 0.15688246 0.08295951 0.13046056 0.7494058 -0.043205198
0.08107391 -0.72198874 0.05211747 0.13620518 -0.118245445 -0.042287696 0.4635993 -0.22538415
-0.4262434 -0.04664438 -0.44330707 -0.32693264 0.04981607 -0.31931213 -0.7539553 0.10161296
0.21778119 -0.04317225 -0.45413443 0.14199436 0.39335716 0.115077585 -0.38113856 -0.42223197
0.61504644 -0.41179055 0.11662075 -0.47920507 -0.7315407 -0.11301776 0.30065978 0.1863406
0.09517743 0.33831358 -0.05223272 -0.08850635 -0.15093446 -0.06441554 -0.08377394 -0.61053854
-0.19907027 -0.06748928 0.33740577 -0.10360497 0.50969577 -0.43099016 -0.43729958 0.2184715
-0.24741511 0.34154236 -0.42816266 0.25798693 -0.26644403 0.1266284 -0.23329665 0.30810946
-0.087151125 0.20238397 0.38051578 -0.0700334 -0.07435065 -0.3148182 0.124879345 0.24253541
00000000: 54b9 9fbc 21a6 e7be 7a77 ef3c 1137 04bf
00000010: dfdf a83e 7cf7 c8bd cb4f 133f 7065 93be
00000020: 8915 13bd 917b 303f db27 29be 3fe0 d03d
00000030: b79e c0bd b91b c03d 87be 15bf d1d0 15be
00000040: b514 09bd e33a b13e e148 99bc 8ec9 24be
00000050: 5480 ae3d 1433 8b3c 9300 a7be 81c5 c3be
00000060: 0565 073c aba7 a0be 5091 923e fdd5 4c3e
00000070: e6c2 9a3e 655e c5bd 7dbc bc3d 5e6c db3e
00000080: 8761 df3e d612 993e ee8a 77be 9509 e9be
00000090: 005e aebe 0ab0 65bc e8d3 fd3d 9e9d f73e
000000a0: 138a 9e3e b70a a7be 8cc3 f73c 2b37 293e
000000b0: 67fe 21be 4391 413f c920 a13e 57b8 e73e
000000c0: 13f3 81be 45ef b43e e4e1 ccbc d1e3 b43e
000000d0: b575 8c3e 7fd1 03bf d3b2 333f fcb5 71be
000000e0: f34a 42bc 9d58 8ebe 5c06 96bd 2d5f ce3e
000000f0: a3f6 9e3e 0f59 a63e 3a72 893e d046 4ebe
00000100: 2ba4 59bc f66b 353f c810 c0bd ac57 843d
00000110: fe76 c93d aae3 cd3d a964 f93d 3951 65bd
00000120: 3574 b13d c143 a4be 1c89 64bd 22e6 6fbc
00000130: cfc1 9e3c b622 07bf ea8a e73d 02a0 db3e
00000140: dbaf b93e 4e14 8cbd 652b bf3e ca7e a2bd
00000150: 080b 61be 2b97 253e 346f 463d b57c ac3e
00000160: cbfd 1dbd 28ba 413e e689 823c 0f46 9c3e
00000170: 63c8 453e d82c 343f 0a18 043f 1c62 123c
00000180: ef6a 9bbd 3bdf 7dbd 2b56 e63e fd9e e63d
00000190: 69d6 58be f367 a93d 092e 0b3f ded7 abbd
000001a0: 88bf a6be 5316 043d 6adf e5bd 3d12 c33e
000001b0: 0a11 5dbe 1386 ac3e 265e 00bf 7adc e43e
000001c0: 85d1 103d 4c1e 2cbf 70a9 7b3c fd49 ba3d
000001d0: abb3 31bf dab4 94be 8dba e1be ca5a 1d3f
000001e0: 1abc 3f3e 5c9c f03e b463 19bf f76b 99be
000001f0: 99b2 88be a1c1 d03d 9519 613e 33ea 0dbf
00000200: 2431 dcbe bc7e 01be 3bf3 143e 8658 663e
00000210: 7295 9fbd 1017 503a fab5 c33e 69ad 5a3f
00000220: 7ae9 f9bd aa19 573e 5a34 fa3e 56b0 8fbe
00000230: 8f6b 84be 8696 58be 4601 f73e 0712 dc3e
00000240: 0ee1 153e 9a31 1ebe 9bd3 c7be 6734 7ebe
00000250: 97d0 013e a8ca 393d 21c3 603d 9326 ca3e
00000260: 95de 47be 6177 d7be 152e ba3e 3ed4 76be
00000270: 7e85 683d b333 37be 4bee ad3e af44 eb3e
00000280: 5aad de3d 9a77 783d 9edc c1be 1fd6 8b3e
00000290: 9c80 b1be 10cd d83e 4e19 e5be dac8 013d
000002a0: 3883 b43e 9544 8dbf ae46 db3d 5447 19be
000002b0: 5ecc b53d 24af 90bd 4fc0 0dbd 7fce 2d3e
000002c0: 2e1b cc3d db7a 703e a0a7 193e 6aa5 c03e
000002d0: 25df ab3e d30f cf3d 57e7 50bc dffb 553f
000002e0: 8a87 8f3c 3a9f a53e 39fb 0bbe cca5 203e
000002f0: ade6 a93d 7497 053e 0fd9 3f3f eff7 30bd
00000300: 140a a63d 41d4 38bf 2179 553d 5f79 0b3e
00000310: ab2a f2bd dd35 2dbd e35c ed3e 1acb 66be
00000320: 933c dabe 2d0e 3fbd 25f9 e2be b763 a7be
00000330: ef0b 4c3d e17c a3be 3703 41bf 751a d03d
00000340: 0802 5f3e 63d5 30bd 4f84 e8be f866 113e
00000350: 1c66 c93e ccad eb3d 9824 c3be ca2e d8be
00000360: af73 1d3f 36d6 d2be dcd6 ee3d 5e5a f5be
00000370: 4046 3bbf db75 e7bd 14f0 993e 12d0 3e3e
00000380: 62ec c23d 7037 ad3e faf1 55bd d142 b5bd
00000390: 908e 1abe 4bec 83bd ac91 abbd 414c 1cbf
000003a0: 14d9 4bbe d237 8abd 73c0 ac3e d82e d4bd
000003b0: 6c7b 023f beaa dcbe bbe5 dfbe feb6 5f3e
000003c0: 635a 7dbe a4de ae3e 2338 dbbe dd16 843e
000003d0: 5a6b 88be e0aa 013e 51e5 6ebe 86c0 9d3e
000003e0: 4a7c b2bd be3d 4f3e f7d2 c23e ac6d 8fbd
000003f0: 2745 98bd da2f a1be bec0 ff3d 345b 783e

backbone.stage0.unit.pconv.bias f4 [16]
0.018715883 0.015445418 0.02129049 0.017094139 0.017908406 0.018064322 0.019605275 0.030371685
0.024169022 0.026249161 0.049322568 -0.011349759 0.013940494 0.011905479 0.05415767 0.021951709
00000000: 0d52 993c c70e 7d3c 6569 ae3c 0209 8c3c
00000010: a6b4 923c a1fb 933c 3e9b a03c 0ace f83c
00000020: 1dfe c53c 7b08 d73c 7606 4a3d 57f4 39bc
00000030: ab66 643c 330f 433c 6fd4 5d3d 12d4 b33c

backbone.stage0.unit.dconv.weight f4 [16, 1, 3, 3]
-0.25385603 -0.072130166 -0.3148771 -0.051684223 0.12642336 -0.089538954 -0.07971423 0.31298628
-0.10992783 0.12708598 0.2897182 0.32110196 0.014625825 -0.0037805315 -0.09372657 0.1555527
0.13905779 0.017413191 -0.08167711 0.13948116 -0.13817044 0.07404536 0.34820598 -0.05614133
0.11517704 0.27995887 0.088382736 -0.12641312 -0.23295806 -0.15141782 -0.15292762 -0.14953272
-0.11748361 -0.03673275 0.03187863 -0.0013050509 0.020396128 -0.1192494 -0.15988532 0.09736778
0.070874766 0.005463883 0.18258311 0.22615391 0.37424728 0.47820857 0.21580794 0.5185432
0.27293098 0.07394984 0.16325328 0.2870346 -0.17960253 -0.023421783 -0.1363902 0.27195418
-0.18914893 0.2580521 0.05986077 0.047152206 -0.10485737 0.08221652 -0.051993374 0.15222317
0.28807825 0.08125785 0.47147775 0.377023 0.41082975 0.5945584 0.48290217 0.27917576
-0.40570012 -0.3648642 0.037599247 -0.33993706 -0.4244417 0.2009337 -0.1357522 -0.012640665
-0.11563865 -0.0445485 -0.054268386 -0.13758366 0.06449918 -0.19614941 -0.37667382 0.08300818
-0.08279973 -0.1968244 -0.6628128 -0.8400575 -0.77189153 -0.45149416 0.22238386 0.25924572
0.32031772 0.9396527 0.78783774 0.2810574 0.21965472 -0.09896549 0.43091196 0.1497871
-0.009283211 0.3782697 0.23357984 -0.16479719 0.7432882 0.59982324 0.48168063 0.5589463
0.6002583 0.44470125 0.683489 0.50663775 0.7650711 0.12389719 0.05615414 -0.16740654
0.063592054 -0.034904964 -0.06968027 -0.46451816 -0.60869247 -0.7877556 0.6130837 0.59566545
0.44588315 0.3138541 0.58613145 0.3566179 -0.033148695 0.3582399 0.29954264 0.50220454
-0.10924753 0.44478545 0.23631205 0.069257505 0.04606711 0.34269896 -0.0004401224 0.03741585
00000000: 6bf9 81be fbb8 93bd 9237 a1be d6b2 53bd
00000010: 2075 013e 3360 b7bd 3741 a3bd bd3f a03e
00000020: d821 e1bd d422 023e f255 943e 7a67 a43e
00000030: 28a1 6f3c cbc2 77bb b7f3 bfbd 3549 1f3e
00000040: 2a65 0e3e 1ca6 8e3c 5446 a7bd 26d4 0e3e
00000050: 8d7c 0dbe 18a5 973d 0e48 b23e 74f4 65bd
00000060: f1e1 eb3d c556 8f3e 0202 b53d 7172 01be
00000070: 8f8c 6ebe 460d 1bbe 0f99 1cbe 1b1f 19be
00000080: 3f9b f0bd 1475 16bd 2b93 023d 3e0e abba
00000090: c815 a73c 0839 f4bd fab8 23be c268 c73d
000000a0: ca26 913d 5f0a b33b 11f7 3a3e e494 673e
000000b0: 579d bf3e c1d7 f43e c2fc 5c3e 3fbf 043f
000000c0: 9cbd 8b3e 0473 973d de2b 273e 33f6 923e
000000d0: bae9 37be 0adf bfbc dfa9 0bbe 943d 8b3e
000000e0: 42b0 41be 681f 843e 9130 753d ac22 413d
000000f0: 76bf d6bd 2361 a83d 01f7 54bd 64e0 1b3e
00000100: fe7e 933e 846a a63d 8865 f13e 2909 c13e
00000110: 4758 d23e fb34 183f f43e f73e 20f0 8e3e
00000120: edb7 cfbe 7bcf babe ab01 1a3d 3b0c aebe
00000130: 6c50 d9be 90c1 4d3e a002 0bbe cb1a 4fbc
00000140: f5d3 ecbd 7d78 36bd 8748 5ebd bbe2 0cbe
00000150: 2518 843d 64db 48be 64db c0be 3100 aa3d
00000160: e892 a9bd 568c 49be 1aae 29bf 020e 57bf
00000170: af9a 45bf 3e2a e7be 98b8 633e dbbb 843e
00000180: af00 a43e 148d 703f bcaf 493f c1e6 8f3e
00000190: 2bed 603e 6bae cabd 7ea0 dc3e ca61 193e
000001a0: 9c18 18bc 91ac c13e 8e2f 6f3e 98c0 28be
000001b0: 2348 3e3f 048e 193f d89e f63e 1b17 0f3f
000001c0: 87aa 193f e2af e33e 23f9 2e3f 03b3 013f
000001d0: b3db 433f cfbd fd3d e201 663d 9f6c 2bbe
000001e0: 8d3c 823d 82f8 0ebd 88b4 8ebd 53d5 edbe
000001f0: 45d3 1bbf 5aaa 49bf 0ef3 1c3f 887d 183f
00000200: cc4a e43e 7cb1 a03e b60c 163f 9f96 b63e
00000210: edc6 07bd 386b b73e a75d 993e 7a90 003f
00000220: 2bbd dfbd ebba e33e c9fb 713e e1d6 8d3d
00000230: deb0 3c3d 3d76 af3e 3bc0 e6b9 5d41 193d

backbone.stage0.unit.dconv.bias f4 [16]
0.019950466 0.01995059 0.019950349 0.019951398 0.019950567 0.019950656 0.019950697 0.01995128
0.01994969 0.019951273 0.019951282 0.019949736 0.019950483 0.019950986 0.019950476 0.019950954
00000000: 296f a33c 6b6f a33c ea6e a33c 1d71 a33c
00000010: 5f6f a33c 8f6f a33c a56f a33c de70 a33c
00000020: 886d a33c da70 a33c df70 a33c a16d a33c
00000030: 326f a33c 4070 a33c 2e6f a33c 2f70 a33c

backbone.stage0.unit.bn.weight f4 [16]
0.88817006 0.92224276 0.80837613 1.1296651 1.0875922 0.9029193 0.82827634 1.1015574
0.8904074 1.0010213 1.3078511 1.1257386 0.90037316 0.9835214 1.1822981 0.80580467
00000000: 1d5f 633f 1a18 6c3f bdf1 4e3f de98 903f
00000010: 3936 8b3f b825 673f eb09 543f d5ff 8c3f
00000020: bdf1 633f 7721 803f aa67 a73f 3418 903f
00000030: db7e 663f 0fc8 7b3f 8b55 973f 3749 4e3f

backbone.stage0.unit.bn.bias f4 [16]
-0.077514894 -0.034313478 -0.21414907 0.070928946 0.17391337 0.043562144 -0.12262456 0.6334641
0.39552 -0.09237928 0.6054512 -0.54488766 -0.0005461639 -0.004333715 0.5132872 -0.008739049
00000000: 21c0 9ebd 4a8c 0cbd e549 5bbe 3243 913d
00000010: 5916 323e 386e 323d 9622 fbbd b42a 223f
00000020: 9981 ca3e 5931 bdbd dafe 1a3f c27d 0bbf
00000030: 702c 0fba d601 8ebb ca66 033f 3a2e 0fbc

backbone.stage0.unit.bn.running_mean f4 [16]
0.037778527 -0.02880099 0.894298 -0.8547158 0.18992412 2.71212 0.21056159 -1.8204015
-1.8151218 0.0108785415 0.21486036 2.3788111 -6.884933 1.6328715 -1.9442458 0.4260247
00000000: a8bd 1a3d 0ef0 ebbc b7f0 643f a8ce 5abf
00000010: 787b 423e 6093 2d40 759d 573e eb02 e9bf
00000020: e955 e8bf e93b 323c 5b04 5c3e 713e 1840
00000030: 5f51 dcc0 ef01 d13f 0cdd f8bf e91f da3e

backbone.stage0.unit.bn.running_var f4 [16]
0.16837066 0.8059764 0.27240184 0.68849474 0.78318816 4.618865 0.07670731 30.202366
2.5895188 0.42379534 1.7927473 2.3947747 23.424173 6.73067 15.110175 1.8971971
00000000: 5c69 2c3e 7854 4e3f 4178 8b3e 3141 303f
00000010: 057f 483f becd 9340 b918 9d3d 729e f141
00000020: adba 2540 b4fb d83e be78 e53f fd43 1940
00000030: b564 bb41 a661 d740 47c3 7141 5bd7 f23f

backbone.stage1.1.unit1.pconv.weight f4 [16, 16, 1, 1]
0.27364075 0.0569643 -0.05756042 -0.19195338 -0.32466513 -0.04129713 0.27772942 -0.80774146
0.37503323 0.03984836 -0.02013108 0.29635805 0.23044379 -0.04090464 0.25255698 -0.23936553
-0.019497264 -0.16392794 -0.40382525 0.035914157 -0.41415945 -0.01995155 -0.32182357 0.19003797
-0.39533964 0.060169898 0.3874702 -0.20485832 0.07134491 -0.05826945 -0.55315036 -0.2203035
-0.3247919 0.21768415 -0.13106324 -0.007229603 0.29441282 0.09202105 -0.13158703 -0.37114438
0.14644624 0.13414618 0.59265745 -0.4613285 -0.3104042 -0.26757538 -0.41216043 -0.14121345
-0.04043456 -0.028686186 -0.1144443 0.38998115 -0.6351319 -0.113042526 0.06670514 0.0027187117
0.34501052 -0.26979908 -0.33768928 0.64730227 -0.38477063 0.09193882 -0.48874983 0.12836353
-0.2449929 0.1516379 0.069913566 0.11200306 0.3097378 0.03615251 -0.27208486 0.13815115
-0.012170382 -0.42629427 -0.026266916 0.20249206 -0.32408524 0.26569226 -0.0042699506 -0.068385825
-0.53344506 -0.0050093005 0.06329698 -0.26456004 0.23009117 -0.33139232 0.09272718 -0.19056714
-0.06986893 -0.38546148 -0.2356442 -0.25837752 -0.21695982 -0.067866735 0.36716548 0.14766271
-0.16664903 -0.31515473 -0.2589958 0.0056788386 -0.40635103 0.24068101 -0.42179322 -0.31442192
0.1885065 -0.25577348 -0.46796817 -0.04234562 -0.21485962 0.64788806 -0.17153594 -0.30745816
0.39153713 0.43722737 0.42356881 -0.7352558 0.23122649 0.5584858 0.32254738 -0.46588513
0.5034308 0.28568727 0.04114387 0.8525392 0.36475486 -0.3100582 0.53767306 0.13908562
-0.175775 0.3672936 0.0012213782 -0.12961745 0.12528102 0.20155896 0.12601562 0.075366326
0.01477263 -0.17971766 0.64965856 0.22749859 0.15856005 -0.68907887 0.16657214 -0.36078262
0.054018058 -0.41174927 -0.29134977 -0.15683697 0.039044753 -0.041639313 -0.034758594 -0.093435064
0.03385586 0.22621663 -0.7479862 -0.19900668 -0.30734852 -0.07158698 -0.56013626 -0.34404904
0.20213874 -0.07339045 -0.060511176 -0.09929596 0.8163758 -0.31077936 -0.1780049 -0.33495083
-0.2104953 -0.045261797 0.72665024 0.03604421 -0.07811252 0.084451415 0.5157672 -0.40955883
-0.05344451 -0.098044455 0.14393023 -0.14310782 -0.070253566 0.39619222 0.5253989 -0.27153468
-0.03922671 0.30384573 -0.690554 0.12472671 -0.40075514 0.073117726 0.15229216 -0.023830924
-0.24857667 -0.13231346 -0.20781559 -0.60509723 -0.113718055 -0.009404167 -0.2653289 -0.13040343
0.15327267 -0.3057783 -0.5374468 -0.11010473 0.45291427 -0.33889526 0.19430934 -0.56726944
-0.120291375 -0.102182984 0.073690064 -0.123919494 -0.36116984 0.24534646 -0.045223795 0.03361102
-0.056075178 0.1301865 0.5408101 0.07487956 -0.08368094 -0.5735076 -0.16681893 -0.121010855
0.14518163 0.06991708 -0.15537675 -0.24178767 -0.25972313 0.21740888 0.10669126 -0.55678254
-0.07835555 0.136381 0.1847428 -0.5678997 0.292617 0.043195758 0.1685553 0.40582204
0.016967861 -0.10225333 0.47830462 -0.12725222 0.27274483 0.25415856 0.27825943 -0.7801189
0.47985056 -0.21524456 0.37136793 0.40310413 -0.33269963 -0.1699021 0.37660787 0.0045995116
00000000: a41a 8c3e 6653 693d 7ac4 6bbd 6d8f 44be
00000010: 823a a6be 2e27 29bd 8d32 8e3e 25c8 4ebf
00000020: 5b04 c03e 0938 233d efe9 a4bc 3ebc 973e
00000030: 75f9 6b3e a08b 27bd 264f 813e 3d1c 75be
00000040: bab8 9fbc badc 27be 2fc2 cebe b91a 133d
00000050: b50c d4be 6f71 a3bc 0fc6 a4be 5099 423e
00000060: f569 cabe b674 763d 7e62 c63e 61c6 51be
00000070: 481d 923d f2ab 6ebd 439b 0dbf 3e97 61be
00000080: 204b a6be 98e8 5e3e 7135 06be 4ee6 ecbb
00000090: 47bd 963e 8875 bc3d c0be 06be a306 bebe
000000a0: 01f6 153e 9e5d 093e 66b8 173f 4033 ecbe
000000b0: 4ded 9ebe a4ff 88be b106 d3be 429a 10be
000000c0: b69e 25bd 4bff eabc c661 eabd 9cab c73e
000000d0: 0198 22bf d782 e7bd b49c 883d 6a2c 323b
000000e0: 38a5 b03e 1b23 8abe 9ce5 acbe 9ab5 253f
000000f0: a800 c5be 6c4a bc3d 6b3d fabe bb71 033e
00000100: 6bdf 7abe f746 1b3e d82e 8f3d dc61 e53d
00000110: f495 9e3e a814 143d b54e 8bbe 7f77 0d3e
00000120: 4866 47bc 3e43 dabe b72d d7bc 145a 4f3e
00000130: 80ee a5be d108 883e f1ea 8bbb de0d 8cbd
00000140: db8f 08bf 0f25 a4bb d9a1 813d 6a74 87be
00000150: 059d 6b3e 41ac a9be bfe7 bd3d 0824 43be
00000160: 7117 8fbd 355b c5be b74c 71be 0f4a 84be
00000170: b72a 5ebe b7fd 8abd 1dfd bb3e e534 173e
00000180: 0ba6 2abe f65b a1be 199b 84be 8d15 ba3b
00000190: 3e0d d0be 1575 763e 48f5 d7be e9fb a0be
000001a0: d907 413e bef4 82be 8699 efbe 9a72 2dbd
000001b0: 2904 5cbe fedb 253f 1ea7 2fbe 286b 9dbe
000001c0: 8e77 c83e 44dc df3e 03de d83e b939 3cbf
000001d0: a3c6 6c3e edf8 0e3f ee24 a53e 7f88 eebe
000001e0: d7e0 003f 9a45 923e 7a86 283d 0240 5a3f
000001f0: 26c1 ba3e f3bf 9ebe f1a4 093f 766c 0e3e
00000200: 5dfe 33be e80d bc3e a716 a03a 70ba 04be
00000210: ab49 003e 7965 4e3e 3d0a 013e a959 9a3d
00000220: e708 723c e807 38be 0650 263f 64f5 683e
00000230: 915d 223e 7967 30bf e391 2a3e 80b8 b8be
00000240: 0a42 5d3d cdd0 d2be cc2b 95be df99 20be
00000250: 64ed 1f3d fc8d 2abd 075f 0ebd e25a bfbd
00000260: 71ac 0a3d 55a5 673e 067c 3fbf 68c8 4bbe
00000270: c95c 9dbe 329c 92bd 1765 0fbf 3227 b0be
00000280: 75fd 4e3e bb4d 96bd 91da 77bd ae5b cbbd
00000290: 01fe 503f 791e 9fbe eb46 36be ad7e abbe
000002a0: 148c 57be 6f64 39bd c005 3a3f 18a3 133d
000002b0: 75f9 9fbd ddf4 ac3d 5209 043f b2b1 d1be
000002c0: a1e8 5abd 88cb c8bd 7262 133e db8a 12be
000002d0: 1ae1 8fbd b5d9 ca3e 8b80 063f 9806 8bbe
000002e0: 30ac 20bd ab91 9b3e 26c8 30bf b870 ff3d
000002f0: c72f cdbe bfbe 953d 7af2 1b3e 1239 c3bc
00000300: e28a 7ebe 2e7d 07be 9ccd 54be a7e7 1abf
00000310: 03e5 e8bd ef13 1abc 31d9 87be 7a88 05be
00000320: 83f3 1c3e f98e 9cbe 1d96 09bf 977e e1bd
00000330: 61e4 e73e ae83 adbe 07f9 463e 9238 11bf
00000340: 535b f6bd 5045 d1bd d1ea 963d 81c9 fdbd
00000350: 41eb b8be 1a3c 7b3e 963c 39bd b5ab 093d
00000360: 16af 65bd 9c4f 053e 8872 0a3f 745a 993d
00000370: ea60 abbd 65d1 12bf 95d2 2abe 8ad4 f7bd
00000380: 7eaa 143e b030 8f3d 151b 1fbe 3097 77be
00000390: 6efa 84be 6fa0 5e3e f380 da3d 4d89 0ebf
000003a0: e078 a0bd 76a7 0b3e 372d 3d3e e061 11bf
000003b0: e5d1 953e 09ee 303d c399 2c3e e8c7 cf3e
000003c0: 2f00 8b3c 326a d1bd 58e4 f43e 684e 02be
000003d0: 36a5 8b3e 1221 823e 0578 8e3e dfb5 47bf
000003e0: f9ae f53e 1269 5cbe f023 be3e aa63 ce3e
000003f0: 9b57 aabe d1fa 2dbe bfd2 c03e 80b7 963b

backbone.stage1.1.unit1.pconv.bias f4 [16]
0.032871205 0.017184163 0.03785898 0.016153555 0.026004504 0.01873476 0.038303167 -0.0733869
0.009455773 0.06328811 0.024928046 0.017127868 0.029886315 0.010216047 0.010309587 0.021930937
00000000: f5a3 063d cdc5 8c3c 0512 1b3d 7654 843c
00000010: 6607 d53c a479 993c c8e3 1c3d df4b 96bd
00000020: 63ec 1a3c 329d 813d e735 cc3c be4f 8c3c
00000030: 25d4 f43c 3561 273c 8be9 283c 82a8 b33c

backbone.stage1.1.unit1.dconv.weight f4 [16, 1, 3, 3]
-0.44257388 -0.38677084 0.030745741 -0.20595254 -0.33812964 0.14852807 0.2529913 -0.00048700732
0.5446312 0.24899893 0.5097193 0.036711495 -0.012973294 0.24142852 -0.06809126 -0.039238676
0.15916562 0.05620538 0.13529432 -0.14291959 0.028957525 0.062454484 0.02793866 -0.18915401
0.7039162 0.825135 0.054599207 -0.14235212 -0.35778514 0.052413926 -0.022848032 -0.4818355
-0.08589638 0.2409945 0.35134077 0.15601766 0.017504582 0.03935146 0.04594779 -0.17277117
-0.0046848278 -0.21702409 -0.3288193 -0.48439187 -0.38594228 0.13129982 0.13876024 0.055600792
-0.0032487186 0.21862878 0.1352972 0.028443107 -0.07705225 0.08130634 -0.21929614 0.25569436
0.6616609 -0.03887283 -0.11171074 0.15108031 -0.097901985 0.088363074 0.07164158 0.5188101
0.26545635 0.06008104 0.24019109 -0.42714208 -0.60242826 0.1580365 -0.21094233 -0.7533391
0.12402623 0.60262096 0.050751604 0.36434773 -0.17105949 -0.37197116 -0.32209423 -0.5364169
-0.4594304 0.07476614 0.94998145 0.14034785 0.044861972 0.5234906 -0.2241772 0.14863122
-0.28383958 -0.2698079 0.21738572 0.32270655 0.05835568 -0.34059185 -0.42434454 -0.33226502
0.043683417 -0.05243575 -0.1826854 0.06241715 -0.3042094 -0.50166667 0.11925819 -0.041889228
0.05241436 0.092251524 -0.10593545 0.16440082 0.13884261 0.15190952 0.2052957 0.07767458
0.25890714 0.19386306 -0.20826289 -0.045617037 0.20250945 0.15156637 -0.09818523 -0.3732126
0.1991177 0.29348135 -0.025075698 0.26183185 0.074710235 0.010868267 -0.11283437 -0.06370416
-0.59603804 0.28898293 0.016898202 -0.3206429 0.38301367 0.24174753 0.13360831 -0.7586819
-0.8537444 -0.20828886 -0.8597819 -0.41813183 -0.13305868 -0.6241624 -0.39383978 -0.31944048
00000000: 0b99 e2be d406 c6be 7ede fb3c 39e5 52be
00000010: 541f adbe be17 183e 1388 813e 0455 ffb9
00000020: f36c 0b3f 93f9 7e3e f77c 023f cb5e 163d
00000030: f08d 54bc 0a39 773e 6e73 8bbd bcb8 20bd
00000040: 50fc 223e 9d37 663d 988a 0a3e 8359 12be
00000050: 5538 ed3c 46d0 7f3d 9edf e43c 97b1 41be
00000060: da33 343f 0c3c 533f 6ba3 5f3d c1c4 11be
00000070: 9d2f b7be fcaf 563d cc2b bbbc 25b3 f6be
00000080: 71ea afbd 43c7 763e f0e2 b33e 18c3 1f3e
00000090: c565 8f3c ff2e 213d c033 3c3d edea 30be
000000a0: 2f83 99bb 903b 5ebe 015b a8be 3602 f8be
000000b0: 3a9a c5be 7673 063e 2a17 0e3e a8bd 633d
000000c0: 74e8 54bb 39e0 5f3e 598b 0a3e 8501 e93c
000000d0: 92cd 9dbd f083 a63d 2b8f 60be 5fea 823e
000000e0: 9c62 293f 1e39 1fbd 9ac8 e4bd ccb4 1a3e
000000f0: d680 c8bd b3f7 b43d d2b8 923d bdd0 043f
00000100: e5e9 873e 8917 763d a7f4 753e 5eb2 dabe
00000110: bd38 1abf 52d4 213e 4401 58be d5da 40bf
00000120: 7701 fe3d 5e45 1a3f eae0 4f3d c98b ba3e
00000130: 382a 2fbe 0173 bebe 89e9 a4be 9e52 09bf
00000140: 763a ebbe fd1e 993d fc31 733f 59b7 0f3e
00000150: 30c1 373d 7b03 063f b58e 65be c832 183e
00000160: 6c53 91be 4324 8abe 5d9a 5e3e cb39 a53e
00000170: 5e06 6f3d 0e62 aebe b043 d9be a41e aabe
00000180: 62ed 323d dec6 56bd e211 3bbe 20a9 7f3d
00000190: 56c1 9bbe 3a6d 00bf a33d f43d 0a94 2bbd
000001a0: 71b0 563d 5eee bc3d aff4 d8bd b058 283e
000001b0: c22c 0e3e 2b8e 1b3e 0939 523e da13 9f3d
000001c0: 7a8f 843e 0a84 463e de42 55be eed8 3abd
000001d0: a35e 4f3e 3734 1b3e 5615 c9bd b915 bfbe
000001e0: 83e5 4b3e 3043 963e 8d6b cdbc d30e 863e
000001f0: ae01 993d d110 323c b515 e7bd 5477 82bd
00000200: f395 18bf 92f5 933e 196e 8a3c 4e2b a4be
00000210: 5e1a c43e aa8c 773e 9ed0 083e fa38 42bf
00000220: fe8e 5abf ad49 55be ab1a 5cbf 6015 d6be
00000230: 8940 08be 1bc9 1fbf 5ea5 c9be b48d a3be

backbone.stage1.1.unit1.dconv.bias f4 [16]
0.019950459 0.019950682 0.019950893 0.019950688 0.019950649 0.01995064 0.019950638 0.01995089
0.019950785 0.019950496 0.019950895 0.019951098 0.019950608 0.019950548 0.019950408 0.019950561
00000000: 256f a33c 9d6f a33c 0e70 a33c a06f a33c
00000010: 8b6f a33c 866f a33c 856f a33c 0d70 a33c
00000020: d46f a33c 396f a33c 0f70 a33c 7c70 a33c
00000030: 756f a33c 556f a33c 0a6f a33c 5c6f a33c

backbone.stage1.1.unit1.bn.weight f4 [16]
1.0590501 0.88309526 1.0232261 0.9297883 0.8789502 0.94281846 0.7940104 0.69102615
1.0398437 1.1628587 1.0384516 0.97102255 1.1164827 0.72918075 1.0361888 0.82478267
00000000: f48e 873f 8812 623f 13f9 823f 9b06 6e3f
00000010: e102 613f 8d5c 713f 4444 4b3f 17e7 303f
00000020: 9919 853f 8ed8 943f fbeb 843f ef94 783f
00000030: e8e8 8e3f 97ab 3a3f d6a1 843f f524 533f

backbone.stage1.1.unit1.bn.bias f4 [16]
0.51095045 -0.06620435 0.26767546 -0.16808797 -0.022234393 0.13360783 -0.27974898 1.0880799
0.3431246 0.7613389 0.3719827 0.100794695 -0.1955696 0.07051281 0.05560126 0.08259398
00000000: a6cd 023f 2596 87bd c20c 893e 411f 2cbe
00000010: e724 b6bc 7ed0 083e 423b 8fbe 3446 8b3f
00000020: 07ae af3e 1be7 423f 8474 be3e 736d ce3d
00000030: 6643 48be 0569 903d 26be 633d 0827 a93d

backbone.stage1.1.unit1.bn.running_mean f4 [16]
0.14298628 -0.7699668 -0.29430073 0.3232618 -0.1165621 -0.5518352 -1.0379177 -0.60810196
-0.49581462 -2.0150898 -0.5954836 0.33444917 -1.4189967 -0.022358546 0.017490821 -2.3045094
00000000: ff6a 123e 8b1c 45bf 96ae 96be 9282 a53e
00000010: 1cb8 eebd 1245 0dbf 7dda 84bf 92ac 1bbf
00000020: 6adb fdbe 3bf7 00c0 9d71 18bf ec3c ab3e
00000030: afa1 b5bf 4529 b7bc e948 8f3c 157d 13c0

backbone.stage1.1.unit1.bn.running_var f4 [16]
0.25837478 2.0347672 2.3173406 0.40986854 0.6132944 0.60217404 0.5073895 1.158834
1.5323975 1.9443808 1.2626878 0.38043 0.9681208 0.32637686 0.18800823 21.1453
00000000: b349 843e a039 0240 4f4f 1440 4ada d13e
00000010: dd00 1d3f 1428 1a3f 47e4 013f ac54 943f
00000020: 9a25 c43f 78e1 f83f c19f a13f b9c7 c23e
00000030: c4d6 773f de1a a73e 3b85 403e 9329 a941

backbone.stage1.1.unit2.pconv.weight f4 [64, 16, 1, 1]
0.3508281 -0.06598059 0.08581376 -0.2034515 -0.11432738 -0.10383681 0.04087985 -0.36988658
-0.19508968 -0.21653779 -0.05384898 0.111106634 -0.3023624 0.018855274 -0.053297002 0.106984206
0.28927386 -0.27470204 -0.22940587 -0.3143884 -0.07794877 0.20866096 0.28218234 0.039076947
-0.30824974 0.21843304 0.19980878 -0.08558542 -0.10473245 0.13464032 0.042133924 -0.22254528
0.20276883 0.6774415 -0.25819167 -0.09758645 0.1575217 0.10837704 0.022519236 -0.011644832
-0.20871317 0.1416997 0.07011521 0.060435735 0.1552999 -0.30588657 -0.087384626 -0.06232271
0.0936926 0.20875356 0.057378862 0.35376188 0.21462865 0.18827881 0.03962396 -0.15046504
-0.35432005 0.26844725 0.0066007623 -0.117336676 -0.025382767 0.1297568 0.061383575 0.12931825
0.1678505 -0.2659743 0.07544246 0.08734864 -0.0686645 0.25327045 -0.123018295 -0.56032836
-0.17663419 0.17893535 0.13073464 -0.3181354 0.12790544 0.045223277 0.099497795 0.08851655
-0.22963686 -0.20528683 0.051678553 0.30567873 -0.27883852 0.2018654 0.17266329 0.17064805
0.09830524 0.293498 0.010093181 -0.029740285 0.047624726 0.106023334 0.27477446 0.04743159
-0.40607977 -0.12228759 0.182435 -0.12515958 0.13485399 -0.0954676 0.056351423 0.19838892
-0.108172014 0.20755608 -0.17852674 0.055654757 0.20680992 -0.044837754 -0.21258469 -0.1752465
-0.17428069 -0.08567145 0.18369056 -0.078256905 -0.11792337 -0.027884355 0.15794167 0.122880414
-0.2388994 -0.5000605 0.13492025 -0.095893 -0.122639604 0.09955736 -0.14354426 -0.05403565
0.11288906 0.05636519 -0.15023293 -0.009383183 0.055778712 -0.27705547 -0.022250228 -0.3079652
0.075846374 -0.019848874 0.059522048 0.1561471 0.231572 0.08152284 0.18046904 0.13287438
0.060498185 0.10735962 0.21440293 0.21525693 0.10052103 0.02448192 -0.28165475 -0.039378498
0.063532494 -0.11815476 0.44122258 0.022622677 -0.06821976 -0.44244635 0.052636698 -0.20998505
0.06762603 -0.08696107 -0.00784702 -0.0078085265 -0.011802091 -0.08551558 -0.0010223165 -0.24556823
-0.3746148 0.21536495 -0.16435227 -0.058482356 -0.30774042 0.26075074 0.06492305 0.31382278
-0.08918493 0.040571235 -0.13779669 0.24993749 -0.1240725 0.21960185 0.01623944 0.39130723
-0.19527632 -0.14307202 -0.06375378 -0.259691 0.28092134 0.040546216 0.051545262 -0.14048743
-0.16620451 -0.095739454 0.011595879 -0.2184946 0.23124047 -0.16687639 -0.25050056 0.25023475
0.030919032 -0.029880682 -0.10330899 0.32234827 0.00992831 -0.30349338 0.0011342311 -0.10593868
-0.49471533 0.00845388 0.010739739 -0.30034634 -0.009794644 0.10181674 -0.16976583 0.034964412
0.04488271 -0.43828127 0.11797738 -0.36374786 -0.037693575 0.06894794 -0.2924742 0.032210857
-0.3143837 0.2956908 -0.023507105 -0.14673112 -0.17612192 -0.1578676 0.074134804 -0.05108961
-0.41245314 -0.3562423 -0.017599406 -0.026827376 0.017331935 0.024135606 -0.0026264098 -0.18710512
-0.1512112 0.20474523 -0.4138962 0.1078326 0.26970303 0.06052772 0.09365892 0.219747
0.13875423 -0.16165024 -0.11654638 0.07845152 -0.16481699 -0.09457583 -0.08612135 -0.2784604
00000000: be9f b33e d520 87bd 20bf af3d 9755 50be
00000010: 7924 eabd 65a8 d4bd a171 273d c661 bdbe
00000020: 97c5 47be 15bc 5dbe c090 5cbd e08b e33d
00000030: 3fcf 9abe 6076 9a3c f54d 5abd 891a db3d
00000040: b41b 943e bfa5 8cbe 5fe9 6abe 84f7 a0be
00000050: 9ba3 9fbd 38ab 553e 347a 903e 260f 203d
00000060: e9d2 9dbe e9ac 5f3e ac9a 4c3e 6947 afbd
00000070: f77d d6bd 27df 093e 9f94 2c3d e9e2 63be
00000080: a2a2 4f3e ce6c 2d3f b331 84be 68db c7bd
00000090: 5e4d 213e c8f4 dd3d 437a b83c f7c9 3ebc
000000a0: e8b8 55be ba19 113e 9098 8f3d 768b 773d
000000b0: f006 1f3e 2a9d 9cbe b6f6 b2bd 1946 7fbd
000000c0: e8e1 bf3d 7ec3 553e 1906 6b3d 4720 b53e
000000d0: 9dc7 5b3e 29cc 403e bc4c 223d 8213 1abe
000000e0: 7069 b5be eb71 893e 354b d83b 364e f0bd
000000f0: 85ef cfbc f7de 043e 586d 7b3d 016c 043e
00000100: 00e1 2b3e c92d 88be 9481 9a3d d8e3 b23d
00000110: f99f 8cbd aaac 813e 04f1 fbbd ae71 0fbf
00000120: 98df 34be d43a 373e 4ddf 053e a5e2 a2be
00000130: a5f9 023e 0b3c 393d 80c5 cb3d 2a48 b53d
00000140: ed25 6bbe b636 52be e4ac 533d ec81 9c3e
00000150: ecc3 8ebe ceb5 4e3e a5ce 303e 5dbe 2e3e
00000160: 4254 c93d 5f45 963e df5d 253c e6a1 f3bc
00000170: 2512 433d c322 d93d 3daf 8c3e a047 423d
00000180: b0e9 cfbe ea71 fabd 3ed0 3a3e d529 00be
00000190: 2a17 0a3e 8484 c3bd c0d0 663d 7726 4b3e
000001a0: 4a89 ddbd 9589 543e b7cf 36be 3ef6 633d
000001b0: fbc5 533e cba7 37bd cdaf 59be d273 33be
000001c0: a376 32be 8374 afbd 6119 3c3e 2845 a0bd
000001d0: cf81 f1bd bb6d e4bc 76bb 213e baa8 fb3d
000001e0: 0ba2 74be f703 00bf 8928 0a3e 8d63 c4bd
000001f0: 792a fbbd bbe4 cb3d 44fd 12be 7c54 5dbd
00000200: 6132 e73d 2fdf 663d a9d6 19be ecbb 19bc
00000210: 3878 643d 37da 8dbe 1c46 b6bc 9dad 9dbe
00000220: 5855 9b3d 1b9a a2bc 64cd 733d 06e5 1f3e
00000230: 3621 6d3e 72f5 a63d e0cc 383e 3910 083e
00000240: f2cc 773d 5cdf db3d 718c 5b3e 506c 5c3e
00000250: f8dd cd3d 4f8e c83c 0d35 90be 594b 21bd
00000260: 531d 823d 1ffb f1bd ede7 e13e 3153 b93c
00000270: cdb6 8bbd 5488 e2be 9499 573d 5206 57be
00000280: 847f 8a3d a518 b2bd ca90 00bc abde ffbb
00000290: 8f5d 41bc cb22 afbd 40ff 85ba 3d76 7bbe
000002a0: 83cd bfbe a188 5c3e f64b 28be 328b 6fbd
000002b0: 2790 9dbe 1f81 853e 60f6 843d 61ad a03e
000002c0: 97a6 b6bd 062e 263d 931a 0dbe 9def 7f3e
000002d0: b919 febd 4fdf 603e 9308 853c 6c59 c83e
000002e0: 84f6 47be 7981 12be 5891 82bd 38f6 84be
000002f0: ecd4 8f3e ca13 263d 2021 533d f0db 0fbe
00000300: 8431 2abe 0c13 c4bd a4fc 3d3c 0cbd 5fbe
00000310: 4dca 6c3e a5e1 2abe 9c41 80be c51e 803e
00000320: e949 fd3c 55c8 f4bc aa93 d3bd d50a a53e
00000330: 5aaa 223c 7c63 9bbe 7baa 943a 61f6 d8bd
00000340: 544b fdbe 2582 0a3c bbf5 2f3c ffc6 99be
00000350: b779 20bc 4c85 d03d 18d7 2dbe d836 0f3d
00000360: efd6 373d 6766 e0be 209e f13d 293d babe
00000370: 9464 1abd 9434 8d3d 2ebf 95be 88ef 033d
00000380: e6f6 a0be c964 973e f991 c0bc af40 16be
00000390: 4e59 34be 0ba8 21be fdd3 973d 5743 51bd
000003a0: 0f2d d3be 6465 b6be a12c 90bc 16c5 dbbc
000003b0: b4fb 8d3c 09b8 c53c d81f 2cbb 7c98 3fbe
000003c0: 1cd7 1abe bca8 513e 34ea d3be 57d7 dc3d
000003d0: 8416 8a3e eaeb 773d 3fd0 bf3d 5c05 613e
000003e0: 9715 0e3e a487 25be deaf eebd 31ab a03d
000003f0: c9c5 28be f9b0 c1bd 6460 b0bd 5d92 8ebe

backbone.stage1.1.unit2.pconv.bias f4 [64]
0.021773325 0.016765706 0.0181637 0.029826397 0.02573877 0.019452835 0.015702194 0.020652246
0.020677568 0.021561084 0.022898652 0.015814763 0.020585565 0.016538097 0.021274801 0.023931578
0.02208403 0.014509971 0.025557758 0.022060415 0.017064447 0.017743032 0.022451272 0.019688468
0.028031096 0.018514177 0.018704074 0.017427431 0.027971856 0.018756986 0.02031863 0.027888156
0.019106042 0.039840236 0.01911429 0.01743862 0.025871964 0.018001156 0.023465479 0.01704066
0.013200485 0.018467912 0.017740551 0.04119627 0.01722802 0.021641746 0.020205691 0.022956083
0.02419039 0.029936956 0.020528043 0.019328298 0.019590387 0.017528137 0.022547254 0.017407289
0.02275572 0.01668833 0.023353018 0.019200906 0.017406296 0.015497713 0.0131086055 0.019927453
00000000: f95d b23c 3c58 893c 0acc 943c 7d56 f43c
00000010: 1dda d23c 8d5b 9f3c e3a1 803c e62e a93c
00000020: 0164 a93c dfa0 b03c f495 bb3c f68d 813c
00000030: 0fa3 a83c e77a 873c 7e48 ae3c 280c c43c
00000040: 91e9 b43c 3bbb 6d3c 815e d13c 0bb8 b43c
00000050: bdca 8b3c d659 913c bbeb b73c b649 a13c
00000060: 78a1 e53c 0bab 973c 4939 993c f9c3 8e3c
00000070: 3c25 e53c 40a8 993c 4173 a63c b475 e43c
00000080: 4684 9c3c 842f 233d 9295 9c3c 70db 8e3c
00000090: 71f1 d33c 2977 933c ad3a c03c db98 8b3c
000000a0: d946 583c 054a 973c a254 913c 6cbd 283d
000000b0: c721 8d3c 084a b13c 6886 a53c 650e bc3c
000000c0: ed2a c63c 593e f53c 6d2a a83c 6156 9e3c
000000d0: 057c a03c 2b97 8f3c 05b5 b83c bb99 8e3c
000000e0: 346a ba3c f7b5 883c d44e bf3c 384b 9d3c
000000f0: a697 8e3c 1fea 7d3c 7ac5 563c e63e a33c

backbone.stage1.1.unit2.dconv.weight f4 [64, 1, 3, 3]
0.016391272 -0.16727442 -0.16965781 -0.0324872 -0.16279578 -0.28225186 -0.12919591 0.0033258551
-0.050490547 -0.010459475 -0.022543624 0.0065941312 -0.07921507 -0.037010886 -0.028258305 -0.12756309
-0.10763003 -0.18190338 0.16076873 0.13198021 0.010941858 0.066358395 0.05391694 -0.05716654
0.041415904 0.14530239 0.042384893 0.1908338 -0.1513654 -0.16325432 -0.076859064 -0.25772485
0.029309208 0.1371175 0.12404747 0.1779078 -0.35300422 -0.37941775 0.13798001 -0.15468587
-0.24421374 0.06692237 0.024355909 -0.26066312 0.12668304 -0.07685498 0.091006555 0.1958892
-0.049522746 0.042732548 0.0649965 -0.19803585 0.06703395 -0.095079824 0.11805957 0.264713
0.11564753 -0.019989254 0.022387782 0.25871733 0.070253566 -0.049875468 0.32425743 -0.2996168
0.0794456 0.10788336 -0.14231348 0.16737318 0.11944311 -0.09663408 0.082609944 0.04386506
-0.04243534 -0.02907087 -0.085486025 -0.012072772 -0.09867425 -0.1261735 -0.018892195 -0.056318548
-0.19743195 0.11764801 0.2057941 0.11941678 -0.22606301 -0.37374863 -0.089379154 0.080411635
0.11721725 -0.050047923 0.28165102 0.12910049 0.016190255 -0.14098358 -0.19137116 -0.25343177
-0.07760062 0.016248574 0.018328797 0.02240489 -0.008218491 -0.09772178 -0.114791915 -0.049199626
-0.16994183 -0.07210329 0.042946644 -0.17182033 -0.15900461 0.004712663 0.0540993 -0.033611782
0.017158221 0.044844635 -0.030599302 0.14979003 0.23495361 0.13900061 0.25921965 0.14473611
0.09261576 0.010082018 0.18847696 -0.018384771 -0.13875115 0.08687201 -0.07704949 -0.077549405
0.08583849 -0.15266934 -0.07590898 -0.10954624 -0.19173923 -0.04257948 -0.056080233 0.09452784
-0.0018014753 0.27417436 -0.18141517 -0.08843444 0.0474682 0.14665201 0.07485624 0.109392375
0.17080054 0.05062783 0.08348861 0.1996293 0.10759282 0.0049124835 0.11785657 0.0141559085
-0.26431918 0.08355607 0.1447354 0.064822145 -0.006245442 0.11104401 0.05405551 -0.03632228
-0.13679726 -0.11568215 0.25925025 0.018097159 -0.054485735 0.32532898 0.22452787 -0.035568647
0.19605094 0.28812185 0.020897185 -0.1538276 -0.15544471 0.070759945 -0.09476617 -0.1200549
0.04822961 0.07994412 -0.06252994 -0.11320192 0.18959151 0.36469993 0.27005547 0.11557845
-0.04027126 -0.2063095 -0.053008053 -0.15568459 -0.3992124 0.0443498 -0.08310939 0.051792614
0.04183987 0.06735169 0.08815751 0.104341395 0.10070813 0.23070341 0.056286965 -0.11292464
0.08699459 0.077062 -0.24197742 0.11743996 0.1646182 -0.27602038 -0.018937355 0.14387056
-0.11604312 -0.13993245 0.05646911 -0.052376628 -0.13020764 0.020756131 -0.023144817 -0.11304758
0.008530988 0.2383588 -0.029004313 0.0628433 -0.04021119 -0.33216152 0.19545612 -0.038046263
-0.32855365 -0.093320414 -0.13937487 -0.04565956 -0.08383214 -0.20033965 0.044583432 -0.03623709
-0.0954965 0.0015138912 0.04052574 -0.03025838 0.008513845 -0.10881556 -0.19630323 0.14075774
0.03109498 -0.0035053422 0.23064904 0.06674989 -0.06256079 0.18513511 0.054332215 -0.11394186
0.11295886 0.12431064 0.04408801 0.32811075 0.11841491 -0.04180868 0.006949904 0.23708594
00000000: fd46 863c fc49 2bbe c7ba 2dbe 4c11 05bd
00000010: f0b3 26be 5183 90be ef4b 04be 97f6 593b
00000020: 2dcf 4ebd 385e 2bbc 68ad b8bc 9513 d83b
00000030: 833b a2bd ba98 17bd f67d e7bc e69f 02be
00000040: 226d dcbd e144 3abe 8fa0 243e d225 073e
00000050: 7b45 333c e9e6 873d 02d8 5c3d 7627 6abd
00000060: b9a3 293d 26ca 143e c89b 2d3d f069 433e
00000070: 88ff 1abe 242c 27be 4968 9dbd 83f4 83be
00000080: dd19 f03c 8868 0c3e 9a0c fe3d 762d 363e
00000090: f8bc b4be 0b43 c2be a24a 0d3e f965 1ebe
000000a0: 2b13 7abe 980e 893d 0b86 c73c a375 85be
000000b0: 33b9 013e 2566 9dbd a561 ba3d 2e97 483e
000000c0: 5dd8 4abd 5308 2f3d e31c 853d e9c9 4abe
000000d0: 1849 893d 36b9 c2bd 37c9 f13d 7688 873e
000000e0: 9dd8 ec3d 81c0 a3bc 9566 b73c 9976 843e
000000f0: 1ae1 8f3d 384a 4cbd 1205 a63e 6067 99be
00000100: 60b4 a23d f3f1 dc3d a0ba 11be e063 2b3e
00000110: 979e f43d 17e8 c5bd 672f a93d d9ab 333d
00000120: aed0 2dbd 0826 eebc 4c13 afbd e0cc 45bc
00000130: ba15 cabd a033 01be cec3 9abc 47ae 66bd
00000140: 9a2b 4abe 71f1 f03d b0bb 523e c990 f43d
00000150: 107d 67be fb5b bfbe 6b0c b7bd dbae a43d
00000160: 990f f03d 0dff 4cbd 9034 903e eb32 043e
00000170: 6da1 843c 005e 10be cdf6 43be cfc1 81be
00000180: 13ed 9ebd bb1b 853c 4626 963c 768a b73c
00000190: daa6 06bc 5b22 c8bd 0618 ebbd 8c85 49bd
000001a0: 3b05 2ebe e4aa 93bd d2e8 2f3d abf1 2fbe
000001b0: 1bd2 22be af6c 9a3b 3a97 5d3d 82ac 09bd
000001c0: 668f 8c3c 02af 373d 63ab fabc 8f62 193e
000001d0: ae97 703e 2d56 0e3e 70b8 843e b435 143e
000001e0: 55ad bd3d 0c2f 253c 1b00 413e a99b 96bc
000001f0: c814 0ebe f4e9 b13d 1fcc 9dbd 39d2 9ebd
00000200: 17cc af3d 5a55 1cbe 2b76 9bbd c759 e0bd
00000210: 4a57 44be d267 2ebd 63b4 65bd d097 c13d
00000220: 7b1f ecba 9560 8c3e e6c4 39be 1e1d b5bd
00000230: 046e 423d f22b 163e 3a4e 993d 1c09 e03d
00000240: 56e6 2e3e 215f 4f3d 14fc aa3d a06b 4c3e
00000250: a059 dc3d e6f8 a03b c95e f13d 2fee 673c
00000260: d854 87be 721f ab3d 8435 143e 79c1 843d
00000270: 91a6 ccbb 0b6b e33d 4f69 5d3d acc6 14bd
00000280: 9514 0cbe c3ea ecbd 73bc 843e 7e40 943c
00000290: 6f2c 5fbd 8591 a63e a2ea 653e 6eb0 11bd
000002a0: 94c1 483e b584 933e 9330 ab3c fb84 1dbe
000002b0: e62c 1fbe 97ea 903d c414 c2bd 58df f5bd
000002c0: 698c 453d beb9 a33d b20f 80bd 69d6 e7bd
000002d0: 4724 423e f3b9 ba3e b644 8a3e 65b4 ec3d
000002e0: 7af3 24bd cc42 53be f91e 59bd c86b 1fbe
000002f0: 9165 ccbe 23a8 353d 4235 aabd 7e24 543d
00000300: 4960 2b3d afef 893d ed8b b43d f1b0 d53d
00000310: 1040 ce3d 843d 6c3e 298d 663d 0945 e7bd
00000320: 382a b23d afd2 9d3d eec8 77be 5d84 f03d
00000330: ac91 283e 8b52 8dbe 8322 9bbc ce52 133e
00000340: 04a8 edbd 744a 0fbe 274c 673d e088 56bd
00000350: 2755 05be c308 aa3c 339a bdbc 7d85 e7bd
00000360: 8fc5 0b3c 5414 743e 749a edbc fdb3 803d
00000370: 7db4 24bd 1311 aabe a625 483e 66d6 1bbd
00000380: 2f38 a8be c61e bfbd 49b8 0ebe 8505 3bbd
00000390: 2fb0 abbd d625 4dbe 1e9d 363d 586d 14bd
000003a0: ab93 c3bd c26d c63a 51fe 253d 6ce0 f7bc
000003b0: a77d 0b3c b1da debd b703 49be cc22 103e
000003c0: e6ba fe3c e2b9 65bb 432f 6c3e 2bb4 883d
000003d0: df1f 80bd 0f94 3d3e 758b 5e3d 5a5a e9bd
000003e0: fa56 e73d 9496 fe3d a195 343d 22fe a73e
000003f0: 8483 f23d 943f 2bbd 05bc e33b a8c6 723e

backbone.stage1.1.unit2.dconv.bias f4 [64]
0.019950587 0.019951044 0.019950839 0.019950416 0.019950468 0.019950861 0.019950671 0.019950727
0.019950522 0.01995092 0.019950753 0.019950837 0.019950712 0.019951066 0.019950304 0.019950375
0.019950766 0.019950895 0.019950802 0.019950552 0.019950783 0.0199507 0.019950708 0.019950476
0.019950533 0.01995069 0.019950388 0.019950232 0.019950494 0.019950448 0.019950844 0.019950375
0.019950423 0.01995076 0.01995094 0.019950747 0.01995076 0.019950569 0.019950751 0.019950654
0.019950757 0.019950613 0.019950531 0.019950312 0.01995075 0.01995053 0.019950524 0.019950507
0.019950723 0.0199509 0.019950984 0.019950643 0.019950515 0.019950645 0.019950077 0.019950733
0.019950334 0.019950522 0.019950181 0.019951308 0.019951005 0.019951012 0.019950654 0.019950194
00000000: 6a6f a33c 5f70 a33c f16f a33c 0e6f a33c
00000010: 2a6f a33c fd6f a33c 976f a33c b56f a33c
00000020: 476f a33c 1d70 a33c c36f a33c f06f a33c
00000030: ad6f a33c 6b70 a33c d26e a33c f86e a33c
00000040: ca6f a33c 0f70 a33c dd6f a33c 576f a33c
00000050: d36f a33c a76f a33c ab6f a33c 2e6f a33c
00000060: 4d6f a33c a16f a33c ff6e a33c ab6e a33c
00000070: 386f a33c 1f6f a33c f46f a33c f86e a33c
00000080: 126f a33c c76f a33c 2770 a33c c06f a33c
00000090: c76f a33c 606f a33c c26f a33c 8e6f a33c
000000a0: c56f a33c 786f a33c 4c6f a33c d66e a33c
000000b0: c16f a33c 4b6f a33c 486f a33c 3f6f a33c
000000c0: b36f a33c 1270 a33c 3f70 a33c 886f a33c
000000d0: 436f a33c 896f a33c 586e a33c b86f a33c
000000e0: e26e a33c 476f a33c 906e a33c ed70 a33c
000000f0: 4a70 a33c 4e70 a33c 8e6f a33c 976e a33c

backbone.stage1.1.unit2.bn.weight f4 [64]
1.0416819 0.92814237 1.0036721 1.0661862 0.964432 0.98539203 0.93362546 0.95487136
0.93916017 1.3107351 0.8832555 0.9679492 0.93447566 0.8812541 0.9681227 0.9489631
0.8956294 0.86088187 0.98414165 0.9466142 1.1549072 0.96045935 1.0050505 1.038244
1.019967 1.0109582 0.98810667 0.976227 0.9415168 0.9359925 1.0323308 1.0163413
1.05825 1.0526803 0.94412726 0.99779594 0.9472542 0.95876586 1.0077701 0.9958517
0.95414424 0.95145744 0.88550746 1.0468135 1.0842433 0.9617023 0.9581046 1.0051787
1.0918093 1.103901 1.0577686 1.1322514 1.068597 0.9044032 1.1302557 0.9025052
1.1295189 1.0289519 0.9384756 0.88878846 0.9029776 1.0074633 1.0209533 1.1121325
00000000: d555 853f bd9a 6d3f 5478 803f ca78 883f
00000010: 04e5 763f a742 7c3f 1402 6f3f 7372 743f
00000020: cd6c 703f 2bc6 a73f 081d 623f 85cb 773f
00000030: cc39 6f3f de99 613f e4d6 773f 3fef 723f
00000040: f847 653f c162 5c3f b5f0 7b3f 4f55 723f
00000050: 00d4 933f aae0 753f 7fa5 803f 2ee5 843f
00000060: 478e 823f 1467 813f 8ff4 7c3f 03ea 793f
00000070: 3f07 713f 349d 6f3f 6a23 843f 7917 823f
00000080: bc74 873f 3abe 863f 53b2 713f 8e6f 7f3f
00000090: 407f 723f ae71 753f 9cfe 803f 23f0 7e3f
000000a0: cc42 743f b792 733f 9eb0 623f fcfd 853f
000000b0: 7cc8 8a3f 1f32 763f 5846 753f b2a9 803f
000000c0: 68c0 8b3f a14c 8d3f f664 873f 9ded 903f
000000d0: c9c7 883f f886 673f 38ac 903f 950a 673f
000000e0: 1394 903f b2b4 833f f03f 703f a487 633f
000000f0: 8a29 673f 8ff4 803f 99ae 823f 5c5a 8e3f
